{
  "nodes": [
    {
      "op": "null", 
      "name": "data", 
      "inputs": []
    }, 
    {
      "op": "null", 
      "name": "conv1_weight", 
      "attrs": {
        "__dtype__": "0", 
        "__lr_mult__": "1.0", 
        "__shape__": "(64, 0, 6, 6)", 
        "__storage_type__": "0", 
        "__wd_mult__": "1.0"
      }, 
      "inputs": []
    }, 
    {
      "op": "null", 
      "name": "conv1_bias", 
      "attrs": {
        "__dtype__": "0", 
        "__init__": "zeros", 
        "__lr_mult__": "1.0", 
        "__shape__": "(64,)", 
        "__storage_type__": "0", 
        "__wd_mult__": "1.0"
      }, 
      "inputs": []
    }, 
    {
      "op": "Convolution", 
      "name": "conv1_fwd", 
      "attrs": {
        "dilate": "(1, 1)", 
        "kernel": "(6, 6)", 
        "layout": "NCHW", 
        "no_bias": "False", 
        "num_filter": "64", 
        "num_group": "1", 
        "pad": "(2, 2)", 
        "stride": "(2, 2)"
      }, 
      "inputs": [[0, 0, 0], [1, 0, 0], [2, 0, 0]]
    }, 
    {
      "op": "Activation", 
      "name": "silu0_sigmoid0_fwd", 
      "attrs": {"act_type": "sigmoid"}, 
      "inputs": [[3, 0, 0]]
    }, 
    {
      "op": "elemwise_mul", 
      "name": "silu0__mul0", 
      "inputs": [[3, 0, 0], [4, 0, 0]]
    }, 
    {
      "op": "null", 
      "name": "conv3_weight", 
      "attrs": {
        "__dtype__": "0", 
        "__lr_mult__": "1.0", 
        "__shape__": "(128, 0, 3, 3)", 
        "__storage_type__": "0", 
        "__wd_mult__": "1.0"
      }, 
      "inputs": []
    }, 
    {
      "op": "null", 
      "name": "conv3_bias", 
      "attrs": {
        "__dtype__": "0", 
        "__init__": "zeros", 
        "__lr_mult__": "1.0", 
        "__shape__": "(128,)", 
        "__storage_type__": "0", 
        "__wd_mult__": "1.0"
      }, 
      "inputs": []
    }, 
    {
      "op": "Convolution", 
      "name": "conv3_fwd", 
      "attrs": {
        "dilate": "(1, 1)", 
        "kernel": "(3, 3)", 
        "layout": "NCHW", 
        "no_bias": "False", 
        "num_filter": "128", 
        "num_group": "1", 
        "pad": "(1, 1)", 
        "stride": "(2, 2)"
      }, 
      "inputs": [[5, 0, 0], [6, 0, 0], [7, 0, 0]]
    }, 
    {
      "op": "Activation", 
      "name": "silu1_sigmoid0_fwd", 
      "attrs": {"act_type": "sigmoid"}, 
      "inputs": [[8, 0, 0]]
    }, 
    {
      "op": "elemwise_mul", 
      "name": "silu1__mul0", 
      "inputs": [[8, 0, 0], [9, 0, 0]]
    }, 
    {
      "op": "null", 
      "name": "conv5_weight", 
      "attrs": {
        "__dtype__": "0", 
        "__lr_mult__": "1.0", 
        "__shape__": "(64, 0, 1, 1)", 
        "__storage_type__": "0", 
        "__wd_mult__": "1.0"
      }, 
      "inputs": []
    }, 
    {
      "op": "null", 
      "name": "conv5_bias", 
      "attrs": {
        "__dtype__": "0", 
        "__init__": "zeros", 
        "__lr_mult__": "1.0", 
        "__shape__": "(64,)", 
        "__storage_type__": "0", 
        "__wd_mult__": "1.0"
      }, 
      "inputs": []
    }, 
    {
      "op": "Convolution", 
      "name": "conv5_fwd", 
      "attrs": {
        "dilate": "(1, 1)", 
        "kernel": "(1, 1)", 
        "layout": "NCHW", 
        "no_bias": "False", 
        "num_filter": "64", 
        "num_group": "1", 
        "pad": "(0, 0)", 
        "stride": "(1, 1)"
      }, 
      "inputs": [[10, 0, 0], [11, 0, 0], [12, 0, 0]]
    }, 
    {
      "op": "Activation", 
      "name": "silu2_sigmoid0_fwd", 
      "attrs": {"act_type": "sigmoid"}, 
      "inputs": [[13, 0, 0]]
    }, 
    {
      "op": "elemwise_mul", 
      "name": "silu2__mul0", 
      "inputs": [[13, 0, 0], [14, 0, 0]]
    }, 
    {
      "op": "null", 
      "name": "conv11_weight", 
      "attrs": {
        "__dtype__": "0", 
        "__lr_mult__": "1.0", 
        "__shape__": "(64, 0, 1, 1)", 
        "__storage_type__": "0", 
        "__wd_mult__": "1.0"
      }, 
      "inputs": []
    }, 
    {
      "op": "null", 
      "name": "conv11_bias", 
      "attrs": {
        "__dtype__": "0", 
        "__init__": "zeros", 
        "__lr_mult__": "1.0", 
        "__shape__": "(64,)", 
        "__storage_type__": "0", 
        "__wd_mult__": "1.0"
      }, 
      "inputs": []
    }, 
    {
      "op": "Convolution", 
      "name": "conv11_fwd", 
      "attrs": {
        "dilate": "(1, 1)", 
        "kernel": "(1, 1)", 
        "layout": "NCHW", 
        "no_bias": "False", 
        "num_filter": "64", 
        "num_group": "1", 
        "pad": "(0, 0)", 
        "stride": "(1, 1)"
      }, 
      "inputs": [[15, 0, 0], [16, 0, 0], [17, 0, 0]]
    }, 
    {
      "op": "Activation", 
      "name": "silu5_sigmoid0_fwd", 
      "attrs": {"act_type": "sigmoid"}, 
      "inputs": [[18, 0, 0]]
    }, 
    {
      "op": "elemwise_mul", 
      "name": "silu5__mul0", 
      "inputs": [[18, 0, 0], [19, 0, 0]]
    }, 
    {
      "op": "null", 
      "name": "conv13_weight", 
      "attrs": {
        "__dtype__": "0", 
        "__lr_mult__": "1.0", 
        "__shape__": "(64, 0, 3, 3)", 
        "__storage_type__": "0", 
        "__wd_mult__": "1.0"
      }, 
      "inputs": []
    }, 
    {
      "op": "null", 
      "name": "conv13_bias", 
      "attrs": {
        "__dtype__": "0", 
        "__init__": "zeros", 
        "__lr_mult__": "1.0", 
        "__shape__": "(64,)", 
        "__storage_type__": "0", 
        "__wd_mult__": "1.0"
      }, 
      "inputs": []
    }, 
    {
      "op": "Convolution", 
      "name": "conv13_fwd", 
      "attrs": {
        "dilate": "(1, 1)", 
        "kernel": "(3, 3)", 
        "layout": "NCHW", 
        "no_bias": "False", 
        "num_filter": "64", 
        "num_group": "1", 
        "pad": "(1, 1)", 
        "stride": "(1, 1)"
      }, 
      "inputs": [[20, 0, 0], [21, 0, 0], [22, 0, 0]]
    }, 
    {
      "op": "Activation", 
      "name": "silu6_sigmoid0_fwd", 
      "attrs": {"act_type": "sigmoid"}, 
      "inputs": [[23, 0, 0]]
    }, 
    {
      "op": "elemwise_mul", 
      "name": "silu6__mul0", 
      "inputs": [[23, 0, 0], [24, 0, 0]]
    }, 
    {
      "op": "elemwise_add", 
      "name": "bottle0__plus0", 
      "inputs": [[15, 0, 0], [25, 0, 0]]
    }, 
    {
      "op": "null", 
      "name": "conv15_weight", 
      "attrs": {
        "__dtype__": "0", 
        "__lr_mult__": "1.0", 
        "__shape__": "(64, 0, 1, 1)", 
        "__storage_type__": "0", 
        "__wd_mult__": "1.0"
      }, 
      "inputs": []
    }, 
    {
      "op": "null", 
      "name": "conv15_bias", 
      "attrs": {
        "__dtype__": "0", 
        "__init__": "zeros", 
        "__lr_mult__": "1.0", 
        "__shape__": "(64,)", 
        "__storage_type__": "0", 
        "__wd_mult__": "1.0"
      }, 
      "inputs": []
    }, 
    {
      "op": "Convolution", 
      "name": "conv15_fwd", 
      "attrs": {
        "dilate": "(1, 1)", 
        "kernel": "(1, 1)", 
        "layout": "NCHW", 
        "no_bias": "False", 
        "num_filter": "64", 
        "num_group": "1", 
        "pad": "(0, 0)", 
        "stride": "(1, 1)"
      }, 
      "inputs": [[26, 0, 0], [27, 0, 0], [28, 0, 0]]
    }, 
    {
      "op": "Activation", 
      "name": "silu7_sigmoid0_fwd", 
      "attrs": {"act_type": "sigmoid"}, 
      "inputs": [[29, 0, 0]]
    }, 
    {
      "op": "elemwise_mul", 
      "name": "silu7__mul0", 
      "inputs": [[29, 0, 0], [30, 0, 0]]
    }, 
    {
      "op": "null", 
      "name": "conv17_weight", 
      "attrs": {
        "__dtype__": "0", 
        "__lr_mult__": "1.0", 
        "__shape__": "(64, 0, 3, 3)", 
        "__storage_type__": "0", 
        "__wd_mult__": "1.0"
      }, 
      "inputs": []
    }, 
    {
      "op": "null", 
      "name": "conv17_bias", 
      "attrs": {
        "__dtype__": "0", 
        "__init__": "zeros", 
        "__lr_mult__": "1.0", 
        "__shape__": "(64,)", 
        "__storage_type__": "0", 
        "__wd_mult__": "1.0"
      }, 
      "inputs": []
    }, 
    {
      "op": "Convolution", 
      "name": "conv17_fwd", 
      "attrs": {
        "dilate": "(1, 1)", 
        "kernel": "(3, 3)", 
        "layout": "NCHW", 
        "no_bias": "False", 
        "num_filter": "64", 
        "num_group": "1", 
        "pad": "(1, 1)", 
        "stride": "(1, 1)"
      }, 
      "inputs": [[31, 0, 0], [32, 0, 0], [33, 0, 0]]
    }, 
    {
      "op": "Activation", 
      "name": "silu8_sigmoid0_fwd", 
      "attrs": {"act_type": "sigmoid"}, 
      "inputs": [[34, 0, 0]]
    }, 
    {
      "op": "elemwise_mul", 
      "name": "silu8__mul0", 
      "inputs": [[34, 0, 0], [35, 0, 0]]
    }, 
    {
      "op": "elemwise_add", 
      "name": "bottle1__plus0", 
      "inputs": [[26, 0, 0], [36, 0, 0]]
    }, 
    {
      "op": "null", 
      "name": "conv19_weight", 
      "attrs": {
        "__dtype__": "0", 
        "__lr_mult__": "1.0", 
        "__shape__": "(64, 0, 1, 1)", 
        "__storage_type__": "0", 
        "__wd_mult__": "1.0"
      }, 
      "inputs": []
    }, 
    {
      "op": "null", 
      "name": "conv19_bias", 
      "attrs": {
        "__dtype__": "0", 
        "__init__": "zeros", 
        "__lr_mult__": "1.0", 
        "__shape__": "(64,)", 
        "__storage_type__": "0", 
        "__wd_mult__": "1.0"
      }, 
      "inputs": []
    }, 
    {
      "op": "Convolution", 
      "name": "conv19_fwd", 
      "attrs": {
        "dilate": "(1, 1)", 
        "kernel": "(1, 1)", 
        "layout": "NCHW", 
        "no_bias": "False", 
        "num_filter": "64", 
        "num_group": "1", 
        "pad": "(0, 0)", 
        "stride": "(1, 1)"
      }, 
      "inputs": [[37, 0, 0], [38, 0, 0], [39, 0, 0]]
    }, 
    {
      "op": "Activation", 
      "name": "silu9_sigmoid0_fwd", 
      "attrs": {"act_type": "sigmoid"}, 
      "inputs": [[40, 0, 0]]
    }, 
    {
      "op": "elemwise_mul", 
      "name": "silu9__mul0", 
      "inputs": [[40, 0, 0], [41, 0, 0]]
    }, 
    {
      "op": "null", 
      "name": "conv21_weight", 
      "attrs": {
        "__dtype__": "0", 
        "__lr_mult__": "1.0", 
        "__shape__": "(64, 0, 3, 3)", 
        "__storage_type__": "0", 
        "__wd_mult__": "1.0"
      }, 
      "inputs": []
    }, 
    {
      "op": "null", 
      "name": "conv21_bias", 
      "attrs": {
        "__dtype__": "0", 
        "__init__": "zeros", 
        "__lr_mult__": "1.0", 
        "__shape__": "(64,)", 
        "__storage_type__": "0", 
        "__wd_mult__": "1.0"
      }, 
      "inputs": []
    }, 
    {
      "op": "Convolution", 
      "name": "conv21_fwd", 
      "attrs": {
        "dilate": "(1, 1)", 
        "kernel": "(3, 3)", 
        "layout": "NCHW", 
        "no_bias": "False", 
        "num_filter": "64", 
        "num_group": "1", 
        "pad": "(1, 1)", 
        "stride": "(1, 1)"
      }, 
      "inputs": [[42, 0, 0], [43, 0, 0], [44, 0, 0]]
    }, 
    {
      "op": "Activation", 
      "name": "silu10_sigmoid0_fwd", 
      "attrs": {"act_type": "sigmoid"}, 
      "inputs": [[45, 0, 0]]
    }, 
    {
      "op": "elemwise_mul", 
      "name": "silu10__mul0", 
      "inputs": [[45, 0, 0], [46, 0, 0]]
    }, 
    {
      "op": "elemwise_add", 
      "name": "bottle2__plus0", 
      "inputs": [[37, 0, 0], [47, 0, 0]]
    }, 
    {
      "op": "null", 
      "name": "conv7_weight", 
      "attrs": {
        "__dtype__": "0", 
        "__lr_mult__": "1.0", 
        "__shape__": "(64, 0, 1, 1)", 
        "__storage_type__": "0", 
        "__wd_mult__": "1.0"
      }, 
      "inputs": []
    }, 
    {
      "op": "null", 
      "name": "conv7_bias", 
      "attrs": {
        "__dtype__": "0", 
        "__init__": "zeros", 
        "__lr_mult__": "1.0", 
        "__shape__": "(64,)", 
        "__storage_type__": "0", 
        "__wd_mult__": "1.0"
      }, 
      "inputs": []
    }, 
    {
      "op": "Convolution", 
      "name": "conv7_fwd", 
      "attrs": {
        "dilate": "(1, 1)", 
        "kernel": "(1, 1)", 
        "layout": "NCHW", 
        "no_bias": "False", 
        "num_filter": "64", 
        "num_group": "1", 
        "pad": "(0, 0)", 
        "stride": "(1, 1)"
      }, 
      "inputs": [[10, 0, 0], [49, 0, 0], [50, 0, 0]]
    }, 
    {
      "op": "Activation", 
      "name": "silu3_sigmoid0_fwd", 
      "attrs": {"act_type": "sigmoid"}, 
      "inputs": [[51, 0, 0]]
    }, 
    {
      "op": "elemwise_mul", 
      "name": "silu3__mul0", 
      "inputs": [[51, 0, 0], [52, 0, 0]]
    }, 
    {
      "op": "Concat", 
      "name": "c3_rep30_concat0", 
      "attrs": {
        "dim": "1", 
        "num_args": "2"
      }, 
      "inputs": [[48, 0, 0], [53, 0, 0]]
    }, 
    {
      "op": "null", 
      "name": "conv9_weight", 
      "attrs": {
        "__dtype__": "0", 
        "__lr_mult__": "1.0", 
        "__shape__": "(128, 0, 1, 1)", 
        "__storage_type__": "0", 
        "__wd_mult__": "1.0"
      }, 
      "inputs": []
    }, 
    {
      "op": "null", 
      "name": "conv9_bias", 
      "attrs": {
        "__dtype__": "0", 
        "__init__": "zeros", 
        "__lr_mult__": "1.0", 
        "__shape__": "(128,)", 
        "__storage_type__": "0", 
        "__wd_mult__": "1.0"
      }, 
      "inputs": []
    }, 
    {
      "op": "Convolution", 
      "name": "conv9_fwd", 
      "attrs": {
        "dilate": "(1, 1)", 
        "kernel": "(1, 1)", 
        "layout": "NCHW", 
        "no_bias": "False", 
        "num_filter": "128", 
        "num_group": "1", 
        "pad": "(0, 0)", 
        "stride": "(1, 1)"
      }, 
      "inputs": [[54, 0, 0], [55, 0, 0], [56, 0, 0]]
    }, 
    {
      "op": "Activation", 
      "name": "silu4_sigmoid0_fwd", 
      "attrs": {"act_type": "sigmoid"}, 
      "inputs": [[57, 0, 0]]
    }, 
    {
      "op": "elemwise_mul", 
      "name": "silu4__mul0", 
      "inputs": [[57, 0, 0], [58, 0, 0]]
    }, 
    {
      "op": "null", 
      "name": "conv23_weight", 
      "attrs": {
        "__dtype__": "0", 
        "__lr_mult__": "1.0", 
        "__shape__": "(256, 0, 3, 3)", 
        "__storage_type__": "0", 
        "__wd_mult__": "1.0"
      }, 
      "inputs": []
    }, 
    {
      "op": "null", 
      "name": "conv23_bias", 
      "attrs": {
        "__dtype__": "0", 
        "__init__": "zeros", 
        "__lr_mult__": "1.0", 
        "__shape__": "(256,)", 
        "__storage_type__": "0", 
        "__wd_mult__": "1.0"
      }, 
      "inputs": []
    }, 
    {
      "op": "Convolution", 
      "name": "conv23_fwd", 
      "attrs": {
        "dilate": "(1, 1)", 
        "kernel": "(3, 3)", 
        "layout": "NCHW", 
        "no_bias": "False", 
        "num_filter": "256", 
        "num_group": "1", 
        "pad": "(1, 1)", 
        "stride": "(2, 2)"
      }, 
      "inputs": [[59, 0, 0], [60, 0, 0], [61, 0, 0]]
    }, 
    {
      "op": "Activation", 
      "name": "silu11_sigmoid0_fwd", 
      "attrs": {"act_type": "sigmoid"}, 
      "inputs": [[62, 0, 0]]
    }, 
    {
      "op": "elemwise_mul", 
      "name": "silu11__mul0", 
      "inputs": [[62, 0, 0], [63, 0, 0]]
    }, 
    {
      "op": "null", 
      "name": "conv25_weight", 
      "attrs": {
        "__dtype__": "0", 
        "__lr_mult__": "1.0", 
        "__shape__": "(128, 0, 1, 1)", 
        "__storage_type__": "0", 
        "__wd_mult__": "1.0"
      }, 
      "inputs": []
    }, 
    {
      "op": "null", 
      "name": "conv25_bias", 
      "attrs": {
        "__dtype__": "0", 
        "__init__": "zeros", 
        "__lr_mult__": "1.0", 
        "__shape__": "(128,)", 
        "__storage_type__": "0", 
        "__wd_mult__": "1.0"
      }, 
      "inputs": []
    }, 
    {
      "op": "Convolution", 
      "name": "conv25_fwd", 
      "attrs": {
        "dilate": "(1, 1)", 
        "kernel": "(1, 1)", 
        "layout": "NCHW", 
        "no_bias": "False", 
        "num_filter": "128", 
        "num_group": "1", 
        "pad": "(0, 0)", 
        "stride": "(1, 1)"
      }, 
      "inputs": [[64, 0, 0], [65, 0, 0], [66, 0, 0]]
    }, 
    {
      "op": "Activation", 
      "name": "silu12_sigmoid0_fwd", 
      "attrs": {"act_type": "sigmoid"}, 
      "inputs": [[67, 0, 0]]
    }, 
    {
      "op": "elemwise_mul", 
      "name": "silu12__mul0", 
      "inputs": [[67, 0, 0], [68, 0, 0]]
    }, 
    {
      "op": "null", 
      "name": "conv31_weight", 
      "attrs": {
        "__dtype__": "0", 
        "__lr_mult__": "1.0", 
        "__shape__": "(128, 0, 1, 1)", 
        "__storage_type__": "0", 
        "__wd_mult__": "1.0"
      }, 
      "inputs": []
    }, 
    {
      "op": "null", 
      "name": "conv31_bias", 
      "attrs": {
        "__dtype__": "0", 
        "__init__": "zeros", 
        "__lr_mult__": "1.0", 
        "__shape__": "(128,)", 
        "__storage_type__": "0", 
        "__wd_mult__": "1.0"
      }, 
      "inputs": []
    }, 
    {
      "op": "Convolution", 
      "name": "conv31_fwd", 
      "attrs": {
        "dilate": "(1, 1)", 
        "kernel": "(1, 1)", 
        "layout": "NCHW", 
        "no_bias": "False", 
        "num_filter": "128", 
        "num_group": "1", 
        "pad": "(0, 0)", 
        "stride": "(1, 1)"
      }, 
      "inputs": [[69, 0, 0], [70, 0, 0], [71, 0, 0]]
    }, 
    {
      "op": "Activation", 
      "name": "silu15_sigmoid0_fwd", 
      "attrs": {"act_type": "sigmoid"}, 
      "inputs": [[72, 0, 0]]
    }, 
    {
      "op": "elemwise_mul", 
      "name": "silu15__mul0", 
      "inputs": [[72, 0, 0], [73, 0, 0]]
    }, 
    {
      "op": "null", 
      "name": "conv33_weight", 
      "attrs": {
        "__dtype__": "0", 
        "__lr_mult__": "1.0", 
        "__shape__": "(128, 0, 3, 3)", 
        "__storage_type__": "0", 
        "__wd_mult__": "1.0"
      }, 
      "inputs": []
    }, 
    {
      "op": "null", 
      "name": "conv33_bias", 
      "attrs": {
        "__dtype__": "0", 
        "__init__": "zeros", 
        "__lr_mult__": "1.0", 
        "__shape__": "(128,)", 
        "__storage_type__": "0", 
        "__wd_mult__": "1.0"
      }, 
      "inputs": []
    }, 
    {
      "op": "Convolution", 
      "name": "conv33_fwd", 
      "attrs": {
        "dilate": "(1, 1)", 
        "kernel": "(3, 3)", 
        "layout": "NCHW", 
        "no_bias": "False", 
        "num_filter": "128", 
        "num_group": "1", 
        "pad": "(1, 1)", 
        "stride": "(1, 1)"
      }, 
      "inputs": [[74, 0, 0], [75, 0, 0], [76, 0, 0]]
    }, 
    {
      "op": "Activation", 
      "name": "silu16_sigmoid0_fwd", 
      "attrs": {"act_type": "sigmoid"}, 
      "inputs": [[77, 0, 0]]
    }, 
    {
      "op": "elemwise_mul", 
      "name": "silu16__mul0", 
      "inputs": [[77, 0, 0], [78, 0, 0]]
    }, 
    {
      "op": "elemwise_add", 
      "name": "bottle3__plus0", 
      "inputs": [[69, 0, 0], [79, 0, 0]]
    }, 
    {
      "op": "null", 
      "name": "conv35_weight", 
      "attrs": {
        "__dtype__": "0", 
        "__lr_mult__": "1.0", 
        "__shape__": "(128, 0, 1, 1)", 
        "__storage_type__": "0", 
        "__wd_mult__": "1.0"
      }, 
      "inputs": []
    }, 
    {
      "op": "null", 
      "name": "conv35_bias", 
      "attrs": {
        "__dtype__": "0", 
        "__init__": "zeros", 
        "__lr_mult__": "1.0", 
        "__shape__": "(128,)", 
        "__storage_type__": "0", 
        "__wd_mult__": "1.0"
      }, 
      "inputs": []
    }, 
    {
      "op": "Convolution", 
      "name": "conv35_fwd", 
      "attrs": {
        "dilate": "(1, 1)", 
        "kernel": "(1, 1)", 
        "layout": "NCHW", 
        "no_bias": "False", 
        "num_filter": "128", 
        "num_group": "1", 
        "pad": "(0, 0)", 
        "stride": "(1, 1)"
      }, 
      "inputs": [[80, 0, 0], [81, 0, 0], [82, 0, 0]]
    }, 
    {
      "op": "Activation", 
      "name": "silu17_sigmoid0_fwd", 
      "attrs": {"act_type": "sigmoid"}, 
      "inputs": [[83, 0, 0]]
    }, 
    {
      "op": "elemwise_mul", 
      "name": "silu17__mul0", 
      "inputs": [[83, 0, 0], [84, 0, 0]]
    }, 
    {
      "op": "null", 
      "name": "conv37_weight", 
      "attrs": {
        "__dtype__": "0", 
        "__lr_mult__": "1.0", 
        "__shape__": "(128, 0, 3, 3)", 
        "__storage_type__": "0", 
        "__wd_mult__": "1.0"
      }, 
      "inputs": []
    }, 
    {
      "op": "null", 
      "name": "conv37_bias", 
      "attrs": {
        "__dtype__": "0", 
        "__init__": "zeros", 
        "__lr_mult__": "1.0", 
        "__shape__": "(128,)", 
        "__storage_type__": "0", 
        "__wd_mult__": "1.0"
      }, 
      "inputs": []
    }, 
    {
      "op": "Convolution", 
      "name": "conv37_fwd", 
      "attrs": {
        "dilate": "(1, 1)", 
        "kernel": "(3, 3)", 
        "layout": "NCHW", 
        "no_bias": "False", 
        "num_filter": "128", 
        "num_group": "1", 
        "pad": "(1, 1)", 
        "stride": "(1, 1)"
      }, 
      "inputs": [[85, 0, 0], [86, 0, 0], [87, 0, 0]]
    }, 
    {
      "op": "Activation", 
      "name": "silu18_sigmoid0_fwd", 
      "attrs": {"act_type": "sigmoid"}, 
      "inputs": [[88, 0, 0]]
    }, 
    {
      "op": "elemwise_mul", 
      "name": "silu18__mul0", 
      "inputs": [[88, 0, 0], [89, 0, 0]]
    }, 
    {
      "op": "elemwise_add", 
      "name": "bottle4__plus0", 
      "inputs": [[80, 0, 0], [90, 0, 0]]
    }, 
    {
      "op": "null", 
      "name": "conv39_weight", 
      "attrs": {
        "__dtype__": "0", 
        "__lr_mult__": "1.0", 
        "__shape__": "(128, 0, 1, 1)", 
        "__storage_type__": "0", 
        "__wd_mult__": "1.0"
      }, 
      "inputs": []
    }, 
    {
      "op": "null", 
      "name": "conv39_bias", 
      "attrs": {
        "__dtype__": "0", 
        "__init__": "zeros", 
        "__lr_mult__": "1.0", 
        "__shape__": "(128,)", 
        "__storage_type__": "0", 
        "__wd_mult__": "1.0"
      }, 
      "inputs": []
    }, 
    {
      "op": "Convolution", 
      "name": "conv39_fwd", 
      "attrs": {
        "dilate": "(1, 1)", 
        "kernel": "(1, 1)", 
        "layout": "NCHW", 
        "no_bias": "False", 
        "num_filter": "128", 
        "num_group": "1", 
        "pad": "(0, 0)", 
        "stride": "(1, 1)"
      }, 
      "inputs": [[91, 0, 0], [92, 0, 0], [93, 0, 0]]
    }, 
    {
      "op": "Activation", 
      "name": "silu19_sigmoid0_fwd", 
      "attrs": {"act_type": "sigmoid"}, 
      "inputs": [[94, 0, 0]]
    }, 
    {
      "op": "elemwise_mul", 
      "name": "silu19__mul0", 
      "inputs": [[94, 0, 0], [95, 0, 0]]
    }, 
    {
      "op": "null", 
      "name": "conv41_weight", 
      "attrs": {
        "__dtype__": "0", 
        "__lr_mult__": "1.0", 
        "__shape__": "(128, 0, 3, 3)", 
        "__storage_type__": "0", 
        "__wd_mult__": "1.0"
      }, 
      "inputs": []
    }, 
    {
      "op": "null", 
      "name": "conv41_bias", 
      "attrs": {
        "__dtype__": "0", 
        "__init__": "zeros", 
        "__lr_mult__": "1.0", 
        "__shape__": "(128,)", 
        "__storage_type__": "0", 
        "__wd_mult__": "1.0"
      }, 
      "inputs": []
    }, 
    {
      "op": "Convolution", 
      "name": "conv41_fwd", 
      "attrs": {
        "dilate": "(1, 1)", 
        "kernel": "(3, 3)", 
        "layout": "NCHW", 
        "no_bias": "False", 
        "num_filter": "128", 
        "num_group": "1", 
        "pad": "(1, 1)", 
        "stride": "(1, 1)"
      }, 
      "inputs": [[96, 0, 0], [97, 0, 0], [98, 0, 0]]
    }, 
    {
      "op": "Activation", 
      "name": "silu20_sigmoid0_fwd", 
      "attrs": {"act_type": "sigmoid"}, 
      "inputs": [[99, 0, 0]]
    }, 
    {
      "op": "elemwise_mul", 
      "name": "silu20__mul0", 
      "inputs": [[99, 0, 0], [100, 0, 0]]
    }, 
    {
      "op": "elemwise_add", 
      "name": "bottle5__plus0", 
      "inputs": [[91, 0, 0], [101, 0, 0]]
    }, 
    {
      "op": "null", 
      "name": "conv43_weight", 
      "attrs": {
        "__dtype__": "0", 
        "__lr_mult__": "1.0", 
        "__shape__": "(128, 0, 1, 1)", 
        "__storage_type__": "0", 
        "__wd_mult__": "1.0"
      }, 
      "inputs": []
    }, 
    {
      "op": "null", 
      "name": "conv43_bias", 
      "attrs": {
        "__dtype__": "0", 
        "__init__": "zeros", 
        "__lr_mult__": "1.0", 
        "__shape__": "(128,)", 
        "__storage_type__": "0", 
        "__wd_mult__": "1.0"
      }, 
      "inputs": []
    }, 
    {
      "op": "Convolution", 
      "name": "conv43_fwd", 
      "attrs": {
        "dilate": "(1, 1)", 
        "kernel": "(1, 1)", 
        "layout": "NCHW", 
        "no_bias": "False", 
        "num_filter": "128", 
        "num_group": "1", 
        "pad": "(0, 0)", 
        "stride": "(1, 1)"
      }, 
      "inputs": [[102, 0, 0], [103, 0, 0], [104, 0, 0]]
    }, 
    {
      "op": "Activation", 
      "name": "silu21_sigmoid0_fwd", 
      "attrs": {"act_type": "sigmoid"}, 
      "inputs": [[105, 0, 0]]
    }, 
    {
      "op": "elemwise_mul", 
      "name": "silu21__mul0", 
      "inputs": [[105, 0, 0], [106, 0, 0]]
    }, 
    {
      "op": "null", 
      "name": "conv45_weight", 
      "attrs": {
        "__dtype__": "0", 
        "__lr_mult__": "1.0", 
        "__shape__": "(128, 0, 3, 3)", 
        "__storage_type__": "0", 
        "__wd_mult__": "1.0"
      }, 
      "inputs": []
    }, 
    {
      "op": "null", 
      "name": "conv45_bias", 
      "attrs": {
        "__dtype__": "0", 
        "__init__": "zeros", 
        "__lr_mult__": "1.0", 
        "__shape__": "(128,)", 
        "__storage_type__": "0", 
        "__wd_mult__": "1.0"
      }, 
      "inputs": []
    }, 
    {
      "op": "Convolution", 
      "name": "conv45_fwd", 
      "attrs": {
        "dilate": "(1, 1)", 
        "kernel": "(3, 3)", 
        "layout": "NCHW", 
        "no_bias": "False", 
        "num_filter": "128", 
        "num_group": "1", 
        "pad": "(1, 1)", 
        "stride": "(1, 1)"
      }, 
      "inputs": [[107, 0, 0], [108, 0, 0], [109, 0, 0]]
    }, 
    {
      "op": "Activation", 
      "name": "silu22_sigmoid0_fwd", 
      "attrs": {"act_type": "sigmoid"}, 
      "inputs": [[110, 0, 0]]
    }, 
    {
      "op": "elemwise_mul", 
      "name": "silu22__mul0", 
      "inputs": [[110, 0, 0], [111, 0, 0]]
    }, 
    {
      "op": "elemwise_add", 
      "name": "bottle6__plus0", 
      "inputs": [[102, 0, 0], [112, 0, 0]]
    }, 
    {
      "op": "null", 
      "name": "conv47_weight", 
      "attrs": {
        "__dtype__": "0", 
        "__lr_mult__": "1.0", 
        "__shape__": "(128, 0, 1, 1)", 
        "__storage_type__": "0", 
        "__wd_mult__": "1.0"
      }, 
      "inputs": []
    }, 
    {
      "op": "null", 
      "name": "conv47_bias", 
      "attrs": {
        "__dtype__": "0", 
        "__init__": "zeros", 
        "__lr_mult__": "1.0", 
        "__shape__": "(128,)", 
        "__storage_type__": "0", 
        "__wd_mult__": "1.0"
      }, 
      "inputs": []
    }, 
    {
      "op": "Convolution", 
      "name": "conv47_fwd", 
      "attrs": {
        "dilate": "(1, 1)", 
        "kernel": "(1, 1)", 
        "layout": "NCHW", 
        "no_bias": "False", 
        "num_filter": "128", 
        "num_group": "1", 
        "pad": "(0, 0)", 
        "stride": "(1, 1)"
      }, 
      "inputs": [[113, 0, 0], [114, 0, 0], [115, 0, 0]]
    }, 
    {
      "op": "Activation", 
      "name": "silu23_sigmoid0_fwd", 
      "attrs": {"act_type": "sigmoid"}, 
      "inputs": [[116, 0, 0]]
    }, 
    {
      "op": "elemwise_mul", 
      "name": "silu23__mul0", 
      "inputs": [[116, 0, 0], [117, 0, 0]]
    }, 
    {
      "op": "null", 
      "name": "conv49_weight", 
      "attrs": {
        "__dtype__": "0", 
        "__lr_mult__": "1.0", 
        "__shape__": "(128, 0, 3, 3)", 
        "__storage_type__": "0", 
        "__wd_mult__": "1.0"
      }, 
      "inputs": []
    }, 
    {
      "op": "null", 
      "name": "conv49_bias", 
      "attrs": {
        "__dtype__": "0", 
        "__init__": "zeros", 
        "__lr_mult__": "1.0", 
        "__shape__": "(128,)", 
        "__storage_type__": "0", 
        "__wd_mult__": "1.0"
      }, 
      "inputs": []
    }, 
    {
      "op": "Convolution", 
      "name": "conv49_fwd", 
      "attrs": {
        "dilate": "(1, 1)", 
        "kernel": "(3, 3)", 
        "layout": "NCHW", 
        "no_bias": "False", 
        "num_filter": "128", 
        "num_group": "1", 
        "pad": "(1, 1)", 
        "stride": "(1, 1)"
      }, 
      "inputs": [[118, 0, 0], [119, 0, 0], [120, 0, 0]]
    }, 
    {
      "op": "Activation", 
      "name": "silu24_sigmoid0_fwd", 
      "attrs": {"act_type": "sigmoid"}, 
      "inputs": [[121, 0, 0]]
    }, 
    {
      "op": "elemwise_mul", 
      "name": "silu24__mul0", 
      "inputs": [[121, 0, 0], [122, 0, 0]]
    }, 
    {
      "op": "elemwise_add", 
      "name": "bottle7__plus0", 
      "inputs": [[113, 0, 0], [123, 0, 0]]
    }, 
    {
      "op": "null", 
      "name": "conv51_weight", 
      "attrs": {
        "__dtype__": "0", 
        "__lr_mult__": "1.0", 
        "__shape__": "(128, 0, 1, 1)", 
        "__storage_type__": "0", 
        "__wd_mult__": "1.0"
      }, 
      "inputs": []
    }, 
    {
      "op": "null", 
      "name": "conv51_bias", 
      "attrs": {
        "__dtype__": "0", 
        "__init__": "zeros", 
        "__lr_mult__": "1.0", 
        "__shape__": "(128,)", 
        "__storage_type__": "0", 
        "__wd_mult__": "1.0"
      }, 
      "inputs": []
    }, 
    {
      "op": "Convolution", 
      "name": "conv51_fwd", 
      "attrs": {
        "dilate": "(1, 1)", 
        "kernel": "(1, 1)", 
        "layout": "NCHW", 
        "no_bias": "False", 
        "num_filter": "128", 
        "num_group": "1", 
        "pad": "(0, 0)", 
        "stride": "(1, 1)"
      }, 
      "inputs": [[124, 0, 0], [125, 0, 0], [126, 0, 0]]
    }, 
    {
      "op": "Activation", 
      "name": "silu25_sigmoid0_fwd", 
      "attrs": {"act_type": "sigmoid"}, 
      "inputs": [[127, 0, 0]]
    }, 
    {
      "op": "elemwise_mul", 
      "name": "silu25__mul0", 
      "inputs": [[127, 0, 0], [128, 0, 0]]
    }, 
    {
      "op": "null", 
      "name": "conv53_weight", 
      "attrs": {
        "__dtype__": "0", 
        "__lr_mult__": "1.0", 
        "__shape__": "(128, 0, 3, 3)", 
        "__storage_type__": "0", 
        "__wd_mult__": "1.0"
      }, 
      "inputs": []
    }, 
    {
      "op": "null", 
      "name": "conv53_bias", 
      "attrs": {
        "__dtype__": "0", 
        "__init__": "zeros", 
        "__lr_mult__": "1.0", 
        "__shape__": "(128,)", 
        "__storage_type__": "0", 
        "__wd_mult__": "1.0"
      }, 
      "inputs": []
    }, 
    {
      "op": "Convolution", 
      "name": "conv53_fwd", 
      "attrs": {
        "dilate": "(1, 1)", 
        "kernel": "(3, 3)", 
        "layout": "NCHW", 
        "no_bias": "False", 
        "num_filter": "128", 
        "num_group": "1", 
        "pad": "(1, 1)", 
        "stride": "(1, 1)"
      }, 
      "inputs": [[129, 0, 0], [130, 0, 0], [131, 0, 0]]
    }, 
    {
      "op": "Activation", 
      "name": "silu26_sigmoid0_fwd", 
      "attrs": {"act_type": "sigmoid"}, 
      "inputs": [[132, 0, 0]]
    }, 
    {
      "op": "elemwise_mul", 
      "name": "silu26__mul0", 
      "inputs": [[132, 0, 0], [133, 0, 0]]
    }, 
    {
      "op": "elemwise_add", 
      "name": "bottle8__plus0", 
      "inputs": [[124, 0, 0], [134, 0, 0]]
    }, 
    {
      "op": "null", 
      "name": "conv27_weight", 
      "attrs": {
        "__dtype__": "0", 
        "__lr_mult__": "1.0", 
        "__shape__": "(128, 0, 1, 1)", 
        "__storage_type__": "0", 
        "__wd_mult__": "1.0"
      }, 
      "inputs": []
    }, 
    {
      "op": "null", 
      "name": "conv27_bias", 
      "attrs": {
        "__dtype__": "0", 
        "__init__": "zeros", 
        "__lr_mult__": "1.0", 
        "__shape__": "(128,)", 
        "__storage_type__": "0", 
        "__wd_mult__": "1.0"
      }, 
      "inputs": []
    }, 
    {
      "op": "Convolution", 
      "name": "conv27_fwd", 
      "attrs": {
        "dilate": "(1, 1)", 
        "kernel": "(1, 1)", 
        "layout": "NCHW", 
        "no_bias": "False", 
        "num_filter": "128", 
        "num_group": "1", 
        "pad": "(0, 0)", 
        "stride": "(1, 1)"
      }, 
      "inputs": [[64, 0, 0], [136, 0, 0], [137, 0, 0]]
    }, 
    {
      "op": "Activation", 
      "name": "silu13_sigmoid0_fwd", 
      "attrs": {"act_type": "sigmoid"}, 
      "inputs": [[138, 0, 0]]
    }, 
    {
      "op": "elemwise_mul", 
      "name": "silu13__mul0", 
      "inputs": [[138, 0, 0], [139, 0, 0]]
    }, 
    {
      "op": "Concat", 
      "name": "c3_rep60_concat0", 
      "attrs": {
        "dim": "1", 
        "num_args": "2"
      }, 
      "inputs": [[135, 0, 0], [140, 0, 0]]
    }, 
    {
      "op": "null", 
      "name": "conv29_weight", 
      "attrs": {
        "__dtype__": "0", 
        "__lr_mult__": "1.0", 
        "__shape__": "(256, 0, 1, 1)", 
        "__storage_type__": "0", 
        "__wd_mult__": "1.0"
      }, 
      "inputs": []
    }, 
    {
      "op": "null", 
      "name": "conv29_bias", 
      "attrs": {
        "__dtype__": "0", 
        "__init__": "zeros", 
        "__lr_mult__": "1.0", 
        "__shape__": "(256,)", 
        "__storage_type__": "0", 
        "__wd_mult__": "1.0"
      }, 
      "inputs": []
    }, 
    {
      "op": "Convolution", 
      "name": "conv29_fwd", 
      "attrs": {
        "dilate": "(1, 1)", 
        "kernel": "(1, 1)", 
        "layout": "NCHW", 
        "no_bias": "False", 
        "num_filter": "256", 
        "num_group": "1", 
        "pad": "(0, 0)", 
        "stride": "(1, 1)"
      }, 
      "inputs": [[141, 0, 0], [142, 0, 0], [143, 0, 0]]
    }, 
    {
      "op": "Activation", 
      "name": "silu14_sigmoid0_fwd", 
      "attrs": {"act_type": "sigmoid"}, 
      "inputs": [[144, 0, 0]]
    }, 
    {
      "op": "elemwise_mul", 
      "name": "silu14__mul0", 
      "inputs": [[144, 0, 0], [145, 0, 0]]
    }, 
    {
      "op": "null", 
      "name": "conv55_weight", 
      "attrs": {
        "__dtype__": "0", 
        "__lr_mult__": "1.0", 
        "__shape__": "(512, 0, 3, 3)", 
        "__storage_type__": "0", 
        "__wd_mult__": "1.0"
      }, 
      "inputs": []
    }, 
    {
      "op": "null", 
      "name": "conv55_bias", 
      "attrs": {
        "__dtype__": "0", 
        "__init__": "zeros", 
        "__lr_mult__": "1.0", 
        "__shape__": "(512,)", 
        "__storage_type__": "0", 
        "__wd_mult__": "1.0"
      }, 
      "inputs": []
    }, 
    {
      "op": "Convolution", 
      "name": "conv55_fwd", 
      "attrs": {
        "dilate": "(1, 1)", 
        "kernel": "(3, 3)", 
        "layout": "NCHW", 
        "no_bias": "False", 
        "num_filter": "512", 
        "num_group": "1", 
        "pad": "(1, 1)", 
        "stride": "(2, 2)"
      }, 
      "inputs": [[146, 0, 0], [147, 0, 0], [148, 0, 0]]
    }, 
    {
      "op": "Activation", 
      "name": "silu27_sigmoid0_fwd", 
      "attrs": {"act_type": "sigmoid"}, 
      "inputs": [[149, 0, 0]]
    }, 
    {
      "op": "elemwise_mul", 
      "name": "silu27__mul0", 
      "inputs": [[149, 0, 0], [150, 0, 0]]
    }, 
    {
      "op": "null", 
      "name": "conv57_weight", 
      "attrs": {
        "__dtype__": "0", 
        "__lr_mult__": "1.0", 
        "__shape__": "(256, 0, 1, 1)", 
        "__storage_type__": "0", 
        "__wd_mult__": "1.0"
      }, 
      "inputs": []
    }, 
    {
      "op": "null", 
      "name": "conv57_bias", 
      "attrs": {
        "__dtype__": "0", 
        "__init__": "zeros", 
        "__lr_mult__": "1.0", 
        "__shape__": "(256,)", 
        "__storage_type__": "0", 
        "__wd_mult__": "1.0"
      }, 
      "inputs": []
    }, 
    {
      "op": "Convolution", 
      "name": "conv57_fwd", 
      "attrs": {
        "dilate": "(1, 1)", 
        "kernel": "(1, 1)", 
        "layout": "NCHW", 
        "no_bias": "False", 
        "num_filter": "256", 
        "num_group": "1", 
        "pad": "(0, 0)", 
        "stride": "(1, 1)"
      }, 
      "inputs": [[151, 0, 0], [152, 0, 0], [153, 0, 0]]
    }, 
    {
      "op": "Activation", 
      "name": "silu28_sigmoid0_fwd", 
      "attrs": {"act_type": "sigmoid"}, 
      "inputs": [[154, 0, 0]]
    }, 
    {
      "op": "elemwise_mul", 
      "name": "silu28__mul0", 
      "inputs": [[154, 0, 0], [155, 0, 0]]
    }, 
    {
      "op": "null", 
      "name": "conv63_weight", 
      "attrs": {
        "__dtype__": "0", 
        "__lr_mult__": "1.0", 
        "__shape__": "(256, 0, 1, 1)", 
        "__storage_type__": "0", 
        "__wd_mult__": "1.0"
      }, 
      "inputs": []
    }, 
    {
      "op": "null", 
      "name": "conv63_bias", 
      "attrs": {
        "__dtype__": "0", 
        "__init__": "zeros", 
        "__lr_mult__": "1.0", 
        "__shape__": "(256,)", 
        "__storage_type__": "0", 
        "__wd_mult__": "1.0"
      }, 
      "inputs": []
    }, 
    {
      "op": "Convolution", 
      "name": "conv63_fwd", 
      "attrs": {
        "dilate": "(1, 1)", 
        "kernel": "(1, 1)", 
        "layout": "NCHW", 
        "no_bias": "False", 
        "num_filter": "256", 
        "num_group": "1", 
        "pad": "(0, 0)", 
        "stride": "(1, 1)"
      }, 
      "inputs": [[156, 0, 0], [157, 0, 0], [158, 0, 0]]
    }, 
    {
      "op": "Activation", 
      "name": "silu31_sigmoid0_fwd", 
      "attrs": {"act_type": "sigmoid"}, 
      "inputs": [[159, 0, 0]]
    }, 
    {
      "op": "elemwise_mul", 
      "name": "silu31__mul0", 
      "inputs": [[159, 0, 0], [160, 0, 0]]
    }, 
    {
      "op": "null", 
      "name": "conv65_weight", 
      "attrs": {
        "__dtype__": "0", 
        "__lr_mult__": "1.0", 
        "__shape__": "(256, 0, 3, 3)", 
        "__storage_type__": "0", 
        "__wd_mult__": "1.0"
      }, 
      "inputs": []
    }, 
    {
      "op": "null", 
      "name": "conv65_bias", 
      "attrs": {
        "__dtype__": "0", 
        "__init__": "zeros", 
        "__lr_mult__": "1.0", 
        "__shape__": "(256,)", 
        "__storage_type__": "0", 
        "__wd_mult__": "1.0"
      }, 
      "inputs": []
    }, 
    {
      "op": "Convolution", 
      "name": "conv65_fwd", 
      "attrs": {
        "dilate": "(1, 1)", 
        "kernel": "(3, 3)", 
        "layout": "NCHW", 
        "no_bias": "False", 
        "num_filter": "256", 
        "num_group": "1", 
        "pad": "(1, 1)", 
        "stride": "(1, 1)"
      }, 
      "inputs": [[161, 0, 0], [162, 0, 0], [163, 0, 0]]
    }, 
    {
      "op": "Activation", 
      "name": "silu32_sigmoid0_fwd", 
      "attrs": {"act_type": "sigmoid"}, 
      "inputs": [[164, 0, 0]]
    }, 
    {
      "op": "elemwise_mul", 
      "name": "silu32__mul0", 
      "inputs": [[164, 0, 0], [165, 0, 0]]
    }, 
    {
      "op": "elemwise_add", 
      "name": "bottle9__plus0", 
      "inputs": [[156, 0, 0], [166, 0, 0]]
    }, 
    {
      "op": "null", 
      "name": "conv67_weight", 
      "attrs": {
        "__dtype__": "0", 
        "__lr_mult__": "1.0", 
        "__shape__": "(256, 0, 1, 1)", 
        "__storage_type__": "0", 
        "__wd_mult__": "1.0"
      }, 
      "inputs": []
    }, 
    {
      "op": "null", 
      "name": "conv67_bias", 
      "attrs": {
        "__dtype__": "0", 
        "__init__": "zeros", 
        "__lr_mult__": "1.0", 
        "__shape__": "(256,)", 
        "__storage_type__": "0", 
        "__wd_mult__": "1.0"
      }, 
      "inputs": []
    }, 
    {
      "op": "Convolution", 
      "name": "conv67_fwd", 
      "attrs": {
        "dilate": "(1, 1)", 
        "kernel": "(1, 1)", 
        "layout": "NCHW", 
        "no_bias": "False", 
        "num_filter": "256", 
        "num_group": "1", 
        "pad": "(0, 0)", 
        "stride": "(1, 1)"
      }, 
      "inputs": [[167, 0, 0], [168, 0, 0], [169, 0, 0]]
    }, 
    {
      "op": "Activation", 
      "name": "silu33_sigmoid0_fwd", 
      "attrs": {"act_type": "sigmoid"}, 
      "inputs": [[170, 0, 0]]
    }, 
    {
      "op": "elemwise_mul", 
      "name": "silu33__mul0", 
      "inputs": [[170, 0, 0], [171, 0, 0]]
    }, 
    {
      "op": "null", 
      "name": "conv69_weight", 
      "attrs": {
        "__dtype__": "0", 
        "__lr_mult__": "1.0", 
        "__shape__": "(256, 0, 3, 3)", 
        "__storage_type__": "0", 
        "__wd_mult__": "1.0"
      }, 
      "inputs": []
    }, 
    {
      "op": "null", 
      "name": "conv69_bias", 
      "attrs": {
        "__dtype__": "0", 
        "__init__": "zeros", 
        "__lr_mult__": "1.0", 
        "__shape__": "(256,)", 
        "__storage_type__": "0", 
        "__wd_mult__": "1.0"
      }, 
      "inputs": []
    }, 
    {
      "op": "Convolution", 
      "name": "conv69_fwd", 
      "attrs": {
        "dilate": "(1, 1)", 
        "kernel": "(3, 3)", 
        "layout": "NCHW", 
        "no_bias": "False", 
        "num_filter": "256", 
        "num_group": "1", 
        "pad": "(1, 1)", 
        "stride": "(1, 1)"
      }, 
      "inputs": [[172, 0, 0], [173, 0, 0], [174, 0, 0]]
    }, 
    {
      "op": "Activation", 
      "name": "silu34_sigmoid0_fwd", 
      "attrs": {"act_type": "sigmoid"}, 
      "inputs": [[175, 0, 0]]
    }, 
    {
      "op": "elemwise_mul", 
      "name": "silu34__mul0", 
      "inputs": [[175, 0, 0], [176, 0, 0]]
    }, 
    {
      "op": "elemwise_add", 
      "name": "bottle10__plus0", 
      "inputs": [[167, 0, 0], [177, 0, 0]]
    }, 
    {
      "op": "null", 
      "name": "conv71_weight", 
      "attrs": {
        "__dtype__": "0", 
        "__lr_mult__": "1.0", 
        "__shape__": "(256, 0, 1, 1)", 
        "__storage_type__": "0", 
        "__wd_mult__": "1.0"
      }, 
      "inputs": []
    }, 
    {
      "op": "null", 
      "name": "conv71_bias", 
      "attrs": {
        "__dtype__": "0", 
        "__init__": "zeros", 
        "__lr_mult__": "1.0", 
        "__shape__": "(256,)", 
        "__storage_type__": "0", 
        "__wd_mult__": "1.0"
      }, 
      "inputs": []
    }, 
    {
      "op": "Convolution", 
      "name": "conv71_fwd", 
      "attrs": {
        "dilate": "(1, 1)", 
        "kernel": "(1, 1)", 
        "layout": "NCHW", 
        "no_bias": "False", 
        "num_filter": "256", 
        "num_group": "1", 
        "pad": "(0, 0)", 
        "stride": "(1, 1)"
      }, 
      "inputs": [[178, 0, 0], [179, 0, 0], [180, 0, 0]]
    }, 
    {
      "op": "Activation", 
      "name": "silu35_sigmoid0_fwd", 
      "attrs": {"act_type": "sigmoid"}, 
      "inputs": [[181, 0, 0]]
    }, 
    {
      "op": "elemwise_mul", 
      "name": "silu35__mul0", 
      "inputs": [[181, 0, 0], [182, 0, 0]]
    }, 
    {
      "op": "null", 
      "name": "conv73_weight", 
      "attrs": {
        "__dtype__": "0", 
        "__lr_mult__": "1.0", 
        "__shape__": "(256, 0, 3, 3)", 
        "__storage_type__": "0", 
        "__wd_mult__": "1.0"
      }, 
      "inputs": []
    }, 
    {
      "op": "null", 
      "name": "conv73_bias", 
      "attrs": {
        "__dtype__": "0", 
        "__init__": "zeros", 
        "__lr_mult__": "1.0", 
        "__shape__": "(256,)", 
        "__storage_type__": "0", 
        "__wd_mult__": "1.0"
      }, 
      "inputs": []
    }, 
    {
      "op": "Convolution", 
      "name": "conv73_fwd", 
      "attrs": {
        "dilate": "(1, 1)", 
        "kernel": "(3, 3)", 
        "layout": "NCHW", 
        "no_bias": "False", 
        "num_filter": "256", 
        "num_group": "1", 
        "pad": "(1, 1)", 
        "stride": "(1, 1)"
      }, 
      "inputs": [[183, 0, 0], [184, 0, 0], [185, 0, 0]]
    }, 
    {
      "op": "Activation", 
      "name": "silu36_sigmoid0_fwd", 
      "attrs": {"act_type": "sigmoid"}, 
      "inputs": [[186, 0, 0]]
    }, 
    {
      "op": "elemwise_mul", 
      "name": "silu36__mul0", 
      "inputs": [[186, 0, 0], [187, 0, 0]]
    }, 
    {
      "op": "elemwise_add", 
      "name": "bottle11__plus0", 
      "inputs": [[178, 0, 0], [188, 0, 0]]
    }, 
    {
      "op": "null", 
      "name": "conv75_weight", 
      "attrs": {
        "__dtype__": "0", 
        "__lr_mult__": "1.0", 
        "__shape__": "(256, 0, 1, 1)", 
        "__storage_type__": "0", 
        "__wd_mult__": "1.0"
      }, 
      "inputs": []
    }, 
    {
      "op": "null", 
      "name": "conv75_bias", 
      "attrs": {
        "__dtype__": "0", 
        "__init__": "zeros", 
        "__lr_mult__": "1.0", 
        "__shape__": "(256,)", 
        "__storage_type__": "0", 
        "__wd_mult__": "1.0"
      }, 
      "inputs": []
    }, 
    {
      "op": "Convolution", 
      "name": "conv75_fwd", 
      "attrs": {
        "dilate": "(1, 1)", 
        "kernel": "(1, 1)", 
        "layout": "NCHW", 
        "no_bias": "False", 
        "num_filter": "256", 
        "num_group": "1", 
        "pad": "(0, 0)", 
        "stride": "(1, 1)"
      }, 
      "inputs": [[189, 0, 0], [190, 0, 0], [191, 0, 0]]
    }, 
    {
      "op": "Activation", 
      "name": "silu37_sigmoid0_fwd", 
      "attrs": {"act_type": "sigmoid"}, 
      "inputs": [[192, 0, 0]]
    }, 
    {
      "op": "elemwise_mul", 
      "name": "silu37__mul0", 
      "inputs": [[192, 0, 0], [193, 0, 0]]
    }, 
    {
      "op": "null", 
      "name": "conv77_weight", 
      "attrs": {
        "__dtype__": "0", 
        "__lr_mult__": "1.0", 
        "__shape__": "(256, 0, 3, 3)", 
        "__storage_type__": "0", 
        "__wd_mult__": "1.0"
      }, 
      "inputs": []
    }, 
    {
      "op": "null", 
      "name": "conv77_bias", 
      "attrs": {
        "__dtype__": "0", 
        "__init__": "zeros", 
        "__lr_mult__": "1.0", 
        "__shape__": "(256,)", 
        "__storage_type__": "0", 
        "__wd_mult__": "1.0"
      }, 
      "inputs": []
    }, 
    {
      "op": "Convolution", 
      "name": "conv77_fwd", 
      "attrs": {
        "dilate": "(1, 1)", 
        "kernel": "(3, 3)", 
        "layout": "NCHW", 
        "no_bias": "False", 
        "num_filter": "256", 
        "num_group": "1", 
        "pad": "(1, 1)", 
        "stride": "(1, 1)"
      }, 
      "inputs": [[194, 0, 0], [195, 0, 0], [196, 0, 0]]
    }, 
    {
      "op": "Activation", 
      "name": "silu38_sigmoid0_fwd", 
      "attrs": {"act_type": "sigmoid"}, 
      "inputs": [[197, 0, 0]]
    }, 
    {
      "op": "elemwise_mul", 
      "name": "silu38__mul0", 
      "inputs": [[197, 0, 0], [198, 0, 0]]
    }, 
    {
      "op": "elemwise_add", 
      "name": "bottle12__plus0", 
      "inputs": [[189, 0, 0], [199, 0, 0]]
    }, 
    {
      "op": "null", 
      "name": "conv79_weight", 
      "attrs": {
        "__dtype__": "0", 
        "__lr_mult__": "1.0", 
        "__shape__": "(256, 0, 1, 1)", 
        "__storage_type__": "0", 
        "__wd_mult__": "1.0"
      }, 
      "inputs": []
    }, 
    {
      "op": "null", 
      "name": "conv79_bias", 
      "attrs": {
        "__dtype__": "0", 
        "__init__": "zeros", 
        "__lr_mult__": "1.0", 
        "__shape__": "(256,)", 
        "__storage_type__": "0", 
        "__wd_mult__": "1.0"
      }, 
      "inputs": []
    }, 
    {
      "op": "Convolution", 
      "name": "conv79_fwd", 
      "attrs": {
        "dilate": "(1, 1)", 
        "kernel": "(1, 1)", 
        "layout": "NCHW", 
        "no_bias": "False", 
        "num_filter": "256", 
        "num_group": "1", 
        "pad": "(0, 0)", 
        "stride": "(1, 1)"
      }, 
      "inputs": [[200, 0, 0], [201, 0, 0], [202, 0, 0]]
    }, 
    {
      "op": "Activation", 
      "name": "silu39_sigmoid0_fwd", 
      "attrs": {"act_type": "sigmoid"}, 
      "inputs": [[203, 0, 0]]
    }, 
    {
      "op": "elemwise_mul", 
      "name": "silu39__mul0", 
      "inputs": [[203, 0, 0], [204, 0, 0]]
    }, 
    {
      "op": "null", 
      "name": "conv81_weight", 
      "attrs": {
        "__dtype__": "0", 
        "__lr_mult__": "1.0", 
        "__shape__": "(256, 0, 3, 3)", 
        "__storage_type__": "0", 
        "__wd_mult__": "1.0"
      }, 
      "inputs": []
    }, 
    {
      "op": "null", 
      "name": "conv81_bias", 
      "attrs": {
        "__dtype__": "0", 
        "__init__": "zeros", 
        "__lr_mult__": "1.0", 
        "__shape__": "(256,)", 
        "__storage_type__": "0", 
        "__wd_mult__": "1.0"
      }, 
      "inputs": []
    }, 
    {
      "op": "Convolution", 
      "name": "conv81_fwd", 
      "attrs": {
        "dilate": "(1, 1)", 
        "kernel": "(3, 3)", 
        "layout": "NCHW", 
        "no_bias": "False", 
        "num_filter": "256", 
        "num_group": "1", 
        "pad": "(1, 1)", 
        "stride": "(1, 1)"
      }, 
      "inputs": [[205, 0, 0], [206, 0, 0], [207, 0, 0]]
    }, 
    {
      "op": "Activation", 
      "name": "silu40_sigmoid0_fwd", 
      "attrs": {"act_type": "sigmoid"}, 
      "inputs": [[208, 0, 0]]
    }, 
    {
      "op": "elemwise_mul", 
      "name": "silu40__mul0", 
      "inputs": [[208, 0, 0], [209, 0, 0]]
    }, 
    {
      "op": "elemwise_add", 
      "name": "bottle13__plus0", 
      "inputs": [[200, 0, 0], [210, 0, 0]]
    }, 
    {
      "op": "null", 
      "name": "conv83_weight", 
      "attrs": {
        "__dtype__": "0", 
        "__lr_mult__": "1.0", 
        "__shape__": "(256, 0, 1, 1)", 
        "__storage_type__": "0", 
        "__wd_mult__": "1.0"
      }, 
      "inputs": []
    }, 
    {
      "op": "null", 
      "name": "conv83_bias", 
      "attrs": {
        "__dtype__": "0", 
        "__init__": "zeros", 
        "__lr_mult__": "1.0", 
        "__shape__": "(256,)", 
        "__storage_type__": "0", 
        "__wd_mult__": "1.0"
      }, 
      "inputs": []
    }, 
    {
      "op": "Convolution", 
      "name": "conv83_fwd", 
      "attrs": {
        "dilate": "(1, 1)", 
        "kernel": "(1, 1)", 
        "layout": "NCHW", 
        "no_bias": "False", 
        "num_filter": "256", 
        "num_group": "1", 
        "pad": "(0, 0)", 
        "stride": "(1, 1)"
      }, 
      "inputs": [[211, 0, 0], [212, 0, 0], [213, 0, 0]]
    }, 
    {
      "op": "Activation", 
      "name": "silu41_sigmoid0_fwd", 
      "attrs": {"act_type": "sigmoid"}, 
      "inputs": [[214, 0, 0]]
    }, 
    {
      "op": "elemwise_mul", 
      "name": "silu41__mul0", 
      "inputs": [[214, 0, 0], [215, 0, 0]]
    }, 
    {
      "op": "null", 
      "name": "conv85_weight", 
      "attrs": {
        "__dtype__": "0", 
        "__lr_mult__": "1.0", 
        "__shape__": "(256, 0, 3, 3)", 
        "__storage_type__": "0", 
        "__wd_mult__": "1.0"
      }, 
      "inputs": []
    }, 
    {
      "op": "null", 
      "name": "conv85_bias", 
      "attrs": {
        "__dtype__": "0", 
        "__init__": "zeros", 
        "__lr_mult__": "1.0", 
        "__shape__": "(256,)", 
        "__storage_type__": "0", 
        "__wd_mult__": "1.0"
      }, 
      "inputs": []
    }, 
    {
      "op": "Convolution", 
      "name": "conv85_fwd", 
      "attrs": {
        "dilate": "(1, 1)", 
        "kernel": "(3, 3)", 
        "layout": "NCHW", 
        "no_bias": "False", 
        "num_filter": "256", 
        "num_group": "1", 
        "pad": "(1, 1)", 
        "stride": "(1, 1)"
      }, 
      "inputs": [[216, 0, 0], [217, 0, 0], [218, 0, 0]]
    }, 
    {
      "op": "Activation", 
      "name": "silu42_sigmoid0_fwd", 
      "attrs": {"act_type": "sigmoid"}, 
      "inputs": [[219, 0, 0]]
    }, 
    {
      "op": "elemwise_mul", 
      "name": "silu42__mul0", 
      "inputs": [[219, 0, 0], [220, 0, 0]]
    }, 
    {
      "op": "elemwise_add", 
      "name": "bottle14__plus0", 
      "inputs": [[211, 0, 0], [221, 0, 0]]
    }, 
    {
      "op": "null", 
      "name": "conv87_weight", 
      "attrs": {
        "__dtype__": "0", 
        "__lr_mult__": "1.0", 
        "__shape__": "(256, 0, 1, 1)", 
        "__storage_type__": "0", 
        "__wd_mult__": "1.0"
      }, 
      "inputs": []
    }, 
    {
      "op": "null", 
      "name": "conv87_bias", 
      "attrs": {
        "__dtype__": "0", 
        "__init__": "zeros", 
        "__lr_mult__": "1.0", 
        "__shape__": "(256,)", 
        "__storage_type__": "0", 
        "__wd_mult__": "1.0"
      }, 
      "inputs": []
    }, 
    {
      "op": "Convolution", 
      "name": "conv87_fwd", 
      "attrs": {
        "dilate": "(1, 1)", 
        "kernel": "(1, 1)", 
        "layout": "NCHW", 
        "no_bias": "False", 
        "num_filter": "256", 
        "num_group": "1", 
        "pad": "(0, 0)", 
        "stride": "(1, 1)"
      }, 
      "inputs": [[222, 0, 0], [223, 0, 0], [224, 0, 0]]
    }, 
    {
      "op": "Activation", 
      "name": "silu43_sigmoid0_fwd", 
      "attrs": {"act_type": "sigmoid"}, 
      "inputs": [[225, 0, 0]]
    }, 
    {
      "op": "elemwise_mul", 
      "name": "silu43__mul0", 
      "inputs": [[225, 0, 0], [226, 0, 0]]
    }, 
    {
      "op": "null", 
      "name": "conv89_weight", 
      "attrs": {
        "__dtype__": "0", 
        "__lr_mult__": "1.0", 
        "__shape__": "(256, 0, 3, 3)", 
        "__storage_type__": "0", 
        "__wd_mult__": "1.0"
      }, 
      "inputs": []
    }, 
    {
      "op": "null", 
      "name": "conv89_bias", 
      "attrs": {
        "__dtype__": "0", 
        "__init__": "zeros", 
        "__lr_mult__": "1.0", 
        "__shape__": "(256,)", 
        "__storage_type__": "0", 
        "__wd_mult__": "1.0"
      }, 
      "inputs": []
    }, 
    {
      "op": "Convolution", 
      "name": "conv89_fwd", 
      "attrs": {
        "dilate": "(1, 1)", 
        "kernel": "(3, 3)", 
        "layout": "NCHW", 
        "no_bias": "False", 
        "num_filter": "256", 
        "num_group": "1", 
        "pad": "(1, 1)", 
        "stride": "(1, 1)"
      }, 
      "inputs": [[227, 0, 0], [228, 0, 0], [229, 0, 0]]
    }, 
    {
      "op": "Activation", 
      "name": "silu44_sigmoid0_fwd", 
      "attrs": {"act_type": "sigmoid"}, 
      "inputs": [[230, 0, 0]]
    }, 
    {
      "op": "elemwise_mul", 
      "name": "silu44__mul0", 
      "inputs": [[230, 0, 0], [231, 0, 0]]
    }, 
    {
      "op": "elemwise_add", 
      "name": "bottle15__plus0", 
      "inputs": [[222, 0, 0], [232, 0, 0]]
    }, 
    {
      "op": "null", 
      "name": "conv91_weight", 
      "attrs": {
        "__dtype__": "0", 
        "__lr_mult__": "1.0", 
        "__shape__": "(256, 0, 1, 1)", 
        "__storage_type__": "0", 
        "__wd_mult__": "1.0"
      }, 
      "inputs": []
    }, 
    {
      "op": "null", 
      "name": "conv91_bias", 
      "attrs": {
        "__dtype__": "0", 
        "__init__": "zeros", 
        "__lr_mult__": "1.0", 
        "__shape__": "(256,)", 
        "__storage_type__": "0", 
        "__wd_mult__": "1.0"
      }, 
      "inputs": []
    }, 
    {
      "op": "Convolution", 
      "name": "conv91_fwd", 
      "attrs": {
        "dilate": "(1, 1)", 
        "kernel": "(1, 1)", 
        "layout": "NCHW", 
        "no_bias": "False", 
        "num_filter": "256", 
        "num_group": "1", 
        "pad": "(0, 0)", 
        "stride": "(1, 1)"
      }, 
      "inputs": [[233, 0, 0], [234, 0, 0], [235, 0, 0]]
    }, 
    {
      "op": "Activation", 
      "name": "silu45_sigmoid0_fwd", 
      "attrs": {"act_type": "sigmoid"}, 
      "inputs": [[236, 0, 0]]
    }, 
    {
      "op": "elemwise_mul", 
      "name": "silu45__mul0", 
      "inputs": [[236, 0, 0], [237, 0, 0]]
    }, 
    {
      "op": "null", 
      "name": "conv93_weight", 
      "attrs": {
        "__dtype__": "0", 
        "__lr_mult__": "1.0", 
        "__shape__": "(256, 0, 3, 3)", 
        "__storage_type__": "0", 
        "__wd_mult__": "1.0"
      }, 
      "inputs": []
    }, 
    {
      "op": "null", 
      "name": "conv93_bias", 
      "attrs": {
        "__dtype__": "0", 
        "__init__": "zeros", 
        "__lr_mult__": "1.0", 
        "__shape__": "(256,)", 
        "__storage_type__": "0", 
        "__wd_mult__": "1.0"
      }, 
      "inputs": []
    }, 
    {
      "op": "Convolution", 
      "name": "conv93_fwd", 
      "attrs": {
        "dilate": "(1, 1)", 
        "kernel": "(3, 3)", 
        "layout": "NCHW", 
        "no_bias": "False", 
        "num_filter": "256", 
        "num_group": "1", 
        "pad": "(1, 1)", 
        "stride": "(1, 1)"
      }, 
      "inputs": [[238, 0, 0], [239, 0, 0], [240, 0, 0]]
    }, 
    {
      "op": "Activation", 
      "name": "silu46_sigmoid0_fwd", 
      "attrs": {"act_type": "sigmoid"}, 
      "inputs": [[241, 0, 0]]
    }, 
    {
      "op": "elemwise_mul", 
      "name": "silu46__mul0", 
      "inputs": [[241, 0, 0], [242, 0, 0]]
    }, 
    {
      "op": "elemwise_add", 
      "name": "bottle16__plus0", 
      "inputs": [[233, 0, 0], [243, 0, 0]]
    }, 
    {
      "op": "null", 
      "name": "conv95_weight", 
      "attrs": {
        "__dtype__": "0", 
        "__lr_mult__": "1.0", 
        "__shape__": "(256, 0, 1, 1)", 
        "__storage_type__": "0", 
        "__wd_mult__": "1.0"
      }, 
      "inputs": []
    }, 
    {
      "op": "null", 
      "name": "conv95_bias", 
      "attrs": {
        "__dtype__": "0", 
        "__init__": "zeros", 
        "__lr_mult__": "1.0", 
        "__shape__": "(256,)", 
        "__storage_type__": "0", 
        "__wd_mult__": "1.0"
      }, 
      "inputs": []
    }, 
    {
      "op": "Convolution", 
      "name": "conv95_fwd", 
      "attrs": {
        "dilate": "(1, 1)", 
        "kernel": "(1, 1)", 
        "layout": "NCHW", 
        "no_bias": "False", 
        "num_filter": "256", 
        "num_group": "1", 
        "pad": "(0, 0)", 
        "stride": "(1, 1)"
      }, 
      "inputs": [[244, 0, 0], [245, 0, 0], [246, 0, 0]]
    }, 
    {
      "op": "Activation", 
      "name": "silu47_sigmoid0_fwd", 
      "attrs": {"act_type": "sigmoid"}, 
      "inputs": [[247, 0, 0]]
    }, 
    {
      "op": "elemwise_mul", 
      "name": "silu47__mul0", 
      "inputs": [[247, 0, 0], [248, 0, 0]]
    }, 
    {
      "op": "null", 
      "name": "conv97_weight", 
      "attrs": {
        "__dtype__": "0", 
        "__lr_mult__": "1.0", 
        "__shape__": "(256, 0, 3, 3)", 
        "__storage_type__": "0", 
        "__wd_mult__": "1.0"
      }, 
      "inputs": []
    }, 
    {
      "op": "null", 
      "name": "conv97_bias", 
      "attrs": {
        "__dtype__": "0", 
        "__init__": "zeros", 
        "__lr_mult__": "1.0", 
        "__shape__": "(256,)", 
        "__storage_type__": "0", 
        "__wd_mult__": "1.0"
      }, 
      "inputs": []
    }, 
    {
      "op": "Convolution", 
      "name": "conv97_fwd", 
      "attrs": {
        "dilate": "(1, 1)", 
        "kernel": "(3, 3)", 
        "layout": "NCHW", 
        "no_bias": "False", 
        "num_filter": "256", 
        "num_group": "1", 
        "pad": "(1, 1)", 
        "stride": "(1, 1)"
      }, 
      "inputs": [[249, 0, 0], [250, 0, 0], [251, 0, 0]]
    }, 
    {
      "op": "Activation", 
      "name": "silu48_sigmoid0_fwd", 
      "attrs": {"act_type": "sigmoid"}, 
      "inputs": [[252, 0, 0]]
    }, 
    {
      "op": "elemwise_mul", 
      "name": "silu48__mul0", 
      "inputs": [[252, 0, 0], [253, 0, 0]]
    }, 
    {
      "op": "elemwise_add", 
      "name": "bottle17__plus0", 
      "inputs": [[244, 0, 0], [254, 0, 0]]
    }, 
    {
      "op": "null", 
      "name": "conv59_weight", 
      "attrs": {
        "__dtype__": "0", 
        "__lr_mult__": "1.0", 
        "__shape__": "(256, 0, 1, 1)", 
        "__storage_type__": "0", 
        "__wd_mult__": "1.0"
      }, 
      "inputs": []
    }, 
    {
      "op": "null", 
      "name": "conv59_bias", 
      "attrs": {
        "__dtype__": "0", 
        "__init__": "zeros", 
        "__lr_mult__": "1.0", 
        "__shape__": "(256,)", 
        "__storage_type__": "0", 
        "__wd_mult__": "1.0"
      }, 
      "inputs": []
    }, 
    {
      "op": "Convolution", 
      "name": "conv59_fwd", 
      "attrs": {
        "dilate": "(1, 1)", 
        "kernel": "(1, 1)", 
        "layout": "NCHW", 
        "no_bias": "False", 
        "num_filter": "256", 
        "num_group": "1", 
        "pad": "(0, 0)", 
        "stride": "(1, 1)"
      }, 
      "inputs": [[151, 0, 0], [256, 0, 0], [257, 0, 0]]
    }, 
    {
      "op": "Activation", 
      "name": "silu29_sigmoid0_fwd", 
      "attrs": {"act_type": "sigmoid"}, 
      "inputs": [[258, 0, 0]]
    }, 
    {
      "op": "elemwise_mul", 
      "name": "silu29__mul0", 
      "inputs": [[258, 0, 0], [259, 0, 0]]
    }, 
    {
      "op": "Concat", 
      "name": "c3_rep90_concat0", 
      "attrs": {
        "dim": "1", 
        "num_args": "2"
      }, 
      "inputs": [[255, 0, 0], [260, 0, 0]]
    }, 
    {
      "op": "null", 
      "name": "conv61_weight", 
      "attrs": {
        "__dtype__": "0", 
        "__lr_mult__": "1.0", 
        "__shape__": "(512, 0, 1, 1)", 
        "__storage_type__": "0", 
        "__wd_mult__": "1.0"
      }, 
      "inputs": []
    }, 
    {
      "op": "null", 
      "name": "conv61_bias", 
      "attrs": {
        "__dtype__": "0", 
        "__init__": "zeros", 
        "__lr_mult__": "1.0", 
        "__shape__": "(512,)", 
        "__storage_type__": "0", 
        "__wd_mult__": "1.0"
      }, 
      "inputs": []
    }, 
    {
      "op": "Convolution", 
      "name": "conv61_fwd", 
      "attrs": {
        "dilate": "(1, 1)", 
        "kernel": "(1, 1)", 
        "layout": "NCHW", 
        "no_bias": "False", 
        "num_filter": "512", 
        "num_group": "1", 
        "pad": "(0, 0)", 
        "stride": "(1, 1)"
      }, 
      "inputs": [[261, 0, 0], [262, 0, 0], [263, 0, 0]]
    }, 
    {
      "op": "Activation", 
      "name": "silu30_sigmoid0_fwd", 
      "attrs": {"act_type": "sigmoid"}, 
      "inputs": [[264, 0, 0]]
    }, 
    {
      "op": "elemwise_mul", 
      "name": "silu30__mul0", 
      "inputs": [[264, 0, 0], [265, 0, 0]]
    }, 
    {
      "op": "null", 
      "name": "conv99_weight", 
      "attrs": {
        "__dtype__": "0", 
        "__lr_mult__": "1.0", 
        "__shape__": "(1024, 0, 3, 3)", 
        "__storage_type__": "0", 
        "__wd_mult__": "1.0"
      }, 
      "inputs": []
    }, 
    {
      "op": "null", 
      "name": "conv99_bias", 
      "attrs": {
        "__dtype__": "0", 
        "__init__": "zeros", 
        "__lr_mult__": "1.0", 
        "__shape__": "(1024,)", 
        "__storage_type__": "0", 
        "__wd_mult__": "1.0"
      }, 
      "inputs": []
    }, 
    {
      "op": "Convolution", 
      "name": "conv99_fwd", 
      "attrs": {
        "dilate": "(1, 1)", 
        "kernel": "(3, 3)", 
        "layout": "NCHW", 
        "no_bias": "False", 
        "num_filter": "1024", 
        "num_group": "1", 
        "pad": "(1, 1)", 
        "stride": "(2, 2)"
      }, 
      "inputs": [[266, 0, 0], [267, 0, 0], [268, 0, 0]]
    }, 
    {
      "op": "Activation", 
      "name": "silu49_sigmoid0_fwd", 
      "attrs": {"act_type": "sigmoid"}, 
      "inputs": [[269, 0, 0]]
    }, 
    {
      "op": "elemwise_mul", 
      "name": "silu49__mul0", 
      "inputs": [[269, 0, 0], [270, 0, 0]]
    }, 
    {
      "op": "null", 
      "name": "conv101_weight", 
      "attrs": {
        "__dtype__": "0", 
        "__lr_mult__": "1.0", 
        "__shape__": "(512, 0, 1, 1)", 
        "__storage_type__": "0", 
        "__wd_mult__": "1.0"
      }, 
      "inputs": []
    }, 
    {
      "op": "null", 
      "name": "conv101_bias", 
      "attrs": {
        "__dtype__": "0", 
        "__init__": "zeros", 
        "__lr_mult__": "1.0", 
        "__shape__": "(512,)", 
        "__storage_type__": "0", 
        "__wd_mult__": "1.0"
      }, 
      "inputs": []
    }, 
    {
      "op": "Convolution", 
      "name": "conv101_fwd", 
      "attrs": {
        "dilate": "(1, 1)", 
        "kernel": "(1, 1)", 
        "layout": "NCHW", 
        "no_bias": "False", 
        "num_filter": "512", 
        "num_group": "1", 
        "pad": "(0, 0)", 
        "stride": "(1, 1)"
      }, 
      "inputs": [[271, 0, 0], [272, 0, 0], [273, 0, 0]]
    }, 
    {
      "op": "Activation", 
      "name": "silu50_sigmoid0_fwd", 
      "attrs": {"act_type": "sigmoid"}, 
      "inputs": [[274, 0, 0]]
    }, 
    {
      "op": "elemwise_mul", 
      "name": "silu50__mul0", 
      "inputs": [[274, 0, 0], [275, 0, 0]]
    }, 
    {
      "op": "null", 
      "name": "conv107_weight", 
      "attrs": {
        "__dtype__": "0", 
        "__lr_mult__": "1.0", 
        "__shape__": "(512, 0, 1, 1)", 
        "__storage_type__": "0", 
        "__wd_mult__": "1.0"
      }, 
      "inputs": []
    }, 
    {
      "op": "null", 
      "name": "conv107_bias", 
      "attrs": {
        "__dtype__": "0", 
        "__init__": "zeros", 
        "__lr_mult__": "1.0", 
        "__shape__": "(512,)", 
        "__storage_type__": "0", 
        "__wd_mult__": "1.0"
      }, 
      "inputs": []
    }, 
    {
      "op": "Convolution", 
      "name": "conv107_fwd", 
      "attrs": {
        "dilate": "(1, 1)", 
        "kernel": "(1, 1)", 
        "layout": "NCHW", 
        "no_bias": "False", 
        "num_filter": "512", 
        "num_group": "1", 
        "pad": "(0, 0)", 
        "stride": "(1, 1)"
      }, 
      "inputs": [[276, 0, 0], [277, 0, 0], [278, 0, 0]]
    }, 
    {
      "op": "Activation", 
      "name": "silu53_sigmoid0_fwd", 
      "attrs": {"act_type": "sigmoid"}, 
      "inputs": [[279, 0, 0]]
    }, 
    {
      "op": "elemwise_mul", 
      "name": "silu53__mul0", 
      "inputs": [[279, 0, 0], [280, 0, 0]]
    }, 
    {
      "op": "null", 
      "name": "conv109_weight", 
      "attrs": {
        "__dtype__": "0", 
        "__lr_mult__": "1.0", 
        "__shape__": "(512, 0, 3, 3)", 
        "__storage_type__": "0", 
        "__wd_mult__": "1.0"
      }, 
      "inputs": []
    }, 
    {
      "op": "null", 
      "name": "conv109_bias", 
      "attrs": {
        "__dtype__": "0", 
        "__init__": "zeros", 
        "__lr_mult__": "1.0", 
        "__shape__": "(512,)", 
        "__storage_type__": "0", 
        "__wd_mult__": "1.0"
      }, 
      "inputs": []
    }, 
    {
      "op": "Convolution", 
      "name": "conv109_fwd", 
      "attrs": {
        "dilate": "(1, 1)", 
        "kernel": "(3, 3)", 
        "layout": "NCHW", 
        "no_bias": "False", 
        "num_filter": "512", 
        "num_group": "1", 
        "pad": "(1, 1)", 
        "stride": "(1, 1)"
      }, 
      "inputs": [[281, 0, 0], [282, 0, 0], [283, 0, 0]]
    }, 
    {
      "op": "Activation", 
      "name": "silu54_sigmoid0_fwd", 
      "attrs": {"act_type": "sigmoid"}, 
      "inputs": [[284, 0, 0]]
    }, 
    {
      "op": "elemwise_mul", 
      "name": "silu54__mul0", 
      "inputs": [[284, 0, 0], [285, 0, 0]]
    }, 
    {
      "op": "elemwise_add", 
      "name": "bottle18__plus0", 
      "inputs": [[276, 0, 0], [286, 0, 0]]
    }, 
    {
      "op": "null", 
      "name": "conv111_weight", 
      "attrs": {
        "__dtype__": "0", 
        "__lr_mult__": "1.0", 
        "__shape__": "(512, 0, 1, 1)", 
        "__storage_type__": "0", 
        "__wd_mult__": "1.0"
      }, 
      "inputs": []
    }, 
    {
      "op": "null", 
      "name": "conv111_bias", 
      "attrs": {
        "__dtype__": "0", 
        "__init__": "zeros", 
        "__lr_mult__": "1.0", 
        "__shape__": "(512,)", 
        "__storage_type__": "0", 
        "__wd_mult__": "1.0"
      }, 
      "inputs": []
    }, 
    {
      "op": "Convolution", 
      "name": "conv111_fwd", 
      "attrs": {
        "dilate": "(1, 1)", 
        "kernel": "(1, 1)", 
        "layout": "NCHW", 
        "no_bias": "False", 
        "num_filter": "512", 
        "num_group": "1", 
        "pad": "(0, 0)", 
        "stride": "(1, 1)"
      }, 
      "inputs": [[287, 0, 0], [288, 0, 0], [289, 0, 0]]
    }, 
    {
      "op": "Activation", 
      "name": "silu55_sigmoid0_fwd", 
      "attrs": {"act_type": "sigmoid"}, 
      "inputs": [[290, 0, 0]]
    }, 
    {
      "op": "elemwise_mul", 
      "name": "silu55__mul0", 
      "inputs": [[290, 0, 0], [291, 0, 0]]
    }, 
    {
      "op": "null", 
      "name": "conv113_weight", 
      "attrs": {
        "__dtype__": "0", 
        "__lr_mult__": "1.0", 
        "__shape__": "(512, 0, 3, 3)", 
        "__storage_type__": "0", 
        "__wd_mult__": "1.0"
      }, 
      "inputs": []
    }, 
    {
      "op": "null", 
      "name": "conv113_bias", 
      "attrs": {
        "__dtype__": "0", 
        "__init__": "zeros", 
        "__lr_mult__": "1.0", 
        "__shape__": "(512,)", 
        "__storage_type__": "0", 
        "__wd_mult__": "1.0"
      }, 
      "inputs": []
    }, 
    {
      "op": "Convolution", 
      "name": "conv113_fwd", 
      "attrs": {
        "dilate": "(1, 1)", 
        "kernel": "(3, 3)", 
        "layout": "NCHW", 
        "no_bias": "False", 
        "num_filter": "512", 
        "num_group": "1", 
        "pad": "(1, 1)", 
        "stride": "(1, 1)"
      }, 
      "inputs": [[292, 0, 0], [293, 0, 0], [294, 0, 0]]
    }, 
    {
      "op": "Activation", 
      "name": "silu56_sigmoid0_fwd", 
      "attrs": {"act_type": "sigmoid"}, 
      "inputs": [[295, 0, 0]]
    }, 
    {
      "op": "elemwise_mul", 
      "name": "silu56__mul0", 
      "inputs": [[295, 0, 0], [296, 0, 0]]
    }, 
    {
      "op": "elemwise_add", 
      "name": "bottle19__plus0", 
      "inputs": [[287, 0, 0], [297, 0, 0]]
    }, 
    {
      "op": "null", 
      "name": "conv115_weight", 
      "attrs": {
        "__dtype__": "0", 
        "__lr_mult__": "1.0", 
        "__shape__": "(512, 0, 1, 1)", 
        "__storage_type__": "0", 
        "__wd_mult__": "1.0"
      }, 
      "inputs": []
    }, 
    {
      "op": "null", 
      "name": "conv115_bias", 
      "attrs": {
        "__dtype__": "0", 
        "__init__": "zeros", 
        "__lr_mult__": "1.0", 
        "__shape__": "(512,)", 
        "__storage_type__": "0", 
        "__wd_mult__": "1.0"
      }, 
      "inputs": []
    }, 
    {
      "op": "Convolution", 
      "name": "conv115_fwd", 
      "attrs": {
        "dilate": "(1, 1)", 
        "kernel": "(1, 1)", 
        "layout": "NCHW", 
        "no_bias": "False", 
        "num_filter": "512", 
        "num_group": "1", 
        "pad": "(0, 0)", 
        "stride": "(1, 1)"
      }, 
      "inputs": [[298, 0, 0], [299, 0, 0], [300, 0, 0]]
    }, 
    {
      "op": "Activation", 
      "name": "silu57_sigmoid0_fwd", 
      "attrs": {"act_type": "sigmoid"}, 
      "inputs": [[301, 0, 0]]
    }, 
    {
      "op": "elemwise_mul", 
      "name": "silu57__mul0", 
      "inputs": [[301, 0, 0], [302, 0, 0]]
    }, 
    {
      "op": "null", 
      "name": "conv117_weight", 
      "attrs": {
        "__dtype__": "0", 
        "__lr_mult__": "1.0", 
        "__shape__": "(512, 0, 3, 3)", 
        "__storage_type__": "0", 
        "__wd_mult__": "1.0"
      }, 
      "inputs": []
    }, 
    {
      "op": "null", 
      "name": "conv117_bias", 
      "attrs": {
        "__dtype__": "0", 
        "__init__": "zeros", 
        "__lr_mult__": "1.0", 
        "__shape__": "(512,)", 
        "__storage_type__": "0", 
        "__wd_mult__": "1.0"
      }, 
      "inputs": []
    }, 
    {
      "op": "Convolution", 
      "name": "conv117_fwd", 
      "attrs": {
        "dilate": "(1, 1)", 
        "kernel": "(3, 3)", 
        "layout": "NCHW", 
        "no_bias": "False", 
        "num_filter": "512", 
        "num_group": "1", 
        "pad": "(1, 1)", 
        "stride": "(1, 1)"
      }, 
      "inputs": [[303, 0, 0], [304, 0, 0], [305, 0, 0]]
    }, 
    {
      "op": "Activation", 
      "name": "silu58_sigmoid0_fwd", 
      "attrs": {"act_type": "sigmoid"}, 
      "inputs": [[306, 0, 0]]
    }, 
    {
      "op": "elemwise_mul", 
      "name": "silu58__mul0", 
      "inputs": [[306, 0, 0], [307, 0, 0]]
    }, 
    {
      "op": "elemwise_add", 
      "name": "bottle20__plus0", 
      "inputs": [[298, 0, 0], [308, 0, 0]]
    }, 
    {
      "op": "null", 
      "name": "conv103_weight", 
      "attrs": {
        "__dtype__": "0", 
        "__lr_mult__": "1.0", 
        "__shape__": "(512, 0, 1, 1)", 
        "__storage_type__": "0", 
        "__wd_mult__": "1.0"
      }, 
      "inputs": []
    }, 
    {
      "op": "null", 
      "name": "conv103_bias", 
      "attrs": {
        "__dtype__": "0", 
        "__init__": "zeros", 
        "__lr_mult__": "1.0", 
        "__shape__": "(512,)", 
        "__storage_type__": "0", 
        "__wd_mult__": "1.0"
      }, 
      "inputs": []
    }, 
    {
      "op": "Convolution", 
      "name": "conv103_fwd", 
      "attrs": {
        "dilate": "(1, 1)", 
        "kernel": "(1, 1)", 
        "layout": "NCHW", 
        "no_bias": "False", 
        "num_filter": "512", 
        "num_group": "1", 
        "pad": "(0, 0)", 
        "stride": "(1, 1)"
      }, 
      "inputs": [[271, 0, 0], [310, 0, 0], [311, 0, 0]]
    }, 
    {
      "op": "Activation", 
      "name": "silu51_sigmoid0_fwd", 
      "attrs": {"act_type": "sigmoid"}, 
      "inputs": [[312, 0, 0]]
    }, 
    {
      "op": "elemwise_mul", 
      "name": "silu51__mul0", 
      "inputs": [[312, 0, 0], [313, 0, 0]]
    }, 
    {
      "op": "Concat", 
      "name": "c3_rep31_concat0", 
      "attrs": {
        "dim": "1", 
        "num_args": "2"
      }, 
      "inputs": [[309, 0, 0], [314, 0, 0]]
    }, 
    {
      "op": "null", 
      "name": "conv105_weight", 
      "attrs": {
        "__dtype__": "0", 
        "__lr_mult__": "1.0", 
        "__shape__": "(1024, 0, 1, 1)", 
        "__storage_type__": "0", 
        "__wd_mult__": "1.0"
      }, 
      "inputs": []
    }, 
    {
      "op": "null", 
      "name": "conv105_bias", 
      "attrs": {
        "__dtype__": "0", 
        "__init__": "zeros", 
        "__lr_mult__": "1.0", 
        "__shape__": "(1024,)", 
        "__storage_type__": "0", 
        "__wd_mult__": "1.0"
      }, 
      "inputs": []
    }, 
    {
      "op": "Convolution", 
      "name": "conv105_fwd", 
      "attrs": {
        "dilate": "(1, 1)", 
        "kernel": "(1, 1)", 
        "layout": "NCHW", 
        "no_bias": "False", 
        "num_filter": "1024", 
        "num_group": "1", 
        "pad": "(0, 0)", 
        "stride": "(1, 1)"
      }, 
      "inputs": [[315, 0, 0], [316, 0, 0], [317, 0, 0]]
    }, 
    {
      "op": "Activation", 
      "name": "silu52_sigmoid0_fwd", 
      "attrs": {"act_type": "sigmoid"}, 
      "inputs": [[318, 0, 0]]
    }, 
    {
      "op": "elemwise_mul", 
      "name": "silu52__mul0", 
      "inputs": [[318, 0, 0], [319, 0, 0]]
    }, 
    {
      "op": "null", 
      "name": "conv119_weight", 
      "attrs": {
        "__dtype__": "0", 
        "__lr_mult__": "1.0", 
        "__shape__": "(512, 0, 1, 1)", 
        "__storage_type__": "0", 
        "__wd_mult__": "1.0"
      }, 
      "inputs": []
    }, 
    {
      "op": "null", 
      "name": "conv119_bias", 
      "attrs": {
        "__dtype__": "0", 
        "__init__": "zeros", 
        "__lr_mult__": "1.0", 
        "__shape__": "(512,)", 
        "__storage_type__": "0", 
        "__wd_mult__": "1.0"
      }, 
      "inputs": []
    }, 
    {
      "op": "Convolution", 
      "name": "conv119_fwd", 
      "attrs": {
        "dilate": "(1, 1)", 
        "kernel": "(1, 1)", 
        "layout": "NCHW", 
        "no_bias": "False", 
        "num_filter": "512", 
        "num_group": "1", 
        "pad": "(0, 0)", 
        "stride": "(1, 1)"
      }, 
      "inputs": [[320, 0, 0], [321, 0, 0], [322, 0, 0]]
    }, 
    {
      "op": "Activation", 
      "name": "silu59_sigmoid0_fwd", 
      "attrs": {"act_type": "sigmoid"}, 
      "inputs": [[323, 0, 0]]
    }, 
    {
      "op": "elemwise_mul", 
      "name": "silu59__mul0", 
      "inputs": [[323, 0, 0], [324, 0, 0]]
    }, 
    {
      "op": "Pooling", 
      "name": "pool0_fwd", 
      "attrs": {
        "global_pool": "False", 
        "kernel": "(5, 5)", 
        "layout": "NCHW", 
        "pad": "(2, 2)", 
        "pool_type": "max", 
        "pooling_convention": "valid", 
        "stride": "(1, 1)"
      }, 
      "inputs": [[325, 0, 0]]
    }, 
    {
      "op": "Pooling", 
      "name": "pool0_fwd", 
      "attrs": {
        "global_pool": "False", 
        "kernel": "(5, 5)", 
        "layout": "NCHW", 
        "pad": "(2, 2)", 
        "pool_type": "max", 
        "pooling_convention": "valid", 
        "stride": "(1, 1)"
      }, 
      "inputs": [[326, 0, 0]]
    }, 
    {
      "op": "Pooling", 
      "name": "pool0_fwd", 
      "attrs": {
        "global_pool": "False", 
        "kernel": "(5, 5)", 
        "layout": "NCHW", 
        "pad": "(2, 2)", 
        "pool_type": "max", 
        "pooling_convention": "valid", 
        "stride": "(1, 1)"
      }, 
      "inputs": [[327, 0, 0]]
    }, 
    {
      "op": "Concat", 
      "name": "sppf0_concat0", 
      "attrs": {
        "dim": "1", 
        "num_args": "4"
      }, 
      "inputs": [[325, 0, 0], [326, 0, 0], [327, 0, 0], [328, 0, 0]]
    }, 
    {
      "op": "null", 
      "name": "conv121_weight", 
      "attrs": {
        "__dtype__": "0", 
        "__lr_mult__": "1.0", 
        "__shape__": "(1024, 0, 1, 1)", 
        "__storage_type__": "0", 
        "__wd_mult__": "1.0"
      }, 
      "inputs": []
    }, 
    {
      "op": "null", 
      "name": "conv121_bias", 
      "attrs": {
        "__dtype__": "0", 
        "__init__": "zeros", 
        "__lr_mult__": "1.0", 
        "__shape__": "(1024,)", 
        "__storage_type__": "0", 
        "__wd_mult__": "1.0"
      }, 
      "inputs": []
    }, 
    {
      "op": "Convolution", 
      "name": "conv121_fwd", 
      "attrs": {
        "dilate": "(1, 1)", 
        "kernel": "(1, 1)", 
        "layout": "NCHW", 
        "no_bias": "False", 
        "num_filter": "1024", 
        "num_group": "1", 
        "pad": "(0, 0)", 
        "stride": "(1, 1)"
      }, 
      "inputs": [[329, 0, 0], [330, 0, 0], [331, 0, 0]]
    }, 
    {
      "op": "Activation", 
      "name": "silu60_sigmoid0_fwd", 
      "attrs": {"act_type": "sigmoid"}, 
      "inputs": [[332, 0, 0]]
    }, 
    {
      "op": "elemwise_mul", 
      "name": "silu60__mul0", 
      "inputs": [[332, 0, 0], [333, 0, 0]]
    }, 
    {
      "op": "null", 
      "name": "conv123_weight", 
      "attrs": {
        "__dtype__": "0", 
        "__lr_mult__": "1.0", 
        "__shape__": "(512, 0, 1, 1)", 
        "__storage_type__": "0", 
        "__wd_mult__": "1.0"
      }, 
      "inputs": []
    }, 
    {
      "op": "null", 
      "name": "conv123_bias", 
      "attrs": {
        "__dtype__": "0", 
        "__init__": "zeros", 
        "__lr_mult__": "1.0", 
        "__shape__": "(512,)", 
        "__storage_type__": "0", 
        "__wd_mult__": "1.0"
      }, 
      "inputs": []
    }, 
    {
      "op": "Convolution", 
      "name": "conv123_fwd", 
      "attrs": {
        "dilate": "(1, 1)", 
        "kernel": "(1, 1)", 
        "layout": "NCHW", 
        "no_bias": "False", 
        "num_filter": "512", 
        "num_group": "1", 
        "pad": "(0, 0)", 
        "stride": "(1, 1)"
      }, 
      "inputs": [[334, 0, 0], [335, 0, 0], [336, 0, 0]]
    }, 
    {
      "op": "Activation", 
      "name": "silu61_sigmoid0_fwd", 
      "attrs": {"act_type": "sigmoid"}, 
      "inputs": [[337, 0, 0]]
    }, 
    {
      "op": "elemwise_mul", 
      "name": "silu61__mul0", 
      "inputs": [[337, 0, 0], [338, 0, 0]]
    }, 
    {
      "op": "repeat", 
      "name": "resize0_repeat0", 
      "attrs": {
        "axis": "2", 
        "repeats": "2"
      }, 
      "inputs": [[339, 0, 0]]
    }, 
    {
      "op": "repeat", 
      "name": "resize0_repeat1", 
      "attrs": {
        "axis": "3", 
        "repeats": "2"
      }, 
      "inputs": [[340, 0, 0]]
    }, 
    {
      "op": "Concat", 
      "name": "cat0_concat0", 
      "attrs": {
        "dim": "1", 
        "num_args": "2"
      }, 
      "inputs": [[341, 0, 0], [266, 0, 0]]
    }, 
    {
      "op": "null", 
      "name": "conv125_weight", 
      "attrs": {
        "__dtype__": "0", 
        "__lr_mult__": "1.0", 
        "__shape__": "(256, 0, 1, 1)", 
        "__storage_type__": "0", 
        "__wd_mult__": "1.0"
      }, 
      "inputs": []
    }, 
    {
      "op": "null", 
      "name": "conv125_bias", 
      "attrs": {
        "__dtype__": "0", 
        "__init__": "zeros", 
        "__lr_mult__": "1.0", 
        "__shape__": "(256,)", 
        "__storage_type__": "0", 
        "__wd_mult__": "1.0"
      }, 
      "inputs": []
    }, 
    {
      "op": "Convolution", 
      "name": "conv125_fwd", 
      "attrs": {
        "dilate": "(1, 1)", 
        "kernel": "(1, 1)", 
        "layout": "NCHW", 
        "no_bias": "False", 
        "num_filter": "256", 
        "num_group": "1", 
        "pad": "(0, 0)", 
        "stride": "(1, 1)"
      }, 
      "inputs": [[342, 0, 0], [343, 0, 0], [344, 0, 0]]
    }, 
    {
      "op": "Activation", 
      "name": "silu62_sigmoid0_fwd", 
      "attrs": {"act_type": "sigmoid"}, 
      "inputs": [[345, 0, 0]]
    }, 
    {
      "op": "elemwise_mul", 
      "name": "silu62__mul0", 
      "inputs": [[345, 0, 0], [346, 0, 0]]
    }, 
    {
      "op": "null", 
      "name": "conv131_weight", 
      "attrs": {
        "__dtype__": "0", 
        "__lr_mult__": "1.0", 
        "__shape__": "(256, 0, 1, 1)", 
        "__storage_type__": "0", 
        "__wd_mult__": "1.0"
      }, 
      "inputs": []
    }, 
    {
      "op": "null", 
      "name": "conv131_bias", 
      "attrs": {
        "__dtype__": "0", 
        "__init__": "zeros", 
        "__lr_mult__": "1.0", 
        "__shape__": "(256,)", 
        "__storage_type__": "0", 
        "__wd_mult__": "1.0"
      }, 
      "inputs": []
    }, 
    {
      "op": "Convolution", 
      "name": "conv131_fwd", 
      "attrs": {
        "dilate": "(1, 1)", 
        "kernel": "(1, 1)", 
        "layout": "NCHW", 
        "no_bias": "False", 
        "num_filter": "256", 
        "num_group": "1", 
        "pad": "(0, 0)", 
        "stride": "(1, 1)"
      }, 
      "inputs": [[347, 0, 0], [348, 0, 0], [349, 0, 0]]
    }, 
    {
      "op": "Activation", 
      "name": "silu65_sigmoid0_fwd", 
      "attrs": {"act_type": "sigmoid"}, 
      "inputs": [[350, 0, 0]]
    }, 
    {
      "op": "elemwise_mul", 
      "name": "silu65__mul0", 
      "inputs": [[350, 0, 0], [351, 0, 0]]
    }, 
    {
      "op": "null", 
      "name": "conv133_weight", 
      "attrs": {
        "__dtype__": "0", 
        "__lr_mult__": "1.0", 
        "__shape__": "(256, 0, 3, 3)", 
        "__storage_type__": "0", 
        "__wd_mult__": "1.0"
      }, 
      "inputs": []
    }, 
    {
      "op": "null", 
      "name": "conv133_bias", 
      "attrs": {
        "__dtype__": "0", 
        "__init__": "zeros", 
        "__lr_mult__": "1.0", 
        "__shape__": "(256,)", 
        "__storage_type__": "0", 
        "__wd_mult__": "1.0"
      }, 
      "inputs": []
    }, 
    {
      "op": "Convolution", 
      "name": "conv133_fwd", 
      "attrs": {
        "dilate": "(1, 1)", 
        "kernel": "(3, 3)", 
        "layout": "NCHW", 
        "no_bias": "False", 
        "num_filter": "256", 
        "num_group": "1", 
        "pad": "(1, 1)", 
        "stride": "(1, 1)"
      }, 
      "inputs": [[352, 0, 0], [353, 0, 0], [354, 0, 0]]
    }, 
    {
      "op": "Activation", 
      "name": "silu66_sigmoid0_fwd", 
      "attrs": {"act_type": "sigmoid"}, 
      "inputs": [[355, 0, 0]]
    }, 
    {
      "op": "elemwise_mul", 
      "name": "silu66__mul0", 
      "inputs": [[355, 0, 0], [356, 0, 0]]
    }, 
    {
      "op": "null", 
      "name": "conv135_weight", 
      "attrs": {
        "__dtype__": "0", 
        "__lr_mult__": "1.0", 
        "__shape__": "(256, 0, 1, 1)", 
        "__storage_type__": "0", 
        "__wd_mult__": "1.0"
      }, 
      "inputs": []
    }, 
    {
      "op": "null", 
      "name": "conv135_bias", 
      "attrs": {
        "__dtype__": "0", 
        "__init__": "zeros", 
        "__lr_mult__": "1.0", 
        "__shape__": "(256,)", 
        "__storage_type__": "0", 
        "__wd_mult__": "1.0"
      }, 
      "inputs": []
    }, 
    {
      "op": "Convolution", 
      "name": "conv135_fwd", 
      "attrs": {
        "dilate": "(1, 1)", 
        "kernel": "(1, 1)", 
        "layout": "NCHW", 
        "no_bias": "False", 
        "num_filter": "256", 
        "num_group": "1", 
        "pad": "(0, 0)", 
        "stride": "(1, 1)"
      }, 
      "inputs": [[357, 0, 0], [358, 0, 0], [359, 0, 0]]
    }, 
    {
      "op": "Activation", 
      "name": "silu67_sigmoid0_fwd", 
      "attrs": {"act_type": "sigmoid"}, 
      "inputs": [[360, 0, 0]]
    }, 
    {
      "op": "elemwise_mul", 
      "name": "silu67__mul0", 
      "inputs": [[360, 0, 0], [361, 0, 0]]
    }, 
    {
      "op": "null", 
      "name": "conv137_weight", 
      "attrs": {
        "__dtype__": "0", 
        "__lr_mult__": "1.0", 
        "__shape__": "(256, 0, 3, 3)", 
        "__storage_type__": "0", 
        "__wd_mult__": "1.0"
      }, 
      "inputs": []
    }, 
    {
      "op": "null", 
      "name": "conv137_bias", 
      "attrs": {
        "__dtype__": "0", 
        "__init__": "zeros", 
        "__lr_mult__": "1.0", 
        "__shape__": "(256,)", 
        "__storage_type__": "0", 
        "__wd_mult__": "1.0"
      }, 
      "inputs": []
    }, 
    {
      "op": "Convolution", 
      "name": "conv137_fwd", 
      "attrs": {
        "dilate": "(1, 1)", 
        "kernel": "(3, 3)", 
        "layout": "NCHW", 
        "no_bias": "False", 
        "num_filter": "256", 
        "num_group": "1", 
        "pad": "(1, 1)", 
        "stride": "(1, 1)"
      }, 
      "inputs": [[362, 0, 0], [363, 0, 0], [364, 0, 0]]
    }, 
    {
      "op": "Activation", 
      "name": "silu68_sigmoid0_fwd", 
      "attrs": {"act_type": "sigmoid"}, 
      "inputs": [[365, 0, 0]]
    }, 
    {
      "op": "elemwise_mul", 
      "name": "silu68__mul0", 
      "inputs": [[365, 0, 0], [366, 0, 0]]
    }, 
    {
      "op": "null", 
      "name": "conv139_weight", 
      "attrs": {
        "__dtype__": "0", 
        "__lr_mult__": "1.0", 
        "__shape__": "(256, 0, 1, 1)", 
        "__storage_type__": "0", 
        "__wd_mult__": "1.0"
      }, 
      "inputs": []
    }, 
    {
      "op": "null", 
      "name": "conv139_bias", 
      "attrs": {
        "__dtype__": "0", 
        "__init__": "zeros", 
        "__lr_mult__": "1.0", 
        "__shape__": "(256,)", 
        "__storage_type__": "0", 
        "__wd_mult__": "1.0"
      }, 
      "inputs": []
    }, 
    {
      "op": "Convolution", 
      "name": "conv139_fwd", 
      "attrs": {
        "dilate": "(1, 1)", 
        "kernel": "(1, 1)", 
        "layout": "NCHW", 
        "no_bias": "False", 
        "num_filter": "256", 
        "num_group": "1", 
        "pad": "(0, 0)", 
        "stride": "(1, 1)"
      }, 
      "inputs": [[367, 0, 0], [368, 0, 0], [369, 0, 0]]
    }, 
    {
      "op": "Activation", 
      "name": "silu69_sigmoid0_fwd", 
      "attrs": {"act_type": "sigmoid"}, 
      "inputs": [[370, 0, 0]]
    }, 
    {
      "op": "elemwise_mul", 
      "name": "silu69__mul0", 
      "inputs": [[370, 0, 0], [371, 0, 0]]
    }, 
    {
      "op": "null", 
      "name": "conv141_weight", 
      "attrs": {
        "__dtype__": "0", 
        "__lr_mult__": "1.0", 
        "__shape__": "(256, 0, 3, 3)", 
        "__storage_type__": "0", 
        "__wd_mult__": "1.0"
      }, 
      "inputs": []
    }, 
    {
      "op": "null", 
      "name": "conv141_bias", 
      "attrs": {
        "__dtype__": "0", 
        "__init__": "zeros", 
        "__lr_mult__": "1.0", 
        "__shape__": "(256,)", 
        "__storage_type__": "0", 
        "__wd_mult__": "1.0"
      }, 
      "inputs": []
    }, 
    {
      "op": "Convolution", 
      "name": "conv141_fwd", 
      "attrs": {
        "dilate": "(1, 1)", 
        "kernel": "(3, 3)", 
        "layout": "NCHW", 
        "no_bias": "False", 
        "num_filter": "256", 
        "num_group": "1", 
        "pad": "(1, 1)", 
        "stride": "(1, 1)"
      }, 
      "inputs": [[372, 0, 0], [373, 0, 0], [374, 0, 0]]
    }, 
    {
      "op": "Activation", 
      "name": "silu70_sigmoid0_fwd", 
      "attrs": {"act_type": "sigmoid"}, 
      "inputs": [[375, 0, 0]]
    }, 
    {
      "op": "elemwise_mul", 
      "name": "silu70__mul0", 
      "inputs": [[375, 0, 0], [376, 0, 0]]
    }, 
    {
      "op": "null", 
      "name": "conv127_weight", 
      "attrs": {
        "__dtype__": "0", 
        "__lr_mult__": "1.0", 
        "__shape__": "(256, 0, 1, 1)", 
        "__storage_type__": "0", 
        "__wd_mult__": "1.0"
      }, 
      "inputs": []
    }, 
    {
      "op": "null", 
      "name": "conv127_bias", 
      "attrs": {
        "__dtype__": "0", 
        "__init__": "zeros", 
        "__lr_mult__": "1.0", 
        "__shape__": "(256,)", 
        "__storage_type__": "0", 
        "__wd_mult__": "1.0"
      }, 
      "inputs": []
    }, 
    {
      "op": "Convolution", 
      "name": "conv127_fwd", 
      "attrs": {
        "dilate": "(1, 1)", 
        "kernel": "(1, 1)", 
        "layout": "NCHW", 
        "no_bias": "False", 
        "num_filter": "256", 
        "num_group": "1", 
        "pad": "(0, 0)", 
        "stride": "(1, 1)"
      }, 
      "inputs": [[342, 0, 0], [378, 0, 0], [379, 0, 0]]
    }, 
    {
      "op": "Activation", 
      "name": "silu63_sigmoid0_fwd", 
      "attrs": {"act_type": "sigmoid"}, 
      "inputs": [[380, 0, 0]]
    }, 
    {
      "op": "elemwise_mul", 
      "name": "silu63__mul0", 
      "inputs": [[380, 0, 0], [381, 0, 0]]
    }, 
    {
      "op": "Concat", 
      "name": "c3_rep32_concat0", 
      "attrs": {
        "dim": "1", 
        "num_args": "2"
      }, 
      "inputs": [[377, 0, 0], [382, 0, 0]]
    }, 
    {
      "op": "null", 
      "name": "conv129_weight", 
      "attrs": {
        "__dtype__": "0", 
        "__lr_mult__": "1.0", 
        "__shape__": "(512, 0, 1, 1)", 
        "__storage_type__": "0", 
        "__wd_mult__": "1.0"
      }, 
      "inputs": []
    }, 
    {
      "op": "null", 
      "name": "conv129_bias", 
      "attrs": {
        "__dtype__": "0", 
        "__init__": "zeros", 
        "__lr_mult__": "1.0", 
        "__shape__": "(512,)", 
        "__storage_type__": "0", 
        "__wd_mult__": "1.0"
      }, 
      "inputs": []
    }, 
    {
      "op": "Convolution", 
      "name": "conv129_fwd", 
      "attrs": {
        "dilate": "(1, 1)", 
        "kernel": "(1, 1)", 
        "layout": "NCHW", 
        "no_bias": "False", 
        "num_filter": "512", 
        "num_group": "1", 
        "pad": "(0, 0)", 
        "stride": "(1, 1)"
      }, 
      "inputs": [[383, 0, 0], [384, 0, 0], [385, 0, 0]]
    }, 
    {
      "op": "Activation", 
      "name": "silu64_sigmoid0_fwd", 
      "attrs": {"act_type": "sigmoid"}, 
      "inputs": [[386, 0, 0]]
    }, 
    {
      "op": "elemwise_mul", 
      "name": "silu64__mul0", 
      "inputs": [[386, 0, 0], [387, 0, 0]]
    }, 
    {
      "op": "null", 
      "name": "conv143_weight", 
      "attrs": {
        "__dtype__": "0", 
        "__lr_mult__": "1.0", 
        "__shape__": "(256, 0, 1, 1)", 
        "__storage_type__": "0", 
        "__wd_mult__": "1.0"
      }, 
      "inputs": []
    }, 
    {
      "op": "null", 
      "name": "conv143_bias", 
      "attrs": {
        "__dtype__": "0", 
        "__init__": "zeros", 
        "__lr_mult__": "1.0", 
        "__shape__": "(256,)", 
        "__storage_type__": "0", 
        "__wd_mult__": "1.0"
      }, 
      "inputs": []
    }, 
    {
      "op": "Convolution", 
      "name": "conv143_fwd", 
      "attrs": {
        "dilate": "(1, 1)", 
        "kernel": "(1, 1)", 
        "layout": "NCHW", 
        "no_bias": "False", 
        "num_filter": "256", 
        "num_group": "1", 
        "pad": "(0, 0)", 
        "stride": "(1, 1)"
      }, 
      "inputs": [[388, 0, 0], [389, 0, 0], [390, 0, 0]]
    }, 
    {
      "op": "Activation", 
      "name": "silu71_sigmoid0_fwd", 
      "attrs": {"act_type": "sigmoid"}, 
      "inputs": [[391, 0, 0]]
    }, 
    {
      "op": "elemwise_mul", 
      "name": "silu71__mul0", 
      "inputs": [[391, 0, 0], [392, 0, 0]]
    }, 
    {
      "op": "repeat", 
      "name": "resize1_repeat0", 
      "attrs": {
        "axis": "2", 
        "repeats": "2"
      }, 
      "inputs": [[393, 0, 0]]
    }, 
    {
      "op": "repeat", 
      "name": "resize1_repeat1", 
      "attrs": {
        "axis": "3", 
        "repeats": "2"
      }, 
      "inputs": [[394, 0, 0]]
    }, 
    {
      "op": "Concat", 
      "name": "cat1_concat0", 
      "attrs": {
        "dim": "1", 
        "num_args": "2"
      }, 
      "inputs": [[395, 0, 0], [146, 0, 0]]
    }, 
    {
      "op": "null", 
      "name": "conv145_weight", 
      "attrs": {
        "__dtype__": "0", 
        "__lr_mult__": "1.0", 
        "__shape__": "(128, 0, 1, 1)", 
        "__storage_type__": "0", 
        "__wd_mult__": "1.0"
      }, 
      "inputs": []
    }, 
    {
      "op": "null", 
      "name": "conv145_bias", 
      "attrs": {
        "__dtype__": "0", 
        "__init__": "zeros", 
        "__lr_mult__": "1.0", 
        "__shape__": "(128,)", 
        "__storage_type__": "0", 
        "__wd_mult__": "1.0"
      }, 
      "inputs": []
    }, 
    {
      "op": "Convolution", 
      "name": "conv145_fwd", 
      "attrs": {
        "dilate": "(1, 1)", 
        "kernel": "(1, 1)", 
        "layout": "NCHW", 
        "no_bias": "False", 
        "num_filter": "128", 
        "num_group": "1", 
        "pad": "(0, 0)", 
        "stride": "(1, 1)"
      }, 
      "inputs": [[396, 0, 0], [397, 0, 0], [398, 0, 0]]
    }, 
    {
      "op": "Activation", 
      "name": "silu72_sigmoid0_fwd", 
      "attrs": {"act_type": "sigmoid"}, 
      "inputs": [[399, 0, 0]]
    }, 
    {
      "op": "elemwise_mul", 
      "name": "silu72__mul0", 
      "inputs": [[399, 0, 0], [400, 0, 0]]
    }, 
    {
      "op": "null", 
      "name": "conv151_weight", 
      "attrs": {
        "__dtype__": "0", 
        "__lr_mult__": "1.0", 
        "__shape__": "(128, 0, 1, 1)", 
        "__storage_type__": "0", 
        "__wd_mult__": "1.0"
      }, 
      "inputs": []
    }, 
    {
      "op": "null", 
      "name": "conv151_bias", 
      "attrs": {
        "__dtype__": "0", 
        "__init__": "zeros", 
        "__lr_mult__": "1.0", 
        "__shape__": "(128,)", 
        "__storage_type__": "0", 
        "__wd_mult__": "1.0"
      }, 
      "inputs": []
    }, 
    {
      "op": "Convolution", 
      "name": "conv151_fwd", 
      "attrs": {
        "dilate": "(1, 1)", 
        "kernel": "(1, 1)", 
        "layout": "NCHW", 
        "no_bias": "False", 
        "num_filter": "128", 
        "num_group": "1", 
        "pad": "(0, 0)", 
        "stride": "(1, 1)"
      }, 
      "inputs": [[401, 0, 0], [402, 0, 0], [403, 0, 0]]
    }, 
    {
      "op": "Activation", 
      "name": "silu75_sigmoid0_fwd", 
      "attrs": {"act_type": "sigmoid"}, 
      "inputs": [[404, 0, 0]]
    }, 
    {
      "op": "elemwise_mul", 
      "name": "silu75__mul0", 
      "inputs": [[404, 0, 0], [405, 0, 0]]
    }, 
    {
      "op": "null", 
      "name": "conv153_weight", 
      "attrs": {
        "__dtype__": "0", 
        "__lr_mult__": "1.0", 
        "__shape__": "(128, 0, 3, 3)", 
        "__storage_type__": "0", 
        "__wd_mult__": "1.0"
      }, 
      "inputs": []
    }, 
    {
      "op": "null", 
      "name": "conv153_bias", 
      "attrs": {
        "__dtype__": "0", 
        "__init__": "zeros", 
        "__lr_mult__": "1.0", 
        "__shape__": "(128,)", 
        "__storage_type__": "0", 
        "__wd_mult__": "1.0"
      }, 
      "inputs": []
    }, 
    {
      "op": "Convolution", 
      "name": "conv153_fwd", 
      "attrs": {
        "dilate": "(1, 1)", 
        "kernel": "(3, 3)", 
        "layout": "NCHW", 
        "no_bias": "False", 
        "num_filter": "128", 
        "num_group": "1", 
        "pad": "(1, 1)", 
        "stride": "(1, 1)"
      }, 
      "inputs": [[406, 0, 0], [407, 0, 0], [408, 0, 0]]
    }, 
    {
      "op": "Activation", 
      "name": "silu76_sigmoid0_fwd", 
      "attrs": {"act_type": "sigmoid"}, 
      "inputs": [[409, 0, 0]]
    }, 
    {
      "op": "elemwise_mul", 
      "name": "silu76__mul0", 
      "inputs": [[409, 0, 0], [410, 0, 0]]
    }, 
    {
      "op": "null", 
      "name": "conv155_weight", 
      "attrs": {
        "__dtype__": "0", 
        "__lr_mult__": "1.0", 
        "__shape__": "(128, 0, 1, 1)", 
        "__storage_type__": "0", 
        "__wd_mult__": "1.0"
      }, 
      "inputs": []
    }, 
    {
      "op": "null", 
      "name": "conv155_bias", 
      "attrs": {
        "__dtype__": "0", 
        "__init__": "zeros", 
        "__lr_mult__": "1.0", 
        "__shape__": "(128,)", 
        "__storage_type__": "0", 
        "__wd_mult__": "1.0"
      }, 
      "inputs": []
    }, 
    {
      "op": "Convolution", 
      "name": "conv155_fwd", 
      "attrs": {
        "dilate": "(1, 1)", 
        "kernel": "(1, 1)", 
        "layout": "NCHW", 
        "no_bias": "False", 
        "num_filter": "128", 
        "num_group": "1", 
        "pad": "(0, 0)", 
        "stride": "(1, 1)"
      }, 
      "inputs": [[411, 0, 0], [412, 0, 0], [413, 0, 0]]
    }, 
    {
      "op": "Activation", 
      "name": "silu77_sigmoid0_fwd", 
      "attrs": {"act_type": "sigmoid"}, 
      "inputs": [[414, 0, 0]]
    }, 
    {
      "op": "elemwise_mul", 
      "name": "silu77__mul0", 
      "inputs": [[414, 0, 0], [415, 0, 0]]
    }, 
    {
      "op": "null", 
      "name": "conv157_weight", 
      "attrs": {
        "__dtype__": "0", 
        "__lr_mult__": "1.0", 
        "__shape__": "(128, 0, 3, 3)", 
        "__storage_type__": "0", 
        "__wd_mult__": "1.0"
      }, 
      "inputs": []
    }, 
    {
      "op": "null", 
      "name": "conv157_bias", 
      "attrs": {
        "__dtype__": "0", 
        "__init__": "zeros", 
        "__lr_mult__": "1.0", 
        "__shape__": "(128,)", 
        "__storage_type__": "0", 
        "__wd_mult__": "1.0"
      }, 
      "inputs": []
    }, 
    {
      "op": "Convolution", 
      "name": "conv157_fwd", 
      "attrs": {
        "dilate": "(1, 1)", 
        "kernel": "(3, 3)", 
        "layout": "NCHW", 
        "no_bias": "False", 
        "num_filter": "128", 
        "num_group": "1", 
        "pad": "(1, 1)", 
        "stride": "(1, 1)"
      }, 
      "inputs": [[416, 0, 0], [417, 0, 0], [418, 0, 0]]
    }, 
    {
      "op": "Activation", 
      "name": "silu78_sigmoid0_fwd", 
      "attrs": {"act_type": "sigmoid"}, 
      "inputs": [[419, 0, 0]]
    }, 
    {
      "op": "elemwise_mul", 
      "name": "silu78__mul0", 
      "inputs": [[419, 0, 0], [420, 0, 0]]
    }, 
    {
      "op": "null", 
      "name": "conv159_weight", 
      "attrs": {
        "__dtype__": "0", 
        "__lr_mult__": "1.0", 
        "__shape__": "(128, 0, 1, 1)", 
        "__storage_type__": "0", 
        "__wd_mult__": "1.0"
      }, 
      "inputs": []
    }, 
    {
      "op": "null", 
      "name": "conv159_bias", 
      "attrs": {
        "__dtype__": "0", 
        "__init__": "zeros", 
        "__lr_mult__": "1.0", 
        "__shape__": "(128,)", 
        "__storage_type__": "0", 
        "__wd_mult__": "1.0"
      }, 
      "inputs": []
    }, 
    {
      "op": "Convolution", 
      "name": "conv159_fwd", 
      "attrs": {
        "dilate": "(1, 1)", 
        "kernel": "(1, 1)", 
        "layout": "NCHW", 
        "no_bias": "False", 
        "num_filter": "128", 
        "num_group": "1", 
        "pad": "(0, 0)", 
        "stride": "(1, 1)"
      }, 
      "inputs": [[421, 0, 0], [422, 0, 0], [423, 0, 0]]
    }, 
    {
      "op": "Activation", 
      "name": "silu79_sigmoid0_fwd", 
      "attrs": {"act_type": "sigmoid"}, 
      "inputs": [[424, 0, 0]]
    }, 
    {
      "op": "elemwise_mul", 
      "name": "silu79__mul0", 
      "inputs": [[424, 0, 0], [425, 0, 0]]
    }, 
    {
      "op": "null", 
      "name": "conv161_weight", 
      "attrs": {
        "__dtype__": "0", 
        "__lr_mult__": "1.0", 
        "__shape__": "(128, 0, 3, 3)", 
        "__storage_type__": "0", 
        "__wd_mult__": "1.0"
      }, 
      "inputs": []
    }, 
    {
      "op": "null", 
      "name": "conv161_bias", 
      "attrs": {
        "__dtype__": "0", 
        "__init__": "zeros", 
        "__lr_mult__": "1.0", 
        "__shape__": "(128,)", 
        "__storage_type__": "0", 
        "__wd_mult__": "1.0"
      }, 
      "inputs": []
    }, 
    {
      "op": "Convolution", 
      "name": "conv161_fwd", 
      "attrs": {
        "dilate": "(1, 1)", 
        "kernel": "(3, 3)", 
        "layout": "NCHW", 
        "no_bias": "False", 
        "num_filter": "128", 
        "num_group": "1", 
        "pad": "(1, 1)", 
        "stride": "(1, 1)"
      }, 
      "inputs": [[426, 0, 0], [427, 0, 0], [428, 0, 0]]
    }, 
    {
      "op": "Activation", 
      "name": "silu80_sigmoid0_fwd", 
      "attrs": {"act_type": "sigmoid"}, 
      "inputs": [[429, 0, 0]]
    }, 
    {
      "op": "elemwise_mul", 
      "name": "silu80__mul0", 
      "inputs": [[429, 0, 0], [430, 0, 0]]
    }, 
    {
      "op": "null", 
      "name": "conv147_weight", 
      "attrs": {
        "__dtype__": "0", 
        "__lr_mult__": "1.0", 
        "__shape__": "(128, 0, 1, 1)", 
        "__storage_type__": "0", 
        "__wd_mult__": "1.0"
      }, 
      "inputs": []
    }, 
    {
      "op": "null", 
      "name": "conv147_bias", 
      "attrs": {
        "__dtype__": "0", 
        "__init__": "zeros", 
        "__lr_mult__": "1.0", 
        "__shape__": "(128,)", 
        "__storage_type__": "0", 
        "__wd_mult__": "1.0"
      }, 
      "inputs": []
    }, 
    {
      "op": "Convolution", 
      "name": "conv147_fwd", 
      "attrs": {
        "dilate": "(1, 1)", 
        "kernel": "(1, 1)", 
        "layout": "NCHW", 
        "no_bias": "False", 
        "num_filter": "128", 
        "num_group": "1", 
        "pad": "(0, 0)", 
        "stride": "(1, 1)"
      }, 
      "inputs": [[396, 0, 0], [432, 0, 0], [433, 0, 0]]
    }, 
    {
      "op": "Activation", 
      "name": "silu73_sigmoid0_fwd", 
      "attrs": {"act_type": "sigmoid"}, 
      "inputs": [[434, 0, 0]]
    }, 
    {
      "op": "elemwise_mul", 
      "name": "silu73__mul0", 
      "inputs": [[434, 0, 0], [435, 0, 0]]
    }, 
    {
      "op": "Concat", 
      "name": "c3_rep33_concat0", 
      "attrs": {
        "dim": "1", 
        "num_args": "2"
      }, 
      "inputs": [[431, 0, 0], [436, 0, 0]]
    }, 
    {
      "op": "null", 
      "name": "conv149_weight", 
      "attrs": {
        "__dtype__": "0", 
        "__lr_mult__": "1.0", 
        "__shape__": "(256, 0, 1, 1)", 
        "__storage_type__": "0", 
        "__wd_mult__": "1.0"
      }, 
      "inputs": []
    }, 
    {
      "op": "null", 
      "name": "conv149_bias", 
      "attrs": {
        "__dtype__": "0", 
        "__init__": "zeros", 
        "__lr_mult__": "1.0", 
        "__shape__": "(256,)", 
        "__storage_type__": "0", 
        "__wd_mult__": "1.0"
      }, 
      "inputs": []
    }, 
    {
      "op": "Convolution", 
      "name": "conv149_fwd", 
      "attrs": {
        "dilate": "(1, 1)", 
        "kernel": "(1, 1)", 
        "layout": "NCHW", 
        "no_bias": "False", 
        "num_filter": "256", 
        "num_group": "1", 
        "pad": "(0, 0)", 
        "stride": "(1, 1)"
      }, 
      "inputs": [[437, 0, 0], [438, 0, 0], [439, 0, 0]]
    }, 
    {
      "op": "Activation", 
      "name": "silu74_sigmoid0_fwd", 
      "attrs": {"act_type": "sigmoid"}, 
      "inputs": [[440, 0, 0]]
    }, 
    {
      "op": "elemwise_mul", 
      "name": "silu74__mul0", 
      "inputs": [[440, 0, 0], [441, 0, 0]]
    }, 
    {
      "op": "null", 
      "name": "conv202_weight", 
      "attrs": {
        "__dtype__": "0", 
        "__lr_mult__": "1.0", 
        "__shape__": "(255, 0, 1, 1)", 
        "__storage_type__": "0", 
        "__wd_mult__": "1.0"
      }, 
      "inputs": []
    }, 
    {
      "op": "null", 
      "name": "conv202_bias", 
      "attrs": {
        "__dtype__": "0", 
        "__init__": "zeros", 
        "__lr_mult__": "1.0", 
        "__shape__": "(255,)", 
        "__storage_type__": "0", 
        "__wd_mult__": "1.0"
      }, 
      "inputs": []
    }, 
    {
      "op": "Convolution", 
      "name": "conv202_fwd", 
      "attrs": {
        "dilate": "(1, 1)", 
        "kernel": "(1, 1)", 
        "layout": "NCHW", 
        "no_bias": "False", 
        "num_filter": "255", 
        "num_group": "1", 
        "pad": "(0, 0)", 
        "stride": "(1, 1)"
      }, 
      "inputs": [[442, 0, 0], [443, 0, 0], [444, 0, 0]]
    }, 
    {
      "op": "Reshape", 
      "name": "detect0_reshape0", 
      "attrs": {"shape": "(1, 3, 85, 80, 80)"}, 
      "inputs": [[445, 0, 0]]
    }, 
    {
      "op": "transpose", 
      "name": "detect0_transpose0", 
      "attrs": {"axes": "(0, 1, 3, 4, 2)"}, 
      "inputs": [[446, 0, 0]]
    }, 
    {
      "op": "null", 
      "name": "conv163_weight", 
      "attrs": {
        "__dtype__": "0", 
        "__lr_mult__": "1.0", 
        "__shape__": "(256, 0, 3, 3)", 
        "__storage_type__": "0", 
        "__wd_mult__": "1.0"
      }, 
      "inputs": []
    }, 
    {
      "op": "null", 
      "name": "conv163_bias", 
      "attrs": {
        "__dtype__": "0", 
        "__init__": "zeros", 
        "__lr_mult__": "1.0", 
        "__shape__": "(256,)", 
        "__storage_type__": "0", 
        "__wd_mult__": "1.0"
      }, 
      "inputs": []
    }, 
    {
      "op": "Convolution", 
      "name": "conv163_fwd", 
      "attrs": {
        "dilate": "(1, 1)", 
        "kernel": "(3, 3)", 
        "layout": "NCHW", 
        "no_bias": "False", 
        "num_filter": "256", 
        "num_group": "1", 
        "pad": "(1, 1)", 
        "stride": "(2, 2)"
      }, 
      "inputs": [[442, 0, 0], [448, 0, 0], [449, 0, 0]]
    }, 
    {
      "op": "Activation", 
      "name": "silu81_sigmoid0_fwd", 
      "attrs": {"act_type": "sigmoid"}, 
      "inputs": [[450, 0, 0]]
    }, 
    {
      "op": "elemwise_mul", 
      "name": "silu81__mul0", 
      "inputs": [[450, 0, 0], [451, 0, 0]]
    }, 
    {
      "op": "Concat", 
      "name": "cat2_concat0", 
      "attrs": {
        "dim": "1", 
        "num_args": "2"
      }, 
      "inputs": [[452, 0, 0], [393, 0, 0]]
    }, 
    {
      "op": "null", 
      "name": "conv165_weight", 
      "attrs": {
        "__dtype__": "0", 
        "__lr_mult__": "1.0", 
        "__shape__": "(256, 0, 1, 1)", 
        "__storage_type__": "0", 
        "__wd_mult__": "1.0"
      }, 
      "inputs": []
    }, 
    {
      "op": "null", 
      "name": "conv165_bias", 
      "attrs": {
        "__dtype__": "0", 
        "__init__": "zeros", 
        "__lr_mult__": "1.0", 
        "__shape__": "(256,)", 
        "__storage_type__": "0", 
        "__wd_mult__": "1.0"
      }, 
      "inputs": []
    }, 
    {
      "op": "Convolution", 
      "name": "conv165_fwd", 
      "attrs": {
        "dilate": "(1, 1)", 
        "kernel": "(1, 1)", 
        "layout": "NCHW", 
        "no_bias": "False", 
        "num_filter": "256", 
        "num_group": "1", 
        "pad": "(0, 0)", 
        "stride": "(1, 1)"
      }, 
      "inputs": [[453, 0, 0], [454, 0, 0], [455, 0, 0]]
    }, 
    {
      "op": "Activation", 
      "name": "silu82_sigmoid0_fwd", 
      "attrs": {"act_type": "sigmoid"}, 
      "inputs": [[456, 0, 0]]
    }, 
    {
      "op": "elemwise_mul", 
      "name": "silu82__mul0", 
      "inputs": [[456, 0, 0], [457, 0, 0]]
    }, 
    {
      "op": "null", 
      "name": "conv171_weight", 
      "attrs": {
        "__dtype__": "0", 
        "__lr_mult__": "1.0", 
        "__shape__": "(256, 0, 1, 1)", 
        "__storage_type__": "0", 
        "__wd_mult__": "1.0"
      }, 
      "inputs": []
    }, 
    {
      "op": "null", 
      "name": "conv171_bias", 
      "attrs": {
        "__dtype__": "0", 
        "__init__": "zeros", 
        "__lr_mult__": "1.0", 
        "__shape__": "(256,)", 
        "__storage_type__": "0", 
        "__wd_mult__": "1.0"
      }, 
      "inputs": []
    }, 
    {
      "op": "Convolution", 
      "name": "conv171_fwd", 
      "attrs": {
        "dilate": "(1, 1)", 
        "kernel": "(1, 1)", 
        "layout": "NCHW", 
        "no_bias": "False", 
        "num_filter": "256", 
        "num_group": "1", 
        "pad": "(0, 0)", 
        "stride": "(1, 1)"
      }, 
      "inputs": [[458, 0, 0], [459, 0, 0], [460, 0, 0]]
    }, 
    {
      "op": "Activation", 
      "name": "silu85_sigmoid0_fwd", 
      "attrs": {"act_type": "sigmoid"}, 
      "inputs": [[461, 0, 0]]
    }, 
    {
      "op": "elemwise_mul", 
      "name": "silu85__mul0", 
      "inputs": [[461, 0, 0], [462, 0, 0]]
    }, 
    {
      "op": "null", 
      "name": "conv173_weight", 
      "attrs": {
        "__dtype__": "0", 
        "__lr_mult__": "1.0", 
        "__shape__": "(256, 0, 3, 3)", 
        "__storage_type__": "0", 
        "__wd_mult__": "1.0"
      }, 
      "inputs": []
    }, 
    {
      "op": "null", 
      "name": "conv173_bias", 
      "attrs": {
        "__dtype__": "0", 
        "__init__": "zeros", 
        "__lr_mult__": "1.0", 
        "__shape__": "(256,)", 
        "__storage_type__": "0", 
        "__wd_mult__": "1.0"
      }, 
      "inputs": []
    }, 
    {
      "op": "Convolution", 
      "name": "conv173_fwd", 
      "attrs": {
        "dilate": "(1, 1)", 
        "kernel": "(3, 3)", 
        "layout": "NCHW", 
        "no_bias": "False", 
        "num_filter": "256", 
        "num_group": "1", 
        "pad": "(1, 1)", 
        "stride": "(1, 1)"
      }, 
      "inputs": [[463, 0, 0], [464, 0, 0], [465, 0, 0]]
    }, 
    {
      "op": "Activation", 
      "name": "silu86_sigmoid0_fwd", 
      "attrs": {"act_type": "sigmoid"}, 
      "inputs": [[466, 0, 0]]
    }, 
    {
      "op": "elemwise_mul", 
      "name": "silu86__mul0", 
      "inputs": [[466, 0, 0], [467, 0, 0]]
    }, 
    {
      "op": "null", 
      "name": "conv175_weight", 
      "attrs": {
        "__dtype__": "0", 
        "__lr_mult__": "1.0", 
        "__shape__": "(256, 0, 1, 1)", 
        "__storage_type__": "0", 
        "__wd_mult__": "1.0"
      }, 
      "inputs": []
    }, 
    {
      "op": "null", 
      "name": "conv175_bias", 
      "attrs": {
        "__dtype__": "0", 
        "__init__": "zeros", 
        "__lr_mult__": "1.0", 
        "__shape__": "(256,)", 
        "__storage_type__": "0", 
        "__wd_mult__": "1.0"
      }, 
      "inputs": []
    }, 
    {
      "op": "Convolution", 
      "name": "conv175_fwd", 
      "attrs": {
        "dilate": "(1, 1)", 
        "kernel": "(1, 1)", 
        "layout": "NCHW", 
        "no_bias": "False", 
        "num_filter": "256", 
        "num_group": "1", 
        "pad": "(0, 0)", 
        "stride": "(1, 1)"
      }, 
      "inputs": [[468, 0, 0], [469, 0, 0], [470, 0, 0]]
    }, 
    {
      "op": "Activation", 
      "name": "silu87_sigmoid0_fwd", 
      "attrs": {"act_type": "sigmoid"}, 
      "inputs": [[471, 0, 0]]
    }, 
    {
      "op": "elemwise_mul", 
      "name": "silu87__mul0", 
      "inputs": [[471, 0, 0], [472, 0, 0]]
    }, 
    {
      "op": "null", 
      "name": "conv177_weight", 
      "attrs": {
        "__dtype__": "0", 
        "__lr_mult__": "1.0", 
        "__shape__": "(256, 0, 3, 3)", 
        "__storage_type__": "0", 
        "__wd_mult__": "1.0"
      }, 
      "inputs": []
    }, 
    {
      "op": "null", 
      "name": "conv177_bias", 
      "attrs": {
        "__dtype__": "0", 
        "__init__": "zeros", 
        "__lr_mult__": "1.0", 
        "__shape__": "(256,)", 
        "__storage_type__": "0", 
        "__wd_mult__": "1.0"
      }, 
      "inputs": []
    }, 
    {
      "op": "Convolution", 
      "name": "conv177_fwd", 
      "attrs": {
        "dilate": "(1, 1)", 
        "kernel": "(3, 3)", 
        "layout": "NCHW", 
        "no_bias": "False", 
        "num_filter": "256", 
        "num_group": "1", 
        "pad": "(1, 1)", 
        "stride": "(1, 1)"
      }, 
      "inputs": [[473, 0, 0], [474, 0, 0], [475, 0, 0]]
    }, 
    {
      "op": "Activation", 
      "name": "silu88_sigmoid0_fwd", 
      "attrs": {"act_type": "sigmoid"}, 
      "inputs": [[476, 0, 0]]
    }, 
    {
      "op": "elemwise_mul", 
      "name": "silu88__mul0", 
      "inputs": [[476, 0, 0], [477, 0, 0]]
    }, 
    {
      "op": "null", 
      "name": "conv179_weight", 
      "attrs": {
        "__dtype__": "0", 
        "__lr_mult__": "1.0", 
        "__shape__": "(256, 0, 1, 1)", 
        "__storage_type__": "0", 
        "__wd_mult__": "1.0"
      }, 
      "inputs": []
    }, 
    {
      "op": "null", 
      "name": "conv179_bias", 
      "attrs": {
        "__dtype__": "0", 
        "__init__": "zeros", 
        "__lr_mult__": "1.0", 
        "__shape__": "(256,)", 
        "__storage_type__": "0", 
        "__wd_mult__": "1.0"
      }, 
      "inputs": []
    }, 
    {
      "op": "Convolution", 
      "name": "conv179_fwd", 
      "attrs": {
        "dilate": "(1, 1)", 
        "kernel": "(1, 1)", 
        "layout": "NCHW", 
        "no_bias": "False", 
        "num_filter": "256", 
        "num_group": "1", 
        "pad": "(0, 0)", 
        "stride": "(1, 1)"
      }, 
      "inputs": [[478, 0, 0], [479, 0, 0], [480, 0, 0]]
    }, 
    {
      "op": "Activation", 
      "name": "silu89_sigmoid0_fwd", 
      "attrs": {"act_type": "sigmoid"}, 
      "inputs": [[481, 0, 0]]
    }, 
    {
      "op": "elemwise_mul", 
      "name": "silu89__mul0", 
      "inputs": [[481, 0, 0], [482, 0, 0]]
    }, 
    {
      "op": "null", 
      "name": "conv181_weight", 
      "attrs": {
        "__dtype__": "0", 
        "__lr_mult__": "1.0", 
        "__shape__": "(256, 0, 3, 3)", 
        "__storage_type__": "0", 
        "__wd_mult__": "1.0"
      }, 
      "inputs": []
    }, 
    {
      "op": "null", 
      "name": "conv181_bias", 
      "attrs": {
        "__dtype__": "0", 
        "__init__": "zeros", 
        "__lr_mult__": "1.0", 
        "__shape__": "(256,)", 
        "__storage_type__": "0", 
        "__wd_mult__": "1.0"
      }, 
      "inputs": []
    }, 
    {
      "op": "Convolution", 
      "name": "conv181_fwd", 
      "attrs": {
        "dilate": "(1, 1)", 
        "kernel": "(3, 3)", 
        "layout": "NCHW", 
        "no_bias": "False", 
        "num_filter": "256", 
        "num_group": "1", 
        "pad": "(1, 1)", 
        "stride": "(1, 1)"
      }, 
      "inputs": [[483, 0, 0], [484, 0, 0], [485, 0, 0]]
    }, 
    {
      "op": "Activation", 
      "name": "silu90_sigmoid0_fwd", 
      "attrs": {"act_type": "sigmoid"}, 
      "inputs": [[486, 0, 0]]
    }, 
    {
      "op": "elemwise_mul", 
      "name": "silu90__mul0", 
      "inputs": [[486, 0, 0], [487, 0, 0]]
    }, 
    {
      "op": "null", 
      "name": "conv167_weight", 
      "attrs": {
        "__dtype__": "0", 
        "__lr_mult__": "1.0", 
        "__shape__": "(256, 0, 1, 1)", 
        "__storage_type__": "0", 
        "__wd_mult__": "1.0"
      }, 
      "inputs": []
    }, 
    {
      "op": "null", 
      "name": "conv167_bias", 
      "attrs": {
        "__dtype__": "0", 
        "__init__": "zeros", 
        "__lr_mult__": "1.0", 
        "__shape__": "(256,)", 
        "__storage_type__": "0", 
        "__wd_mult__": "1.0"
      }, 
      "inputs": []
    }, 
    {
      "op": "Convolution", 
      "name": "conv167_fwd", 
      "attrs": {
        "dilate": "(1, 1)", 
        "kernel": "(1, 1)", 
        "layout": "NCHW", 
        "no_bias": "False", 
        "num_filter": "256", 
        "num_group": "1", 
        "pad": "(0, 0)", 
        "stride": "(1, 1)"
      }, 
      "inputs": [[453, 0, 0], [489, 0, 0], [490, 0, 0]]
    }, 
    {
      "op": "Activation", 
      "name": "silu83_sigmoid0_fwd", 
      "attrs": {"act_type": "sigmoid"}, 
      "inputs": [[491, 0, 0]]
    }, 
    {
      "op": "elemwise_mul", 
      "name": "silu83__mul0", 
      "inputs": [[491, 0, 0], [492, 0, 0]]
    }, 
    {
      "op": "Concat", 
      "name": "c3_rep34_concat0", 
      "attrs": {
        "dim": "1", 
        "num_args": "2"
      }, 
      "inputs": [[488, 0, 0], [493, 0, 0]]
    }, 
    {
      "op": "null", 
      "name": "conv169_weight", 
      "attrs": {
        "__dtype__": "0", 
        "__lr_mult__": "1.0", 
        "__shape__": "(512, 0, 1, 1)", 
        "__storage_type__": "0", 
        "__wd_mult__": "1.0"
      }, 
      "inputs": []
    }, 
    {
      "op": "null", 
      "name": "conv169_bias", 
      "attrs": {
        "__dtype__": "0", 
        "__init__": "zeros", 
        "__lr_mult__": "1.0", 
        "__shape__": "(512,)", 
        "__storage_type__": "0", 
        "__wd_mult__": "1.0"
      }, 
      "inputs": []
    }, 
    {
      "op": "Convolution", 
      "name": "conv169_fwd", 
      "attrs": {
        "dilate": "(1, 1)", 
        "kernel": "(1, 1)", 
        "layout": "NCHW", 
        "no_bias": "False", 
        "num_filter": "512", 
        "num_group": "1", 
        "pad": "(0, 0)", 
        "stride": "(1, 1)"
      }, 
      "inputs": [[494, 0, 0], [495, 0, 0], [496, 0, 0]]
    }, 
    {
      "op": "Activation", 
      "name": "silu84_sigmoid0_fwd", 
      "attrs": {"act_type": "sigmoid"}, 
      "inputs": [[497, 0, 0]]
    }, 
    {
      "op": "elemwise_mul", 
      "name": "silu84__mul0", 
      "inputs": [[497, 0, 0], [498, 0, 0]]
    }, 
    {
      "op": "null", 
      "name": "conv203_weight", 
      "attrs": {
        "__dtype__": "0", 
        "__lr_mult__": "1.0", 
        "__shape__": "(255, 0, 1, 1)", 
        "__storage_type__": "0", 
        "__wd_mult__": "1.0"
      }, 
      "inputs": []
    }, 
    {
      "op": "null", 
      "name": "conv203_bias", 
      "attrs": {
        "__dtype__": "0", 
        "__init__": "zeros", 
        "__lr_mult__": "1.0", 
        "__shape__": "(255,)", 
        "__storage_type__": "0", 
        "__wd_mult__": "1.0"
      }, 
      "inputs": []
    }, 
    {
      "op": "Convolution", 
      "name": "conv203_fwd", 
      "attrs": {
        "dilate": "(1, 1)", 
        "kernel": "(1, 1)", 
        "layout": "NCHW", 
        "no_bias": "False", 
        "num_filter": "255", 
        "num_group": "1", 
        "pad": "(0, 0)", 
        "stride": "(1, 1)"
      }, 
      "inputs": [[499, 0, 0], [500, 0, 0], [501, 0, 0]]
    }, 
    {
      "op": "Reshape", 
      "name": "detect0_reshape1", 
      "attrs": {"shape": "(1, 3, 85, 40, 40)"}, 
      "inputs": [[502, 0, 0]]
    }, 
    {
      "op": "transpose", 
      "name": "detect0_transpose1", 
      "attrs": {"axes": "(0, 1, 3, 4, 2)"}, 
      "inputs": [[503, 0, 0]]
    }, 
    {
      "op": "null", 
      "name": "conv183_weight", 
      "attrs": {
        "__dtype__": "0", 
        "__lr_mult__": "1.0", 
        "__shape__": "(512, 0, 3, 3)", 
        "__storage_type__": "0", 
        "__wd_mult__": "1.0"
      }, 
      "inputs": []
    }, 
    {
      "op": "null", 
      "name": "conv183_bias", 
      "attrs": {
        "__dtype__": "0", 
        "__init__": "zeros", 
        "__lr_mult__": "1.0", 
        "__shape__": "(512,)", 
        "__storage_type__": "0", 
        "__wd_mult__": "1.0"
      }, 
      "inputs": []
    }, 
    {
      "op": "Convolution", 
      "name": "conv183_fwd", 
      "attrs": {
        "dilate": "(1, 1)", 
        "kernel": "(3, 3)", 
        "layout": "NCHW", 
        "no_bias": "False", 
        "num_filter": "512", 
        "num_group": "1", 
        "pad": "(1, 1)", 
        "stride": "(2, 2)"
      }, 
      "inputs": [[499, 0, 0], [505, 0, 0], [506, 0, 0]]
    }, 
    {
      "op": "Activation", 
      "name": "silu91_sigmoid0_fwd", 
      "attrs": {"act_type": "sigmoid"}, 
      "inputs": [[507, 0, 0]]
    }, 
    {
      "op": "elemwise_mul", 
      "name": "silu91__mul0", 
      "inputs": [[507, 0, 0], [508, 0, 0]]
    }, 
    {
      "op": "Concat", 
      "name": "cat3_concat0", 
      "attrs": {
        "dim": "1", 
        "num_args": "2"
      }, 
      "inputs": [[509, 0, 0], [339, 0, 0]]
    }, 
    {
      "op": "null", 
      "name": "conv185_weight", 
      "attrs": {
        "__dtype__": "0", 
        "__lr_mult__": "1.0", 
        "__shape__": "(512, 0, 1, 1)", 
        "__storage_type__": "0", 
        "__wd_mult__": "1.0"
      }, 
      "inputs": []
    }, 
    {
      "op": "null", 
      "name": "conv185_bias", 
      "attrs": {
        "__dtype__": "0", 
        "__init__": "zeros", 
        "__lr_mult__": "1.0", 
        "__shape__": "(512,)", 
        "__storage_type__": "0", 
        "__wd_mult__": "1.0"
      }, 
      "inputs": []
    }, 
    {
      "op": "Convolution", 
      "name": "conv185_fwd", 
      "attrs": {
        "dilate": "(1, 1)", 
        "kernel": "(1, 1)", 
        "layout": "NCHW", 
        "no_bias": "False", 
        "num_filter": "512", 
        "num_group": "1", 
        "pad": "(0, 0)", 
        "stride": "(1, 1)"
      }, 
      "inputs": [[510, 0, 0], [511, 0, 0], [512, 0, 0]]
    }, 
    {
      "op": "Activation", 
      "name": "silu92_sigmoid0_fwd", 
      "attrs": {"act_type": "sigmoid"}, 
      "inputs": [[513, 0, 0]]
    }, 
    {
      "op": "elemwise_mul", 
      "name": "silu92__mul0", 
      "inputs": [[513, 0, 0], [514, 0, 0]]
    }, 
    {
      "op": "null", 
      "name": "conv191_weight", 
      "attrs": {
        "__dtype__": "0", 
        "__lr_mult__": "1.0", 
        "__shape__": "(512, 0, 1, 1)", 
        "__storage_type__": "0", 
        "__wd_mult__": "1.0"
      }, 
      "inputs": []
    }, 
    {
      "op": "null", 
      "name": "conv191_bias", 
      "attrs": {
        "__dtype__": "0", 
        "__init__": "zeros", 
        "__lr_mult__": "1.0", 
        "__shape__": "(512,)", 
        "__storage_type__": "0", 
        "__wd_mult__": "1.0"
      }, 
      "inputs": []
    }, 
    {
      "op": "Convolution", 
      "name": "conv191_fwd", 
      "attrs": {
        "dilate": "(1, 1)", 
        "kernel": "(1, 1)", 
        "layout": "NCHW", 
        "no_bias": "False", 
        "num_filter": "512", 
        "num_group": "1", 
        "pad": "(0, 0)", 
        "stride": "(1, 1)"
      }, 
      "inputs": [[515, 0, 0], [516, 0, 0], [517, 0, 0]]
    }, 
    {
      "op": "Activation", 
      "name": "silu95_sigmoid0_fwd", 
      "attrs": {"act_type": "sigmoid"}, 
      "inputs": [[518, 0, 0]]
    }, 
    {
      "op": "elemwise_mul", 
      "name": "silu95__mul0", 
      "inputs": [[518, 0, 0], [519, 0, 0]]
    }, 
    {
      "op": "null", 
      "name": "conv193_weight", 
      "attrs": {
        "__dtype__": "0", 
        "__lr_mult__": "1.0", 
        "__shape__": "(512, 0, 3, 3)", 
        "__storage_type__": "0", 
        "__wd_mult__": "1.0"
      }, 
      "inputs": []
    }, 
    {
      "op": "null", 
      "name": "conv193_bias", 
      "attrs": {
        "__dtype__": "0", 
        "__init__": "zeros", 
        "__lr_mult__": "1.0", 
        "__shape__": "(512,)", 
        "__storage_type__": "0", 
        "__wd_mult__": "1.0"
      }, 
      "inputs": []
    }, 
    {
      "op": "Convolution", 
      "name": "conv193_fwd", 
      "attrs": {
        "dilate": "(1, 1)", 
        "kernel": "(3, 3)", 
        "layout": "NCHW", 
        "no_bias": "False", 
        "num_filter": "512", 
        "num_group": "1", 
        "pad": "(1, 1)", 
        "stride": "(1, 1)"
      }, 
      "inputs": [[520, 0, 0], [521, 0, 0], [522, 0, 0]]
    }, 
    {
      "op": "Activation", 
      "name": "silu96_sigmoid0_fwd", 
      "attrs": {"act_type": "sigmoid"}, 
      "inputs": [[523, 0, 0]]
    }, 
    {
      "op": "elemwise_mul", 
      "name": "silu96__mul0", 
      "inputs": [[523, 0, 0], [524, 0, 0]]
    }, 
    {
      "op": "null", 
      "name": "conv195_weight", 
      "attrs": {
        "__dtype__": "0", 
        "__lr_mult__": "1.0", 
        "__shape__": "(512, 0, 1, 1)", 
        "__storage_type__": "0", 
        "__wd_mult__": "1.0"
      }, 
      "inputs": []
    }, 
    {
      "op": "null", 
      "name": "conv195_bias", 
      "attrs": {
        "__dtype__": "0", 
        "__init__": "zeros", 
        "__lr_mult__": "1.0", 
        "__shape__": "(512,)", 
        "__storage_type__": "0", 
        "__wd_mult__": "1.0"
      }, 
      "inputs": []
    }, 
    {
      "op": "Convolution", 
      "name": "conv195_fwd", 
      "attrs": {
        "dilate": "(1, 1)", 
        "kernel": "(1, 1)", 
        "layout": "NCHW", 
        "no_bias": "False", 
        "num_filter": "512", 
        "num_group": "1", 
        "pad": "(0, 0)", 
        "stride": "(1, 1)"
      }, 
      "inputs": [[525, 0, 0], [526, 0, 0], [527, 0, 0]]
    }, 
    {
      "op": "Activation", 
      "name": "silu97_sigmoid0_fwd", 
      "attrs": {"act_type": "sigmoid"}, 
      "inputs": [[528, 0, 0]]
    }, 
    {
      "op": "elemwise_mul", 
      "name": "silu97__mul0", 
      "inputs": [[528, 0, 0], [529, 0, 0]]
    }, 
    {
      "op": "null", 
      "name": "conv197_weight", 
      "attrs": {
        "__dtype__": "0", 
        "__lr_mult__": "1.0", 
        "__shape__": "(512, 0, 3, 3)", 
        "__storage_type__": "0", 
        "__wd_mult__": "1.0"
      }, 
      "inputs": []
    }, 
    {
      "op": "null", 
      "name": "conv197_bias", 
      "attrs": {
        "__dtype__": "0", 
        "__init__": "zeros", 
        "__lr_mult__": "1.0", 
        "__shape__": "(512,)", 
        "__storage_type__": "0", 
        "__wd_mult__": "1.0"
      }, 
      "inputs": []
    }, 
    {
      "op": "Convolution", 
      "name": "conv197_fwd", 
      "attrs": {
        "dilate": "(1, 1)", 
        "kernel": "(3, 3)", 
        "layout": "NCHW", 
        "no_bias": "False", 
        "num_filter": "512", 
        "num_group": "1", 
        "pad": "(1, 1)", 
        "stride": "(1, 1)"
      }, 
      "inputs": [[530, 0, 0], [531, 0, 0], [532, 0, 0]]
    }, 
    {
      "op": "Activation", 
      "name": "silu98_sigmoid0_fwd", 
      "attrs": {"act_type": "sigmoid"}, 
      "inputs": [[533, 0, 0]]
    }, 
    {
      "op": "elemwise_mul", 
      "name": "silu98__mul0", 
      "inputs": [[533, 0, 0], [534, 0, 0]]
    }, 
    {
      "op": "null", 
      "name": "conv199_weight", 
      "attrs": {
        "__dtype__": "0", 
        "__lr_mult__": "1.0", 
        "__shape__": "(512, 0, 1, 1)", 
        "__storage_type__": "0", 
        "__wd_mult__": "1.0"
      }, 
      "inputs": []
    }, 
    {
      "op": "null", 
      "name": "conv199_bias", 
      "attrs": {
        "__dtype__": "0", 
        "__init__": "zeros", 
        "__lr_mult__": "1.0", 
        "__shape__": "(512,)", 
        "__storage_type__": "0", 
        "__wd_mult__": "1.0"
      }, 
      "inputs": []
    }, 
    {
      "op": "Convolution", 
      "name": "conv199_fwd", 
      "attrs": {
        "dilate": "(1, 1)", 
        "kernel": "(1, 1)", 
        "layout": "NCHW", 
        "no_bias": "False", 
        "num_filter": "512", 
        "num_group": "1", 
        "pad": "(0, 0)", 
        "stride": "(1, 1)"
      }, 
      "inputs": [[535, 0, 0], [536, 0, 0], [537, 0, 0]]
    }, 
    {
      "op": "Activation", 
      "name": "silu99_sigmoid0_fwd", 
      "attrs": {"act_type": "sigmoid"}, 
      "inputs": [[538, 0, 0]]
    }, 
    {
      "op": "elemwise_mul", 
      "name": "silu99__mul0", 
      "inputs": [[538, 0, 0], [539, 0, 0]]
    }, 
    {
      "op": "null", 
      "name": "conv201_weight", 
      "attrs": {
        "__dtype__": "0", 
        "__lr_mult__": "1.0", 
        "__shape__": "(512, 0, 3, 3)", 
        "__storage_type__": "0", 
        "__wd_mult__": "1.0"
      }, 
      "inputs": []
    }, 
    {
      "op": "null", 
      "name": "conv201_bias", 
      "attrs": {
        "__dtype__": "0", 
        "__init__": "zeros", 
        "__lr_mult__": "1.0", 
        "__shape__": "(512,)", 
        "__storage_type__": "0", 
        "__wd_mult__": "1.0"
      }, 
      "inputs": []
    }, 
    {
      "op": "Convolution", 
      "name": "conv201_fwd", 
      "attrs": {
        "dilate": "(1, 1)", 
        "kernel": "(3, 3)", 
        "layout": "NCHW", 
        "no_bias": "False", 
        "num_filter": "512", 
        "num_group": "1", 
        "pad": "(1, 1)", 
        "stride": "(1, 1)"
      }, 
      "inputs": [[540, 0, 0], [541, 0, 0], [542, 0, 0]]
    }, 
    {
      "op": "Activation", 
      "name": "silu100_sigmoid0_fwd", 
      "attrs": {"act_type": "sigmoid"}, 
      "inputs": [[543, 0, 0]]
    }, 
    {
      "op": "elemwise_mul", 
      "name": "silu100__mul0", 
      "inputs": [[543, 0, 0], [544, 0, 0]]
    }, 
    {
      "op": "null", 
      "name": "conv187_weight", 
      "attrs": {
        "__dtype__": "0", 
        "__lr_mult__": "1.0", 
        "__shape__": "(512, 0, 1, 1)", 
        "__storage_type__": "0", 
        "__wd_mult__": "1.0"
      }, 
      "inputs": []
    }, 
    {
      "op": "null", 
      "name": "conv187_bias", 
      "attrs": {
        "__dtype__": "0", 
        "__init__": "zeros", 
        "__lr_mult__": "1.0", 
        "__shape__": "(512,)", 
        "__storage_type__": "0", 
        "__wd_mult__": "1.0"
      }, 
      "inputs": []
    }, 
    {
      "op": "Convolution", 
      "name": "conv187_fwd", 
      "attrs": {
        "dilate": "(1, 1)", 
        "kernel": "(1, 1)", 
        "layout": "NCHW", 
        "no_bias": "False", 
        "num_filter": "512", 
        "num_group": "1", 
        "pad": "(0, 0)", 
        "stride": "(1, 1)"
      }, 
      "inputs": [[510, 0, 0], [546, 0, 0], [547, 0, 0]]
    }, 
    {
      "op": "Activation", 
      "name": "silu93_sigmoid0_fwd", 
      "attrs": {"act_type": "sigmoid"}, 
      "inputs": [[548, 0, 0]]
    }, 
    {
      "op": "elemwise_mul", 
      "name": "silu93__mul0", 
      "inputs": [[548, 0, 0], [549, 0, 0]]
    }, 
    {
      "op": "Concat", 
      "name": "c3_rep35_concat0", 
      "attrs": {
        "dim": "1", 
        "num_args": "2"
      }, 
      "inputs": [[545, 0, 0], [550, 0, 0]]
    }, 
    {
      "op": "null", 
      "name": "conv189_weight", 
      "attrs": {
        "__dtype__": "0", 
        "__lr_mult__": "1.0", 
        "__shape__": "(1024, 0, 1, 1)", 
        "__storage_type__": "0", 
        "__wd_mult__": "1.0"
      }, 
      "inputs": []
    }, 
    {
      "op": "null", 
      "name": "conv189_bias", 
      "attrs": {
        "__dtype__": "0", 
        "__init__": "zeros", 
        "__lr_mult__": "1.0", 
        "__shape__": "(1024,)", 
        "__storage_type__": "0", 
        "__wd_mult__": "1.0"
      }, 
      "inputs": []
    }, 
    {
      "op": "Convolution", 
      "name": "conv189_fwd", 
      "attrs": {
        "dilate": "(1, 1)", 
        "kernel": "(1, 1)", 
        "layout": "NCHW", 
        "no_bias": "False", 
        "num_filter": "1024", 
        "num_group": "1", 
        "pad": "(0, 0)", 
        "stride": "(1, 1)"
      }, 
      "inputs": [[551, 0, 0], [552, 0, 0], [553, 0, 0]]
    }, 
    {
      "op": "Activation", 
      "name": "silu94_sigmoid0_fwd", 
      "attrs": {"act_type": "sigmoid"}, 
      "inputs": [[554, 0, 0]]
    }, 
    {
      "op": "elemwise_mul", 
      "name": "silu94__mul0", 
      "inputs": [[554, 0, 0], [555, 0, 0]]
    }, 
    {
      "op": "null", 
      "name": "conv204_weight", 
      "attrs": {
        "__dtype__": "0", 
        "__lr_mult__": "1.0", 
        "__shape__": "(255, 0, 1, 1)", 
        "__storage_type__": "0", 
        "__wd_mult__": "1.0"
      }, 
      "inputs": []
    }, 
    {
      "op": "null", 
      "name": "conv204_bias", 
      "attrs": {
        "__dtype__": "0", 
        "__init__": "zeros", 
        "__lr_mult__": "1.0", 
        "__shape__": "(255,)", 
        "__storage_type__": "0", 
        "__wd_mult__": "1.0"
      }, 
      "inputs": []
    }, 
    {
      "op": "Convolution", 
      "name": "conv204_fwd", 
      "attrs": {
        "dilate": "(1, 1)", 
        "kernel": "(1, 1)", 
        "layout": "NCHW", 
        "no_bias": "False", 
        "num_filter": "255", 
        "num_group": "1", 
        "pad": "(0, 0)", 
        "stride": "(1, 1)"
      }, 
      "inputs": [[556, 0, 0], [557, 0, 0], [558, 0, 0]]
    }, 
    {
      "op": "Reshape", 
      "name": "detect0_reshape2", 
      "attrs": {"shape": "(1, 3, 85, 20, 20)"}, 
      "inputs": [[559, 0, 0]]
    }, 
    {
      "op": "transpose", 
      "name": "detect0_transpose2", 
      "attrs": {"axes": "(0, 1, 3, 4, 2)"}, 
      "inputs": [[560, 0, 0]]
    }
  ], 
  "arg_nodes": [
    0, 
    1, 
    2, 
    6, 
    7, 
    11, 
    12, 
    16, 
    17, 
    21, 
    22, 
    27, 
    28, 
    32, 
    33, 
    38, 
    39, 
    43, 
    44, 
    49, 
    50, 
    55, 
    56, 
    60, 
    61, 
    65, 
    66, 
    70, 
    71, 
    75, 
    76, 
    81, 
    82, 
    86, 
    87, 
    92, 
    93, 
    97, 
    98, 
    103, 
    104, 
    108, 
    109, 
    114, 
    115, 
    119, 
    120, 
    125, 
    126, 
    130, 
    131, 
    136, 
    137, 
    142, 
    143, 
    147, 
    148, 
    152, 
    153, 
    157, 
    158, 
    162, 
    163, 
    168, 
    169, 
    173, 
    174, 
    179, 
    180, 
    184, 
    185, 
    190, 
    191, 
    195, 
    196, 
    201, 
    202, 
    206, 
    207, 
    212, 
    213, 
    217, 
    218, 
    223, 
    224, 
    228, 
    229, 
    234, 
    235, 
    239, 
    240, 
    245, 
    246, 
    250, 
    251, 
    256, 
    257, 
    262, 
    263, 
    267, 
    268, 
    272, 
    273, 
    277, 
    278, 
    282, 
    283, 
    288, 
    289, 
    293, 
    294, 
    299, 
    300, 
    304, 
    305, 
    310, 
    311, 
    316, 
    317, 
    321, 
    322, 
    330, 
    331, 
    335, 
    336, 
    343, 
    344, 
    348, 
    349, 
    353, 
    354, 
    358, 
    359, 
    363, 
    364, 
    368, 
    369, 
    373, 
    374, 
    378, 
    379, 
    384, 
    385, 
    389, 
    390, 
    397, 
    398, 
    402, 
    403, 
    407, 
    408, 
    412, 
    413, 
    417, 
    418, 
    422, 
    423, 
    427, 
    428, 
    432, 
    433, 
    438, 
    439, 
    443, 
    444, 
    448, 
    449, 
    454, 
    455, 
    459, 
    460, 
    464, 
    465, 
    469, 
    470, 
    474, 
    475, 
    479, 
    480, 
    484, 
    485, 
    489, 
    490, 
    495, 
    496, 
    500, 
    501, 
    505, 
    506, 
    511, 
    512, 
    516, 
    517, 
    521, 
    522, 
    526, 
    527, 
    531, 
    532, 
    536, 
    537, 
    541, 
    542, 
    546, 
    547, 
    552, 
    553, 
    557, 
    558
  ], 
  "node_row_ptr": [
    0, 
    1, 
    2, 
    3, 
    4, 
    5, 
    6, 
    7, 
    8, 
    9, 
    10, 
    11, 
    12, 
    13, 
    14, 
    15, 
    16, 
    17, 
    18, 
    19, 
    20, 
    21, 
    22, 
    23, 
    24, 
    25, 
    26, 
    27, 
    28, 
    29, 
    30, 
    31, 
    32, 
    33, 
    34, 
    35, 
    36, 
    37, 
    38, 
    39, 
    40, 
    41, 
    42, 
    43, 
    44, 
    45, 
    46, 
    47, 
    48, 
    49, 
    50, 
    51, 
    52, 
    53, 
    54, 
    55, 
    56, 
    57, 
    58, 
    59, 
    60, 
    61, 
    62, 
    63, 
    64, 
    65, 
    66, 
    67, 
    68, 
    69, 
    70, 
    71, 
    72, 
    73, 
    74, 
    75, 
    76, 
    77, 
    78, 
    79, 
    80, 
    81, 
    82, 
    83, 
    84, 
    85, 
    86, 
    87, 
    88, 
    89, 
    90, 
    91, 
    92, 
    93, 
    94, 
    95, 
    96, 
    97, 
    98, 
    99, 
    100, 
    101, 
    102, 
    103, 
    104, 
    105, 
    106, 
    107, 
    108, 
    109, 
    110, 
    111, 
    112, 
    113, 
    114, 
    115, 
    116, 
    117, 
    118, 
    119, 
    120, 
    121, 
    122, 
    123, 
    124, 
    125, 
    126, 
    127, 
    128, 
    129, 
    130, 
    131, 
    132, 
    133, 
    134, 
    135, 
    136, 
    137, 
    138, 
    139, 
    140, 
    141, 
    142, 
    143, 
    144, 
    145, 
    146, 
    147, 
    148, 
    149, 
    150, 
    151, 
    152, 
    153, 
    154, 
    155, 
    156, 
    157, 
    158, 
    159, 
    160, 
    161, 
    162, 
    163, 
    164, 
    165, 
    166, 
    167, 
    168, 
    169, 
    170, 
    171, 
    172, 
    173, 
    174, 
    175, 
    176, 
    177, 
    178, 
    179, 
    180, 
    181, 
    182, 
    183, 
    184, 
    185, 
    186, 
    187, 
    188, 
    189, 
    190, 
    191, 
    192, 
    193, 
    194, 
    195, 
    196, 
    197, 
    198, 
    199, 
    200, 
    201, 
    202, 
    203, 
    204, 
    205, 
    206, 
    207, 
    208, 
    209, 
    210, 
    211, 
    212, 
    213, 
    214, 
    215, 
    216, 
    217, 
    218, 
    219, 
    220, 
    221, 
    222, 
    223, 
    224, 
    225, 
    226, 
    227, 
    228, 
    229, 
    230, 
    231, 
    232, 
    233, 
    234, 
    235, 
    236, 
    237, 
    238, 
    239, 
    240, 
    241, 
    242, 
    243, 
    244, 
    245, 
    246, 
    247, 
    248, 
    249, 
    250, 
    251, 
    252, 
    253, 
    254, 
    255, 
    256, 
    257, 
    258, 
    259, 
    260, 
    261, 
    262, 
    263, 
    264, 
    265, 
    266, 
    267, 
    268, 
    269, 
    270, 
    271, 
    272, 
    273, 
    274, 
    275, 
    276, 
    277, 
    278, 
    279, 
    280, 
    281, 
    282, 
    283, 
    284, 
    285, 
    286, 
    287, 
    288, 
    289, 
    290, 
    291, 
    292, 
    293, 
    294, 
    295, 
    296, 
    297, 
    298, 
    299, 
    300, 
    301, 
    302, 
    303, 
    304, 
    305, 
    306, 
    307, 
    308, 
    309, 
    310, 
    311, 
    312, 
    313, 
    314, 
    315, 
    316, 
    317, 
    318, 
    319, 
    320, 
    321, 
    322, 
    323, 
    324, 
    325, 
    326, 
    328, 
    330, 
    332, 
    333, 
    334, 
    335, 
    336, 
    337, 
    338, 
    339, 
    340, 
    341, 
    342, 
    343, 
    344, 
    345, 
    346, 
    347, 
    348, 
    349, 
    350, 
    351, 
    352, 
    353, 
    354, 
    355, 
    356, 
    357, 
    358, 
    359, 
    360, 
    361, 
    362, 
    363, 
    364, 
    365, 
    366, 
    367, 
    368, 
    369, 
    370, 
    371, 
    372, 
    373, 
    374, 
    375, 
    376, 
    377, 
    378, 
    379, 
    380, 
    381, 
    382, 
    383, 
    384, 
    385, 
    386, 
    387, 
    388, 
    389, 
    390, 
    391, 
    392, 
    393, 
    394, 
    395, 
    396, 
    397, 
    398, 
    399, 
    400, 
    401, 
    402, 
    403, 
    404, 
    405, 
    406, 
    407, 
    408, 
    409, 
    410, 
    411, 
    412, 
    413, 
    414, 
    415, 
    416, 
    417, 
    418, 
    419, 
    420, 
    421, 
    422, 
    423, 
    424, 
    425, 
    426, 
    427, 
    428, 
    429, 
    430, 
    431, 
    432, 
    433, 
    434, 
    435, 
    436, 
    437, 
    438, 
    439, 
    440, 
    441, 
    442, 
    443, 
    444, 
    445, 
    446, 
    447, 
    448, 
    449, 
    450, 
    451, 
    452, 
    453, 
    454, 
    455, 
    456, 
    457, 
    458, 
    459, 
    460, 
    461, 
    462, 
    463, 
    464, 
    465, 
    466, 
    467, 
    468, 
    469, 
    470, 
    471, 
    472, 
    473, 
    474, 
    475, 
    476, 
    477, 
    478, 
    479, 
    480, 
    481, 
    482, 
    483, 
    484, 
    485, 
    486, 
    487, 
    488, 
    489, 
    490, 
    491, 
    492, 
    493, 
    494, 
    495, 
    496, 
    497, 
    498, 
    499, 
    500, 
    501, 
    502, 
    503, 
    504, 
    505, 
    506, 
    507, 
    508, 
    509, 
    510, 
    511, 
    512, 
    513, 
    514, 
    515, 
    516, 
    517, 
    518, 
    519, 
    520, 
    521, 
    522, 
    523, 
    524, 
    525, 
    526, 
    527, 
    528, 
    529, 
    530, 
    531, 
    532, 
    533, 
    534, 
    535, 
    536, 
    537, 
    538, 
    539, 
    540, 
    541, 
    542, 
    543, 
    544, 
    545, 
    546, 
    547, 
    548, 
    549, 
    550, 
    551, 
    552, 
    553, 
    554, 
    555, 
    556, 
    557, 
    558, 
    559, 
    560, 
    561, 
    562, 
    563, 
    564, 
    565
  ], 
  "heads": [[447, 0, 0], [504, 0, 0], [561, 0, 0]], 
  "attrs": {"mxnet_version": ["int", 10800]}
}