{
  "nodes": [
    {
      "op": "null", 
      "name": "data", 
      "inputs": []
    }, 
    {
      "op": "null", 
      "name": "conv1_weight", 
      "attrs": {
        "__dtype__": "0", 
        "__lr_mult__": "1.0", 
        "__shape__": "(48, 0, 6, 6)", 
        "__storage_type__": "0", 
        "__wd_mult__": "1.0"
      }, 
      "inputs": []
    }, 
    {
      "op": "null", 
      "name": "conv1_bias", 
      "attrs": {
        "__dtype__": "0", 
        "__init__": "zeros", 
        "__lr_mult__": "1.0", 
        "__shape__": "(48,)", 
        "__storage_type__": "0", 
        "__wd_mult__": "1.0"
      }, 
      "inputs": []
    }, 
    {
      "op": "Convolution", 
      "name": "conv1_fwd", 
      "attrs": {
        "dilate": "(1, 1)", 
        "kernel": "(6, 6)", 
        "layout": "NCHW", 
        "no_bias": "False", 
        "num_filter": "48", 
        "num_group": "1", 
        "pad": "(2, 2)", 
        "stride": "(2, 2)"
      }, 
      "inputs": [[0, 0, 0], [1, 0, 0], [2, 0, 0]]
    }, 
    {
      "op": "Activation", 
      "name": "silu0_sigmoid0_fwd", 
      "attrs": {"act_type": "sigmoid"}, 
      "inputs": [[3, 0, 0]]
    }, 
    {
      "op": "elemwise_mul", 
      "name": "silu0__mul0", 
      "inputs": [[3, 0, 0], [4, 0, 0]]
    }, 
    {
      "op": "null", 
      "name": "conv3_weight", 
      "attrs": {
        "__dtype__": "0", 
        "__lr_mult__": "1.0", 
        "__shape__": "(96, 0, 3, 3)", 
        "__storage_type__": "0", 
        "__wd_mult__": "1.0"
      }, 
      "inputs": []
    }, 
    {
      "op": "null", 
      "name": "conv3_bias", 
      "attrs": {
        "__dtype__": "0", 
        "__init__": "zeros", 
        "__lr_mult__": "1.0", 
        "__shape__": "(96,)", 
        "__storage_type__": "0", 
        "__wd_mult__": "1.0"
      }, 
      "inputs": []
    }, 
    {
      "op": "Convolution", 
      "name": "conv3_fwd", 
      "attrs": {
        "dilate": "(1, 1)", 
        "kernel": "(3, 3)", 
        "layout": "NCHW", 
        "no_bias": "False", 
        "num_filter": "96", 
        "num_group": "1", 
        "pad": "(1, 1)", 
        "stride": "(2, 2)"
      }, 
      "inputs": [[5, 0, 0], [6, 0, 0], [7, 0, 0]]
    }, 
    {
      "op": "Activation", 
      "name": "silu1_sigmoid0_fwd", 
      "attrs": {"act_type": "sigmoid"}, 
      "inputs": [[8, 0, 0]]
    }, 
    {
      "op": "elemwise_mul", 
      "name": "silu1__mul0", 
      "inputs": [[8, 0, 0], [9, 0, 0]]
    }, 
    {
      "op": "null", 
      "name": "conv5_weight", 
      "attrs": {
        "__dtype__": "0", 
        "__lr_mult__": "1.0", 
        "__shape__": "(48, 0, 1, 1)", 
        "__storage_type__": "0", 
        "__wd_mult__": "1.0"
      }, 
      "inputs": []
    }, 
    {
      "op": "null", 
      "name": "conv5_bias", 
      "attrs": {
        "__dtype__": "0", 
        "__init__": "zeros", 
        "__lr_mult__": "1.0", 
        "__shape__": "(48,)", 
        "__storage_type__": "0", 
        "__wd_mult__": "1.0"
      }, 
      "inputs": []
    }, 
    {
      "op": "Convolution", 
      "name": "conv5_fwd", 
      "attrs": {
        "dilate": "(1, 1)", 
        "kernel": "(1, 1)", 
        "layout": "NCHW", 
        "no_bias": "False", 
        "num_filter": "48", 
        "num_group": "1", 
        "pad": "(0, 0)", 
        "stride": "(1, 1)"
      }, 
      "inputs": [[10, 0, 0], [11, 0, 0], [12, 0, 0]]
    }, 
    {
      "op": "Activation", 
      "name": "silu2_sigmoid0_fwd", 
      "attrs": {"act_type": "sigmoid"}, 
      "inputs": [[13, 0, 0]]
    }, 
    {
      "op": "elemwise_mul", 
      "name": "silu2__mul0", 
      "inputs": [[13, 0, 0], [14, 0, 0]]
    }, 
    {
      "op": "null", 
      "name": "conv11_weight", 
      "attrs": {
        "__dtype__": "0", 
        "__lr_mult__": "1.0", 
        "__shape__": "(48, 0, 1, 1)", 
        "__storage_type__": "0", 
        "__wd_mult__": "1.0"
      }, 
      "inputs": []
    }, 
    {
      "op": "null", 
      "name": "conv11_bias", 
      "attrs": {
        "__dtype__": "0", 
        "__init__": "zeros", 
        "__lr_mult__": "1.0", 
        "__shape__": "(48,)", 
        "__storage_type__": "0", 
        "__wd_mult__": "1.0"
      }, 
      "inputs": []
    }, 
    {
      "op": "Convolution", 
      "name": "conv11_fwd", 
      "attrs": {
        "dilate": "(1, 1)", 
        "kernel": "(1, 1)", 
        "layout": "NCHW", 
        "no_bias": "False", 
        "num_filter": "48", 
        "num_group": "1", 
        "pad": "(0, 0)", 
        "stride": "(1, 1)"
      }, 
      "inputs": [[15, 0, 0], [16, 0, 0], [17, 0, 0]]
    }, 
    {
      "op": "Activation", 
      "name": "silu5_sigmoid0_fwd", 
      "attrs": {"act_type": "sigmoid"}, 
      "inputs": [[18, 0, 0]]
    }, 
    {
      "op": "elemwise_mul", 
      "name": "silu5__mul0", 
      "inputs": [[18, 0, 0], [19, 0, 0]]
    }, 
    {
      "op": "null", 
      "name": "conv13_weight", 
      "attrs": {
        "__dtype__": "0", 
        "__lr_mult__": "1.0", 
        "__shape__": "(48, 0, 3, 3)", 
        "__storage_type__": "0", 
        "__wd_mult__": "1.0"
      }, 
      "inputs": []
    }, 
    {
      "op": "null", 
      "name": "conv13_bias", 
      "attrs": {
        "__dtype__": "0", 
        "__init__": "zeros", 
        "__lr_mult__": "1.0", 
        "__shape__": "(48,)", 
        "__storage_type__": "0", 
        "__wd_mult__": "1.0"
      }, 
      "inputs": []
    }, 
    {
      "op": "Convolution", 
      "name": "conv13_fwd", 
      "attrs": {
        "dilate": "(1, 1)", 
        "kernel": "(3, 3)", 
        "layout": "NCHW", 
        "no_bias": "False", 
        "num_filter": "48", 
        "num_group": "1", 
        "pad": "(1, 1)", 
        "stride": "(1, 1)"
      }, 
      "inputs": [[20, 0, 0], [21, 0, 0], [22, 0, 0]]
    }, 
    {
      "op": "Activation", 
      "name": "silu6_sigmoid0_fwd", 
      "attrs": {"act_type": "sigmoid"}, 
      "inputs": [[23, 0, 0]]
    }, 
    {
      "op": "elemwise_mul", 
      "name": "silu6__mul0", 
      "inputs": [[23, 0, 0], [24, 0, 0]]
    }, 
    {
      "op": "elemwise_add", 
      "name": "bottle0__plus0", 
      "inputs": [[15, 0, 0], [25, 0, 0]]
    }, 
    {
      "op": "null", 
      "name": "conv15_weight", 
      "attrs": {
        "__dtype__": "0", 
        "__lr_mult__": "1.0", 
        "__shape__": "(48, 0, 1, 1)", 
        "__storage_type__": "0", 
        "__wd_mult__": "1.0"
      }, 
      "inputs": []
    }, 
    {
      "op": "null", 
      "name": "conv15_bias", 
      "attrs": {
        "__dtype__": "0", 
        "__init__": "zeros", 
        "__lr_mult__": "1.0", 
        "__shape__": "(48,)", 
        "__storage_type__": "0", 
        "__wd_mult__": "1.0"
      }, 
      "inputs": []
    }, 
    {
      "op": "Convolution", 
      "name": "conv15_fwd", 
      "attrs": {
        "dilate": "(1, 1)", 
        "kernel": "(1, 1)", 
        "layout": "NCHW", 
        "no_bias": "False", 
        "num_filter": "48", 
        "num_group": "1", 
        "pad": "(0, 0)", 
        "stride": "(1, 1)"
      }, 
      "inputs": [[26, 0, 0], [27, 0, 0], [28, 0, 0]]
    }, 
    {
      "op": "Activation", 
      "name": "silu7_sigmoid0_fwd", 
      "attrs": {"act_type": "sigmoid"}, 
      "inputs": [[29, 0, 0]]
    }, 
    {
      "op": "elemwise_mul", 
      "name": "silu7__mul0", 
      "inputs": [[29, 0, 0], [30, 0, 0]]
    }, 
    {
      "op": "null", 
      "name": "conv17_weight", 
      "attrs": {
        "__dtype__": "0", 
        "__lr_mult__": "1.0", 
        "__shape__": "(48, 0, 3, 3)", 
        "__storage_type__": "0", 
        "__wd_mult__": "1.0"
      }, 
      "inputs": []
    }, 
    {
      "op": "null", 
      "name": "conv17_bias", 
      "attrs": {
        "__dtype__": "0", 
        "__init__": "zeros", 
        "__lr_mult__": "1.0", 
        "__shape__": "(48,)", 
        "__storage_type__": "0", 
        "__wd_mult__": "1.0"
      }, 
      "inputs": []
    }, 
    {
      "op": "Convolution", 
      "name": "conv17_fwd", 
      "attrs": {
        "dilate": "(1, 1)", 
        "kernel": "(3, 3)", 
        "layout": "NCHW", 
        "no_bias": "False", 
        "num_filter": "48", 
        "num_group": "1", 
        "pad": "(1, 1)", 
        "stride": "(1, 1)"
      }, 
      "inputs": [[31, 0, 0], [32, 0, 0], [33, 0, 0]]
    }, 
    {
      "op": "Activation", 
      "name": "silu8_sigmoid0_fwd", 
      "attrs": {"act_type": "sigmoid"}, 
      "inputs": [[34, 0, 0]]
    }, 
    {
      "op": "elemwise_mul", 
      "name": "silu8__mul0", 
      "inputs": [[34, 0, 0], [35, 0, 0]]
    }, 
    {
      "op": "elemwise_add", 
      "name": "bottle1__plus0", 
      "inputs": [[26, 0, 0], [36, 0, 0]]
    }, 
    {
      "op": "null", 
      "name": "conv7_weight", 
      "attrs": {
        "__dtype__": "0", 
        "__lr_mult__": "1.0", 
        "__shape__": "(48, 0, 1, 1)", 
        "__storage_type__": "0", 
        "__wd_mult__": "1.0"
      }, 
      "inputs": []
    }, 
    {
      "op": "null", 
      "name": "conv7_bias", 
      "attrs": {
        "__dtype__": "0", 
        "__init__": "zeros", 
        "__lr_mult__": "1.0", 
        "__shape__": "(48,)", 
        "__storage_type__": "0", 
        "__wd_mult__": "1.0"
      }, 
      "inputs": []
    }, 
    {
      "op": "Convolution", 
      "name": "conv7_fwd", 
      "attrs": {
        "dilate": "(1, 1)", 
        "kernel": "(1, 1)", 
        "layout": "NCHW", 
        "no_bias": "False", 
        "num_filter": "48", 
        "num_group": "1", 
        "pad": "(0, 0)", 
        "stride": "(1, 1)"
      }, 
      "inputs": [[10, 0, 0], [38, 0, 0], [39, 0, 0]]
    }, 
    {
      "op": "Activation", 
      "name": "silu3_sigmoid0_fwd", 
      "attrs": {"act_type": "sigmoid"}, 
      "inputs": [[40, 0, 0]]
    }, 
    {
      "op": "elemwise_mul", 
      "name": "silu3__mul0", 
      "inputs": [[40, 0, 0], [41, 0, 0]]
    }, 
    {
      "op": "Concat", 
      "name": "c3_rep20_concat0", 
      "attrs": {
        "dim": "1", 
        "num_args": "2"
      }, 
      "inputs": [[37, 0, 0], [42, 0, 0]]
    }, 
    {
      "op": "null", 
      "name": "conv9_weight", 
      "attrs": {
        "__dtype__": "0", 
        "__lr_mult__": "1.0", 
        "__shape__": "(96, 0, 1, 1)", 
        "__storage_type__": "0", 
        "__wd_mult__": "1.0"
      }, 
      "inputs": []
    }, 
    {
      "op": "null", 
      "name": "conv9_bias", 
      "attrs": {
        "__dtype__": "0", 
        "__init__": "zeros", 
        "__lr_mult__": "1.0", 
        "__shape__": "(96,)", 
        "__storage_type__": "0", 
        "__wd_mult__": "1.0"
      }, 
      "inputs": []
    }, 
    {
      "op": "Convolution", 
      "name": "conv9_fwd", 
      "attrs": {
        "dilate": "(1, 1)", 
        "kernel": "(1, 1)", 
        "layout": "NCHW", 
        "no_bias": "False", 
        "num_filter": "96", 
        "num_group": "1", 
        "pad": "(0, 0)", 
        "stride": "(1, 1)"
      }, 
      "inputs": [[43, 0, 0], [44, 0, 0], [45, 0, 0]]
    }, 
    {
      "op": "Activation", 
      "name": "silu4_sigmoid0_fwd", 
      "attrs": {"act_type": "sigmoid"}, 
      "inputs": [[46, 0, 0]]
    }, 
    {
      "op": "elemwise_mul", 
      "name": "silu4__mul0", 
      "inputs": [[46, 0, 0], [47, 0, 0]]
    }, 
    {
      "op": "null", 
      "name": "conv19_weight", 
      "attrs": {
        "__dtype__": "0", 
        "__lr_mult__": "1.0", 
        "__shape__": "(192, 0, 3, 3)", 
        "__storage_type__": "0", 
        "__wd_mult__": "1.0"
      }, 
      "inputs": []
    }, 
    {
      "op": "null", 
      "name": "conv19_bias", 
      "attrs": {
        "__dtype__": "0", 
        "__init__": "zeros", 
        "__lr_mult__": "1.0", 
        "__shape__": "(192,)", 
        "__storage_type__": "0", 
        "__wd_mult__": "1.0"
      }, 
      "inputs": []
    }, 
    {
      "op": "Convolution", 
      "name": "conv19_fwd", 
      "attrs": {
        "dilate": "(1, 1)", 
        "kernel": "(3, 3)", 
        "layout": "NCHW", 
        "no_bias": "False", 
        "num_filter": "192", 
        "num_group": "1", 
        "pad": "(1, 1)", 
        "stride": "(2, 2)"
      }, 
      "inputs": [[48, 0, 0], [49, 0, 0], [50, 0, 0]]
    }, 
    {
      "op": "Activation", 
      "name": "silu9_sigmoid0_fwd", 
      "attrs": {"act_type": "sigmoid"}, 
      "inputs": [[51, 0, 0]]
    }, 
    {
      "op": "elemwise_mul", 
      "name": "silu9__mul0", 
      "inputs": [[51, 0, 0], [52, 0, 0]]
    }, 
    {
      "op": "null", 
      "name": "conv21_weight", 
      "attrs": {
        "__dtype__": "0", 
        "__lr_mult__": "1.0", 
        "__shape__": "(96, 0, 1, 1)", 
        "__storage_type__": "0", 
        "__wd_mult__": "1.0"
      }, 
      "inputs": []
    }, 
    {
      "op": "null", 
      "name": "conv21_bias", 
      "attrs": {
        "__dtype__": "0", 
        "__init__": "zeros", 
        "__lr_mult__": "1.0", 
        "__shape__": "(96,)", 
        "__storage_type__": "0", 
        "__wd_mult__": "1.0"
      }, 
      "inputs": []
    }, 
    {
      "op": "Convolution", 
      "name": "conv21_fwd", 
      "attrs": {
        "dilate": "(1, 1)", 
        "kernel": "(1, 1)", 
        "layout": "NCHW", 
        "no_bias": "False", 
        "num_filter": "96", 
        "num_group": "1", 
        "pad": "(0, 0)", 
        "stride": "(1, 1)"
      }, 
      "inputs": [[53, 0, 0], [54, 0, 0], [55, 0, 0]]
    }, 
    {
      "op": "Activation", 
      "name": "silu10_sigmoid0_fwd", 
      "attrs": {"act_type": "sigmoid"}, 
      "inputs": [[56, 0, 0]]
    }, 
    {
      "op": "elemwise_mul", 
      "name": "silu10__mul0", 
      "inputs": [[56, 0, 0], [57, 0, 0]]
    }, 
    {
      "op": "null", 
      "name": "conv27_weight", 
      "attrs": {
        "__dtype__": "0", 
        "__lr_mult__": "1.0", 
        "__shape__": "(96, 0, 1, 1)", 
        "__storage_type__": "0", 
        "__wd_mult__": "1.0"
      }, 
      "inputs": []
    }, 
    {
      "op": "null", 
      "name": "conv27_bias", 
      "attrs": {
        "__dtype__": "0", 
        "__init__": "zeros", 
        "__lr_mult__": "1.0", 
        "__shape__": "(96,)", 
        "__storage_type__": "0", 
        "__wd_mult__": "1.0"
      }, 
      "inputs": []
    }, 
    {
      "op": "Convolution", 
      "name": "conv27_fwd", 
      "attrs": {
        "dilate": "(1, 1)", 
        "kernel": "(1, 1)", 
        "layout": "NCHW", 
        "no_bias": "False", 
        "num_filter": "96", 
        "num_group": "1", 
        "pad": "(0, 0)", 
        "stride": "(1, 1)"
      }, 
      "inputs": [[58, 0, 0], [59, 0, 0], [60, 0, 0]]
    }, 
    {
      "op": "Activation", 
      "name": "silu13_sigmoid0_fwd", 
      "attrs": {"act_type": "sigmoid"}, 
      "inputs": [[61, 0, 0]]
    }, 
    {
      "op": "elemwise_mul", 
      "name": "silu13__mul0", 
      "inputs": [[61, 0, 0], [62, 0, 0]]
    }, 
    {
      "op": "null", 
      "name": "conv29_weight", 
      "attrs": {
        "__dtype__": "0", 
        "__lr_mult__": "1.0", 
        "__shape__": "(96, 0, 3, 3)", 
        "__storage_type__": "0", 
        "__wd_mult__": "1.0"
      }, 
      "inputs": []
    }, 
    {
      "op": "null", 
      "name": "conv29_bias", 
      "attrs": {
        "__dtype__": "0", 
        "__init__": "zeros", 
        "__lr_mult__": "1.0", 
        "__shape__": "(96,)", 
        "__storage_type__": "0", 
        "__wd_mult__": "1.0"
      }, 
      "inputs": []
    }, 
    {
      "op": "Convolution", 
      "name": "conv29_fwd", 
      "attrs": {
        "dilate": "(1, 1)", 
        "kernel": "(3, 3)", 
        "layout": "NCHW", 
        "no_bias": "False", 
        "num_filter": "96", 
        "num_group": "1", 
        "pad": "(1, 1)", 
        "stride": "(1, 1)"
      }, 
      "inputs": [[63, 0, 0], [64, 0, 0], [65, 0, 0]]
    }, 
    {
      "op": "Activation", 
      "name": "silu14_sigmoid0_fwd", 
      "attrs": {"act_type": "sigmoid"}, 
      "inputs": [[66, 0, 0]]
    }, 
    {
      "op": "elemwise_mul", 
      "name": "silu14__mul0", 
      "inputs": [[66, 0, 0], [67, 0, 0]]
    }, 
    {
      "op": "elemwise_add", 
      "name": "bottle2__plus0", 
      "inputs": [[58, 0, 0], [68, 0, 0]]
    }, 
    {
      "op": "null", 
      "name": "conv31_weight", 
      "attrs": {
        "__dtype__": "0", 
        "__lr_mult__": "1.0", 
        "__shape__": "(96, 0, 1, 1)", 
        "__storage_type__": "0", 
        "__wd_mult__": "1.0"
      }, 
      "inputs": []
    }, 
    {
      "op": "null", 
      "name": "conv31_bias", 
      "attrs": {
        "__dtype__": "0", 
        "__init__": "zeros", 
        "__lr_mult__": "1.0", 
        "__shape__": "(96,)", 
        "__storage_type__": "0", 
        "__wd_mult__": "1.0"
      }, 
      "inputs": []
    }, 
    {
      "op": "Convolution", 
      "name": "conv31_fwd", 
      "attrs": {
        "dilate": "(1, 1)", 
        "kernel": "(1, 1)", 
        "layout": "NCHW", 
        "no_bias": "False", 
        "num_filter": "96", 
        "num_group": "1", 
        "pad": "(0, 0)", 
        "stride": "(1, 1)"
      }, 
      "inputs": [[69, 0, 0], [70, 0, 0], [71, 0, 0]]
    }, 
    {
      "op": "Activation", 
      "name": "silu15_sigmoid0_fwd", 
      "attrs": {"act_type": "sigmoid"}, 
      "inputs": [[72, 0, 0]]
    }, 
    {
      "op": "elemwise_mul", 
      "name": "silu15__mul0", 
      "inputs": [[72, 0, 0], [73, 0, 0]]
    }, 
    {
      "op": "null", 
      "name": "conv33_weight", 
      "attrs": {
        "__dtype__": "0", 
        "__lr_mult__": "1.0", 
        "__shape__": "(96, 0, 3, 3)", 
        "__storage_type__": "0", 
        "__wd_mult__": "1.0"
      }, 
      "inputs": []
    }, 
    {
      "op": "null", 
      "name": "conv33_bias", 
      "attrs": {
        "__dtype__": "0", 
        "__init__": "zeros", 
        "__lr_mult__": "1.0", 
        "__shape__": "(96,)", 
        "__storage_type__": "0", 
        "__wd_mult__": "1.0"
      }, 
      "inputs": []
    }, 
    {
      "op": "Convolution", 
      "name": "conv33_fwd", 
      "attrs": {
        "dilate": "(1, 1)", 
        "kernel": "(3, 3)", 
        "layout": "NCHW", 
        "no_bias": "False", 
        "num_filter": "96", 
        "num_group": "1", 
        "pad": "(1, 1)", 
        "stride": "(1, 1)"
      }, 
      "inputs": [[74, 0, 0], [75, 0, 0], [76, 0, 0]]
    }, 
    {
      "op": "Activation", 
      "name": "silu16_sigmoid0_fwd", 
      "attrs": {"act_type": "sigmoid"}, 
      "inputs": [[77, 0, 0]]
    }, 
    {
      "op": "elemwise_mul", 
      "name": "silu16__mul0", 
      "inputs": [[77, 0, 0], [78, 0, 0]]
    }, 
    {
      "op": "elemwise_add", 
      "name": "bottle3__plus0", 
      "inputs": [[69, 0, 0], [79, 0, 0]]
    }, 
    {
      "op": "null", 
      "name": "conv35_weight", 
      "attrs": {
        "__dtype__": "0", 
        "__lr_mult__": "1.0", 
        "__shape__": "(96, 0, 1, 1)", 
        "__storage_type__": "0", 
        "__wd_mult__": "1.0"
      }, 
      "inputs": []
    }, 
    {
      "op": "null", 
      "name": "conv35_bias", 
      "attrs": {
        "__dtype__": "0", 
        "__init__": "zeros", 
        "__lr_mult__": "1.0", 
        "__shape__": "(96,)", 
        "__storage_type__": "0", 
        "__wd_mult__": "1.0"
      }, 
      "inputs": []
    }, 
    {
      "op": "Convolution", 
      "name": "conv35_fwd", 
      "attrs": {
        "dilate": "(1, 1)", 
        "kernel": "(1, 1)", 
        "layout": "NCHW", 
        "no_bias": "False", 
        "num_filter": "96", 
        "num_group": "1", 
        "pad": "(0, 0)", 
        "stride": "(1, 1)"
      }, 
      "inputs": [[80, 0, 0], [81, 0, 0], [82, 0, 0]]
    }, 
    {
      "op": "Activation", 
      "name": "silu17_sigmoid0_fwd", 
      "attrs": {"act_type": "sigmoid"}, 
      "inputs": [[83, 0, 0]]
    }, 
    {
      "op": "elemwise_mul", 
      "name": "silu17__mul0", 
      "inputs": [[83, 0, 0], [84, 0, 0]]
    }, 
    {
      "op": "null", 
      "name": "conv37_weight", 
      "attrs": {
        "__dtype__": "0", 
        "__lr_mult__": "1.0", 
        "__shape__": "(96, 0, 3, 3)", 
        "__storage_type__": "0", 
        "__wd_mult__": "1.0"
      }, 
      "inputs": []
    }, 
    {
      "op": "null", 
      "name": "conv37_bias", 
      "attrs": {
        "__dtype__": "0", 
        "__init__": "zeros", 
        "__lr_mult__": "1.0", 
        "__shape__": "(96,)", 
        "__storage_type__": "0", 
        "__wd_mult__": "1.0"
      }, 
      "inputs": []
    }, 
    {
      "op": "Convolution", 
      "name": "conv37_fwd", 
      "attrs": {
        "dilate": "(1, 1)", 
        "kernel": "(3, 3)", 
        "layout": "NCHW", 
        "no_bias": "False", 
        "num_filter": "96", 
        "num_group": "1", 
        "pad": "(1, 1)", 
        "stride": "(1, 1)"
      }, 
      "inputs": [[85, 0, 0], [86, 0, 0], [87, 0, 0]]
    }, 
    {
      "op": "Activation", 
      "name": "silu18_sigmoid0_fwd", 
      "attrs": {"act_type": "sigmoid"}, 
      "inputs": [[88, 0, 0]]
    }, 
    {
      "op": "elemwise_mul", 
      "name": "silu18__mul0", 
      "inputs": [[88, 0, 0], [89, 0, 0]]
    }, 
    {
      "op": "elemwise_add", 
      "name": "bottle4__plus0", 
      "inputs": [[80, 0, 0], [90, 0, 0]]
    }, 
    {
      "op": "null", 
      "name": "conv39_weight", 
      "attrs": {
        "__dtype__": "0", 
        "__lr_mult__": "1.0", 
        "__shape__": "(96, 0, 1, 1)", 
        "__storage_type__": "0", 
        "__wd_mult__": "1.0"
      }, 
      "inputs": []
    }, 
    {
      "op": "null", 
      "name": "conv39_bias", 
      "attrs": {
        "__dtype__": "0", 
        "__init__": "zeros", 
        "__lr_mult__": "1.0", 
        "__shape__": "(96,)", 
        "__storage_type__": "0", 
        "__wd_mult__": "1.0"
      }, 
      "inputs": []
    }, 
    {
      "op": "Convolution", 
      "name": "conv39_fwd", 
      "attrs": {
        "dilate": "(1, 1)", 
        "kernel": "(1, 1)", 
        "layout": "NCHW", 
        "no_bias": "False", 
        "num_filter": "96", 
        "num_group": "1", 
        "pad": "(0, 0)", 
        "stride": "(1, 1)"
      }, 
      "inputs": [[91, 0, 0], [92, 0, 0], [93, 0, 0]]
    }, 
    {
      "op": "Activation", 
      "name": "silu19_sigmoid0_fwd", 
      "attrs": {"act_type": "sigmoid"}, 
      "inputs": [[94, 0, 0]]
    }, 
    {
      "op": "elemwise_mul", 
      "name": "silu19__mul0", 
      "inputs": [[94, 0, 0], [95, 0, 0]]
    }, 
    {
      "op": "null", 
      "name": "conv41_weight", 
      "attrs": {
        "__dtype__": "0", 
        "__lr_mult__": "1.0", 
        "__shape__": "(96, 0, 3, 3)", 
        "__storage_type__": "0", 
        "__wd_mult__": "1.0"
      }, 
      "inputs": []
    }, 
    {
      "op": "null", 
      "name": "conv41_bias", 
      "attrs": {
        "__dtype__": "0", 
        "__init__": "zeros", 
        "__lr_mult__": "1.0", 
        "__shape__": "(96,)", 
        "__storage_type__": "0", 
        "__wd_mult__": "1.0"
      }, 
      "inputs": []
    }, 
    {
      "op": "Convolution", 
      "name": "conv41_fwd", 
      "attrs": {
        "dilate": "(1, 1)", 
        "kernel": "(3, 3)", 
        "layout": "NCHW", 
        "no_bias": "False", 
        "num_filter": "96", 
        "num_group": "1", 
        "pad": "(1, 1)", 
        "stride": "(1, 1)"
      }, 
      "inputs": [[96, 0, 0], [97, 0, 0], [98, 0, 0]]
    }, 
    {
      "op": "Activation", 
      "name": "silu20_sigmoid0_fwd", 
      "attrs": {"act_type": "sigmoid"}, 
      "inputs": [[99, 0, 0]]
    }, 
    {
      "op": "elemwise_mul", 
      "name": "silu20__mul0", 
      "inputs": [[99, 0, 0], [100, 0, 0]]
    }, 
    {
      "op": "elemwise_add", 
      "name": "bottle5__plus0", 
      "inputs": [[91, 0, 0], [101, 0, 0]]
    }, 
    {
      "op": "null", 
      "name": "conv23_weight", 
      "attrs": {
        "__dtype__": "0", 
        "__lr_mult__": "1.0", 
        "__shape__": "(96, 0, 1, 1)", 
        "__storage_type__": "0", 
        "__wd_mult__": "1.0"
      }, 
      "inputs": []
    }, 
    {
      "op": "null", 
      "name": "conv23_bias", 
      "attrs": {
        "__dtype__": "0", 
        "__init__": "zeros", 
        "__lr_mult__": "1.0", 
        "__shape__": "(96,)", 
        "__storage_type__": "0", 
        "__wd_mult__": "1.0"
      }, 
      "inputs": []
    }, 
    {
      "op": "Convolution", 
      "name": "conv23_fwd", 
      "attrs": {
        "dilate": "(1, 1)", 
        "kernel": "(1, 1)", 
        "layout": "NCHW", 
        "no_bias": "False", 
        "num_filter": "96", 
        "num_group": "1", 
        "pad": "(0, 0)", 
        "stride": "(1, 1)"
      }, 
      "inputs": [[53, 0, 0], [103, 0, 0], [104, 0, 0]]
    }, 
    {
      "op": "Activation", 
      "name": "silu11_sigmoid0_fwd", 
      "attrs": {"act_type": "sigmoid"}, 
      "inputs": [[105, 0, 0]]
    }, 
    {
      "op": "elemwise_mul", 
      "name": "silu11__mul0", 
      "inputs": [[105, 0, 0], [106, 0, 0]]
    }, 
    {
      "op": "Concat", 
      "name": "c3_rep40_concat0", 
      "attrs": {
        "dim": "1", 
        "num_args": "2"
      }, 
      "inputs": [[102, 0, 0], [107, 0, 0]]
    }, 
    {
      "op": "null", 
      "name": "conv25_weight", 
      "attrs": {
        "__dtype__": "0", 
        "__lr_mult__": "1.0", 
        "__shape__": "(192, 0, 1, 1)", 
        "__storage_type__": "0", 
        "__wd_mult__": "1.0"
      }, 
      "inputs": []
    }, 
    {
      "op": "null", 
      "name": "conv25_bias", 
      "attrs": {
        "__dtype__": "0", 
        "__init__": "zeros", 
        "__lr_mult__": "1.0", 
        "__shape__": "(192,)", 
        "__storage_type__": "0", 
        "__wd_mult__": "1.0"
      }, 
      "inputs": []
    }, 
    {
      "op": "Convolution", 
      "name": "conv25_fwd", 
      "attrs": {
        "dilate": "(1, 1)", 
        "kernel": "(1, 1)", 
        "layout": "NCHW", 
        "no_bias": "False", 
        "num_filter": "192", 
        "num_group": "1", 
        "pad": "(0, 0)", 
        "stride": "(1, 1)"
      }, 
      "inputs": [[108, 0, 0], [109, 0, 0], [110, 0, 0]]
    }, 
    {
      "op": "Activation", 
      "name": "silu12_sigmoid0_fwd", 
      "attrs": {"act_type": "sigmoid"}, 
      "inputs": [[111, 0, 0]]
    }, 
    {
      "op": "elemwise_mul", 
      "name": "silu12__mul0", 
      "inputs": [[111, 0, 0], [112, 0, 0]]
    }, 
    {
      "op": "null", 
      "name": "conv43_weight", 
      "attrs": {
        "__dtype__": "0", 
        "__lr_mult__": "1.0", 
        "__shape__": "(384, 0, 3, 3)", 
        "__storage_type__": "0", 
        "__wd_mult__": "1.0"
      }, 
      "inputs": []
    }, 
    {
      "op": "null", 
      "name": "conv43_bias", 
      "attrs": {
        "__dtype__": "0", 
        "__init__": "zeros", 
        "__lr_mult__": "1.0", 
        "__shape__": "(384,)", 
        "__storage_type__": "0", 
        "__wd_mult__": "1.0"
      }, 
      "inputs": []
    }, 
    {
      "op": "Convolution", 
      "name": "conv43_fwd", 
      "attrs": {
        "dilate": "(1, 1)", 
        "kernel": "(3, 3)", 
        "layout": "NCHW", 
        "no_bias": "False", 
        "num_filter": "384", 
        "num_group": "1", 
        "pad": "(1, 1)", 
        "stride": "(2, 2)"
      }, 
      "inputs": [[113, 0, 0], [114, 0, 0], [115, 0, 0]]
    }, 
    {
      "op": "Activation", 
      "name": "silu21_sigmoid0_fwd", 
      "attrs": {"act_type": "sigmoid"}, 
      "inputs": [[116, 0, 0]]
    }, 
    {
      "op": "elemwise_mul", 
      "name": "silu21__mul0", 
      "inputs": [[116, 0, 0], [117, 0, 0]]
    }, 
    {
      "op": "null", 
      "name": "conv45_weight", 
      "attrs": {
        "__dtype__": "0", 
        "__lr_mult__": "1.0", 
        "__shape__": "(192, 0, 1, 1)", 
        "__storage_type__": "0", 
        "__wd_mult__": "1.0"
      }, 
      "inputs": []
    }, 
    {
      "op": "null", 
      "name": "conv45_bias", 
      "attrs": {
        "__dtype__": "0", 
        "__init__": "zeros", 
        "__lr_mult__": "1.0", 
        "__shape__": "(192,)", 
        "__storage_type__": "0", 
        "__wd_mult__": "1.0"
      }, 
      "inputs": []
    }, 
    {
      "op": "Convolution", 
      "name": "conv45_fwd", 
      "attrs": {
        "dilate": "(1, 1)", 
        "kernel": "(1, 1)", 
        "layout": "NCHW", 
        "no_bias": "False", 
        "num_filter": "192", 
        "num_group": "1", 
        "pad": "(0, 0)", 
        "stride": "(1, 1)"
      }, 
      "inputs": [[118, 0, 0], [119, 0, 0], [120, 0, 0]]
    }, 
    {
      "op": "Activation", 
      "name": "silu22_sigmoid0_fwd", 
      "attrs": {"act_type": "sigmoid"}, 
      "inputs": [[121, 0, 0]]
    }, 
    {
      "op": "elemwise_mul", 
      "name": "silu22__mul0", 
      "inputs": [[121, 0, 0], [122, 0, 0]]
    }, 
    {
      "op": "null", 
      "name": "conv51_weight", 
      "attrs": {
        "__dtype__": "0", 
        "__lr_mult__": "1.0", 
        "__shape__": "(192, 0, 1, 1)", 
        "__storage_type__": "0", 
        "__wd_mult__": "1.0"
      }, 
      "inputs": []
    }, 
    {
      "op": "null", 
      "name": "conv51_bias", 
      "attrs": {
        "__dtype__": "0", 
        "__init__": "zeros", 
        "__lr_mult__": "1.0", 
        "__shape__": "(192,)", 
        "__storage_type__": "0", 
        "__wd_mult__": "1.0"
      }, 
      "inputs": []
    }, 
    {
      "op": "Convolution", 
      "name": "conv51_fwd", 
      "attrs": {
        "dilate": "(1, 1)", 
        "kernel": "(1, 1)", 
        "layout": "NCHW", 
        "no_bias": "False", 
        "num_filter": "192", 
        "num_group": "1", 
        "pad": "(0, 0)", 
        "stride": "(1, 1)"
      }, 
      "inputs": [[123, 0, 0], [124, 0, 0], [125, 0, 0]]
    }, 
    {
      "op": "Activation", 
      "name": "silu25_sigmoid0_fwd", 
      "attrs": {"act_type": "sigmoid"}, 
      "inputs": [[126, 0, 0]]
    }, 
    {
      "op": "elemwise_mul", 
      "name": "silu25__mul0", 
      "inputs": [[126, 0, 0], [127, 0, 0]]
    }, 
    {
      "op": "null", 
      "name": "conv53_weight", 
      "attrs": {
        "__dtype__": "0", 
        "__lr_mult__": "1.0", 
        "__shape__": "(192, 0, 3, 3)", 
        "__storage_type__": "0", 
        "__wd_mult__": "1.0"
      }, 
      "inputs": []
    }, 
    {
      "op": "null", 
      "name": "conv53_bias", 
      "attrs": {
        "__dtype__": "0", 
        "__init__": "zeros", 
        "__lr_mult__": "1.0", 
        "__shape__": "(192,)", 
        "__storage_type__": "0", 
        "__wd_mult__": "1.0"
      }, 
      "inputs": []
    }, 
    {
      "op": "Convolution", 
      "name": "conv53_fwd", 
      "attrs": {
        "dilate": "(1, 1)", 
        "kernel": "(3, 3)", 
        "layout": "NCHW", 
        "no_bias": "False", 
        "num_filter": "192", 
        "num_group": "1", 
        "pad": "(1, 1)", 
        "stride": "(1, 1)"
      }, 
      "inputs": [[128, 0, 0], [129, 0, 0], [130, 0, 0]]
    }, 
    {
      "op": "Activation", 
      "name": "silu26_sigmoid0_fwd", 
      "attrs": {"act_type": "sigmoid"}, 
      "inputs": [[131, 0, 0]]
    }, 
    {
      "op": "elemwise_mul", 
      "name": "silu26__mul0", 
      "inputs": [[131, 0, 0], [132, 0, 0]]
    }, 
    {
      "op": "elemwise_add", 
      "name": "bottle6__plus0", 
      "inputs": [[123, 0, 0], [133, 0, 0]]
    }, 
    {
      "op": "null", 
      "name": "conv55_weight", 
      "attrs": {
        "__dtype__": "0", 
        "__lr_mult__": "1.0", 
        "__shape__": "(192, 0, 1, 1)", 
        "__storage_type__": "0", 
        "__wd_mult__": "1.0"
      }, 
      "inputs": []
    }, 
    {
      "op": "null", 
      "name": "conv55_bias", 
      "attrs": {
        "__dtype__": "0", 
        "__init__": "zeros", 
        "__lr_mult__": "1.0", 
        "__shape__": "(192,)", 
        "__storage_type__": "0", 
        "__wd_mult__": "1.0"
      }, 
      "inputs": []
    }, 
    {
      "op": "Convolution", 
      "name": "conv55_fwd", 
      "attrs": {
        "dilate": "(1, 1)", 
        "kernel": "(1, 1)", 
        "layout": "NCHW", 
        "no_bias": "False", 
        "num_filter": "192", 
        "num_group": "1", 
        "pad": "(0, 0)", 
        "stride": "(1, 1)"
      }, 
      "inputs": [[134, 0, 0], [135, 0, 0], [136, 0, 0]]
    }, 
    {
      "op": "Activation", 
      "name": "silu27_sigmoid0_fwd", 
      "attrs": {"act_type": "sigmoid"}, 
      "inputs": [[137, 0, 0]]
    }, 
    {
      "op": "elemwise_mul", 
      "name": "silu27__mul0", 
      "inputs": [[137, 0, 0], [138, 0, 0]]
    }, 
    {
      "op": "null", 
      "name": "conv57_weight", 
      "attrs": {
        "__dtype__": "0", 
        "__lr_mult__": "1.0", 
        "__shape__": "(192, 0, 3, 3)", 
        "__storage_type__": "0", 
        "__wd_mult__": "1.0"
      }, 
      "inputs": []
    }, 
    {
      "op": "null", 
      "name": "conv57_bias", 
      "attrs": {
        "__dtype__": "0", 
        "__init__": "zeros", 
        "__lr_mult__": "1.0", 
        "__shape__": "(192,)", 
        "__storage_type__": "0", 
        "__wd_mult__": "1.0"
      }, 
      "inputs": []
    }, 
    {
      "op": "Convolution", 
      "name": "conv57_fwd", 
      "attrs": {
        "dilate": "(1, 1)", 
        "kernel": "(3, 3)", 
        "layout": "NCHW", 
        "no_bias": "False", 
        "num_filter": "192", 
        "num_group": "1", 
        "pad": "(1, 1)", 
        "stride": "(1, 1)"
      }, 
      "inputs": [[139, 0, 0], [140, 0, 0], [141, 0, 0]]
    }, 
    {
      "op": "Activation", 
      "name": "silu28_sigmoid0_fwd", 
      "attrs": {"act_type": "sigmoid"}, 
      "inputs": [[142, 0, 0]]
    }, 
    {
      "op": "elemwise_mul", 
      "name": "silu28__mul0", 
      "inputs": [[142, 0, 0], [143, 0, 0]]
    }, 
    {
      "op": "elemwise_add", 
      "name": "bottle7__plus0", 
      "inputs": [[134, 0, 0], [144, 0, 0]]
    }, 
    {
      "op": "null", 
      "name": "conv59_weight", 
      "attrs": {
        "__dtype__": "0", 
        "__lr_mult__": "1.0", 
        "__shape__": "(192, 0, 1, 1)", 
        "__storage_type__": "0", 
        "__wd_mult__": "1.0"
      }, 
      "inputs": []
    }, 
    {
      "op": "null", 
      "name": "conv59_bias", 
      "attrs": {
        "__dtype__": "0", 
        "__init__": "zeros", 
        "__lr_mult__": "1.0", 
        "__shape__": "(192,)", 
        "__storage_type__": "0", 
        "__wd_mult__": "1.0"
      }, 
      "inputs": []
    }, 
    {
      "op": "Convolution", 
      "name": "conv59_fwd", 
      "attrs": {
        "dilate": "(1, 1)", 
        "kernel": "(1, 1)", 
        "layout": "NCHW", 
        "no_bias": "False", 
        "num_filter": "192", 
        "num_group": "1", 
        "pad": "(0, 0)", 
        "stride": "(1, 1)"
      }, 
      "inputs": [[145, 0, 0], [146, 0, 0], [147, 0, 0]]
    }, 
    {
      "op": "Activation", 
      "name": "silu29_sigmoid0_fwd", 
      "attrs": {"act_type": "sigmoid"}, 
      "inputs": [[148, 0, 0]]
    }, 
    {
      "op": "elemwise_mul", 
      "name": "silu29__mul0", 
      "inputs": [[148, 0, 0], [149, 0, 0]]
    }, 
    {
      "op": "null", 
      "name": "conv61_weight", 
      "attrs": {
        "__dtype__": "0", 
        "__lr_mult__": "1.0", 
        "__shape__": "(192, 0, 3, 3)", 
        "__storage_type__": "0", 
        "__wd_mult__": "1.0"
      }, 
      "inputs": []
    }, 
    {
      "op": "null", 
      "name": "conv61_bias", 
      "attrs": {
        "__dtype__": "0", 
        "__init__": "zeros", 
        "__lr_mult__": "1.0", 
        "__shape__": "(192,)", 
        "__storage_type__": "0", 
        "__wd_mult__": "1.0"
      }, 
      "inputs": []
    }, 
    {
      "op": "Convolution", 
      "name": "conv61_fwd", 
      "attrs": {
        "dilate": "(1, 1)", 
        "kernel": "(3, 3)", 
        "layout": "NCHW", 
        "no_bias": "False", 
        "num_filter": "192", 
        "num_group": "1", 
        "pad": "(1, 1)", 
        "stride": "(1, 1)"
      }, 
      "inputs": [[150, 0, 0], [151, 0, 0], [152, 0, 0]]
    }, 
    {
      "op": "Activation", 
      "name": "silu30_sigmoid0_fwd", 
      "attrs": {"act_type": "sigmoid"}, 
      "inputs": [[153, 0, 0]]
    }, 
    {
      "op": "elemwise_mul", 
      "name": "silu30__mul0", 
      "inputs": [[153, 0, 0], [154, 0, 0]]
    }, 
    {
      "op": "elemwise_add", 
      "name": "bottle8__plus0", 
      "inputs": [[145, 0, 0], [155, 0, 0]]
    }, 
    {
      "op": "null", 
      "name": "conv63_weight", 
      "attrs": {
        "__dtype__": "0", 
        "__lr_mult__": "1.0", 
        "__shape__": "(192, 0, 1, 1)", 
        "__storage_type__": "0", 
        "__wd_mult__": "1.0"
      }, 
      "inputs": []
    }, 
    {
      "op": "null", 
      "name": "conv63_bias", 
      "attrs": {
        "__dtype__": "0", 
        "__init__": "zeros", 
        "__lr_mult__": "1.0", 
        "__shape__": "(192,)", 
        "__storage_type__": "0", 
        "__wd_mult__": "1.0"
      }, 
      "inputs": []
    }, 
    {
      "op": "Convolution", 
      "name": "conv63_fwd", 
      "attrs": {
        "dilate": "(1, 1)", 
        "kernel": "(1, 1)", 
        "layout": "NCHW", 
        "no_bias": "False", 
        "num_filter": "192", 
        "num_group": "1", 
        "pad": "(0, 0)", 
        "stride": "(1, 1)"
      }, 
      "inputs": [[156, 0, 0], [157, 0, 0], [158, 0, 0]]
    }, 
    {
      "op": "Activation", 
      "name": "silu31_sigmoid0_fwd", 
      "attrs": {"act_type": "sigmoid"}, 
      "inputs": [[159, 0, 0]]
    }, 
    {
      "op": "elemwise_mul", 
      "name": "silu31__mul0", 
      "inputs": [[159, 0, 0], [160, 0, 0]]
    }, 
    {
      "op": "null", 
      "name": "conv65_weight", 
      "attrs": {
        "__dtype__": "0", 
        "__lr_mult__": "1.0", 
        "__shape__": "(192, 0, 3, 3)", 
        "__storage_type__": "0", 
        "__wd_mult__": "1.0"
      }, 
      "inputs": []
    }, 
    {
      "op": "null", 
      "name": "conv65_bias", 
      "attrs": {
        "__dtype__": "0", 
        "__init__": "zeros", 
        "__lr_mult__": "1.0", 
        "__shape__": "(192,)", 
        "__storage_type__": "0", 
        "__wd_mult__": "1.0"
      }, 
      "inputs": []
    }, 
    {
      "op": "Convolution", 
      "name": "conv65_fwd", 
      "attrs": {
        "dilate": "(1, 1)", 
        "kernel": "(3, 3)", 
        "layout": "NCHW", 
        "no_bias": "False", 
        "num_filter": "192", 
        "num_group": "1", 
        "pad": "(1, 1)", 
        "stride": "(1, 1)"
      }, 
      "inputs": [[161, 0, 0], [162, 0, 0], [163, 0, 0]]
    }, 
    {
      "op": "Activation", 
      "name": "silu32_sigmoid0_fwd", 
      "attrs": {"act_type": "sigmoid"}, 
      "inputs": [[164, 0, 0]]
    }, 
    {
      "op": "elemwise_mul", 
      "name": "silu32__mul0", 
      "inputs": [[164, 0, 0], [165, 0, 0]]
    }, 
    {
      "op": "elemwise_add", 
      "name": "bottle9__plus0", 
      "inputs": [[156, 0, 0], [166, 0, 0]]
    }, 
    {
      "op": "null", 
      "name": "conv67_weight", 
      "attrs": {
        "__dtype__": "0", 
        "__lr_mult__": "1.0", 
        "__shape__": "(192, 0, 1, 1)", 
        "__storage_type__": "0", 
        "__wd_mult__": "1.0"
      }, 
      "inputs": []
    }, 
    {
      "op": "null", 
      "name": "conv67_bias", 
      "attrs": {
        "__dtype__": "0", 
        "__init__": "zeros", 
        "__lr_mult__": "1.0", 
        "__shape__": "(192,)", 
        "__storage_type__": "0", 
        "__wd_mult__": "1.0"
      }, 
      "inputs": []
    }, 
    {
      "op": "Convolution", 
      "name": "conv67_fwd", 
      "attrs": {
        "dilate": "(1, 1)", 
        "kernel": "(1, 1)", 
        "layout": "NCHW", 
        "no_bias": "False", 
        "num_filter": "192", 
        "num_group": "1", 
        "pad": "(0, 0)", 
        "stride": "(1, 1)"
      }, 
      "inputs": [[167, 0, 0], [168, 0, 0], [169, 0, 0]]
    }, 
    {
      "op": "Activation", 
      "name": "silu33_sigmoid0_fwd", 
      "attrs": {"act_type": "sigmoid"}, 
      "inputs": [[170, 0, 0]]
    }, 
    {
      "op": "elemwise_mul", 
      "name": "silu33__mul0", 
      "inputs": [[170, 0, 0], [171, 0, 0]]
    }, 
    {
      "op": "null", 
      "name": "conv69_weight", 
      "attrs": {
        "__dtype__": "0", 
        "__lr_mult__": "1.0", 
        "__shape__": "(192, 0, 3, 3)", 
        "__storage_type__": "0", 
        "__wd_mult__": "1.0"
      }, 
      "inputs": []
    }, 
    {
      "op": "null", 
      "name": "conv69_bias", 
      "attrs": {
        "__dtype__": "0", 
        "__init__": "zeros", 
        "__lr_mult__": "1.0", 
        "__shape__": "(192,)", 
        "__storage_type__": "0", 
        "__wd_mult__": "1.0"
      }, 
      "inputs": []
    }, 
    {
      "op": "Convolution", 
      "name": "conv69_fwd", 
      "attrs": {
        "dilate": "(1, 1)", 
        "kernel": "(3, 3)", 
        "layout": "NCHW", 
        "no_bias": "False", 
        "num_filter": "192", 
        "num_group": "1", 
        "pad": "(1, 1)", 
        "stride": "(1, 1)"
      }, 
      "inputs": [[172, 0, 0], [173, 0, 0], [174, 0, 0]]
    }, 
    {
      "op": "Activation", 
      "name": "silu34_sigmoid0_fwd", 
      "attrs": {"act_type": "sigmoid"}, 
      "inputs": [[175, 0, 0]]
    }, 
    {
      "op": "elemwise_mul", 
      "name": "silu34__mul0", 
      "inputs": [[175, 0, 0], [176, 0, 0]]
    }, 
    {
      "op": "elemwise_add", 
      "name": "bottle10__plus0", 
      "inputs": [[167, 0, 0], [177, 0, 0]]
    }, 
    {
      "op": "null", 
      "name": "conv71_weight", 
      "attrs": {
        "__dtype__": "0", 
        "__lr_mult__": "1.0", 
        "__shape__": "(192, 0, 1, 1)", 
        "__storage_type__": "0", 
        "__wd_mult__": "1.0"
      }, 
      "inputs": []
    }, 
    {
      "op": "null", 
      "name": "conv71_bias", 
      "attrs": {
        "__dtype__": "0", 
        "__init__": "zeros", 
        "__lr_mult__": "1.0", 
        "__shape__": "(192,)", 
        "__storage_type__": "0", 
        "__wd_mult__": "1.0"
      }, 
      "inputs": []
    }, 
    {
      "op": "Convolution", 
      "name": "conv71_fwd", 
      "attrs": {
        "dilate": "(1, 1)", 
        "kernel": "(1, 1)", 
        "layout": "NCHW", 
        "no_bias": "False", 
        "num_filter": "192", 
        "num_group": "1", 
        "pad": "(0, 0)", 
        "stride": "(1, 1)"
      }, 
      "inputs": [[178, 0, 0], [179, 0, 0], [180, 0, 0]]
    }, 
    {
      "op": "Activation", 
      "name": "silu35_sigmoid0_fwd", 
      "attrs": {"act_type": "sigmoid"}, 
      "inputs": [[181, 0, 0]]
    }, 
    {
      "op": "elemwise_mul", 
      "name": "silu35__mul0", 
      "inputs": [[181, 0, 0], [182, 0, 0]]
    }, 
    {
      "op": "null", 
      "name": "conv73_weight", 
      "attrs": {
        "__dtype__": "0", 
        "__lr_mult__": "1.0", 
        "__shape__": "(192, 0, 3, 3)", 
        "__storage_type__": "0", 
        "__wd_mult__": "1.0"
      }, 
      "inputs": []
    }, 
    {
      "op": "null", 
      "name": "conv73_bias", 
      "attrs": {
        "__dtype__": "0", 
        "__init__": "zeros", 
        "__lr_mult__": "1.0", 
        "__shape__": "(192,)", 
        "__storage_type__": "0", 
        "__wd_mult__": "1.0"
      }, 
      "inputs": []
    }, 
    {
      "op": "Convolution", 
      "name": "conv73_fwd", 
      "attrs": {
        "dilate": "(1, 1)", 
        "kernel": "(3, 3)", 
        "layout": "NCHW", 
        "no_bias": "False", 
        "num_filter": "192", 
        "num_group": "1", 
        "pad": "(1, 1)", 
        "stride": "(1, 1)"
      }, 
      "inputs": [[183, 0, 0], [184, 0, 0], [185, 0, 0]]
    }, 
    {
      "op": "Activation", 
      "name": "silu36_sigmoid0_fwd", 
      "attrs": {"act_type": "sigmoid"}, 
      "inputs": [[186, 0, 0]]
    }, 
    {
      "op": "elemwise_mul", 
      "name": "silu36__mul0", 
      "inputs": [[186, 0, 0], [187, 0, 0]]
    }, 
    {
      "op": "elemwise_add", 
      "name": "bottle11__plus0", 
      "inputs": [[178, 0, 0], [188, 0, 0]]
    }, 
    {
      "op": "null", 
      "name": "conv47_weight", 
      "attrs": {
        "__dtype__": "0", 
        "__lr_mult__": "1.0", 
        "__shape__": "(192, 0, 1, 1)", 
        "__storage_type__": "0", 
        "__wd_mult__": "1.0"
      }, 
      "inputs": []
    }, 
    {
      "op": "null", 
      "name": "conv47_bias", 
      "attrs": {
        "__dtype__": "0", 
        "__init__": "zeros", 
        "__lr_mult__": "1.0", 
        "__shape__": "(192,)", 
        "__storage_type__": "0", 
        "__wd_mult__": "1.0"
      }, 
      "inputs": []
    }, 
    {
      "op": "Convolution", 
      "name": "conv47_fwd", 
      "attrs": {
        "dilate": "(1, 1)", 
        "kernel": "(1, 1)", 
        "layout": "NCHW", 
        "no_bias": "False", 
        "num_filter": "192", 
        "num_group": "1", 
        "pad": "(0, 0)", 
        "stride": "(1, 1)"
      }, 
      "inputs": [[118, 0, 0], [190, 0, 0], [191, 0, 0]]
    }, 
    {
      "op": "Activation", 
      "name": "silu23_sigmoid0_fwd", 
      "attrs": {"act_type": "sigmoid"}, 
      "inputs": [[192, 0, 0]]
    }, 
    {
      "op": "elemwise_mul", 
      "name": "silu23__mul0", 
      "inputs": [[192, 0, 0], [193, 0, 0]]
    }, 
    {
      "op": "Concat", 
      "name": "c3_rep60_concat0", 
      "attrs": {
        "dim": "1", 
        "num_args": "2"
      }, 
      "inputs": [[189, 0, 0], [194, 0, 0]]
    }, 
    {
      "op": "null", 
      "name": "conv49_weight", 
      "attrs": {
        "__dtype__": "0", 
        "__lr_mult__": "1.0", 
        "__shape__": "(384, 0, 1, 1)", 
        "__storage_type__": "0", 
        "__wd_mult__": "1.0"
      }, 
      "inputs": []
    }, 
    {
      "op": "null", 
      "name": "conv49_bias", 
      "attrs": {
        "__dtype__": "0", 
        "__init__": "zeros", 
        "__lr_mult__": "1.0", 
        "__shape__": "(384,)", 
        "__storage_type__": "0", 
        "__wd_mult__": "1.0"
      }, 
      "inputs": []
    }, 
    {
      "op": "Convolution", 
      "name": "conv49_fwd", 
      "attrs": {
        "dilate": "(1, 1)", 
        "kernel": "(1, 1)", 
        "layout": "NCHW", 
        "no_bias": "False", 
        "num_filter": "384", 
        "num_group": "1", 
        "pad": "(0, 0)", 
        "stride": "(1, 1)"
      }, 
      "inputs": [[195, 0, 0], [196, 0, 0], [197, 0, 0]]
    }, 
    {
      "op": "Activation", 
      "name": "silu24_sigmoid0_fwd", 
      "attrs": {"act_type": "sigmoid"}, 
      "inputs": [[198, 0, 0]]
    }, 
    {
      "op": "elemwise_mul", 
      "name": "silu24__mul0", 
      "inputs": [[198, 0, 0], [199, 0, 0]]
    }, 
    {
      "op": "null", 
      "name": "conv75_weight", 
      "attrs": {
        "__dtype__": "0", 
        "__lr_mult__": "1.0", 
        "__shape__": "(768, 0, 3, 3)", 
        "__storage_type__": "0", 
        "__wd_mult__": "1.0"
      }, 
      "inputs": []
    }, 
    {
      "op": "null", 
      "name": "conv75_bias", 
      "attrs": {
        "__dtype__": "0", 
        "__init__": "zeros", 
        "__lr_mult__": "1.0", 
        "__shape__": "(768,)", 
        "__storage_type__": "0", 
        "__wd_mult__": "1.0"
      }, 
      "inputs": []
    }, 
    {
      "op": "Convolution", 
      "name": "conv75_fwd", 
      "attrs": {
        "dilate": "(1, 1)", 
        "kernel": "(3, 3)", 
        "layout": "NCHW", 
        "no_bias": "False", 
        "num_filter": "768", 
        "num_group": "1", 
        "pad": "(1, 1)", 
        "stride": "(2, 2)"
      }, 
      "inputs": [[200, 0, 0], [201, 0, 0], [202, 0, 0]]
    }, 
    {
      "op": "Activation", 
      "name": "silu37_sigmoid0_fwd", 
      "attrs": {"act_type": "sigmoid"}, 
      "inputs": [[203, 0, 0]]
    }, 
    {
      "op": "elemwise_mul", 
      "name": "silu37__mul0", 
      "inputs": [[203, 0, 0], [204, 0, 0]]
    }, 
    {
      "op": "null", 
      "name": "conv77_weight", 
      "attrs": {
        "__dtype__": "0", 
        "__lr_mult__": "1.0", 
        "__shape__": "(384, 0, 1, 1)", 
        "__storage_type__": "0", 
        "__wd_mult__": "1.0"
      }, 
      "inputs": []
    }, 
    {
      "op": "null", 
      "name": "conv77_bias", 
      "attrs": {
        "__dtype__": "0", 
        "__init__": "zeros", 
        "__lr_mult__": "1.0", 
        "__shape__": "(384,)", 
        "__storage_type__": "0", 
        "__wd_mult__": "1.0"
      }, 
      "inputs": []
    }, 
    {
      "op": "Convolution", 
      "name": "conv77_fwd", 
      "attrs": {
        "dilate": "(1, 1)", 
        "kernel": "(1, 1)", 
        "layout": "NCHW", 
        "no_bias": "False", 
        "num_filter": "384", 
        "num_group": "1", 
        "pad": "(0, 0)", 
        "stride": "(1, 1)"
      }, 
      "inputs": [[205, 0, 0], [206, 0, 0], [207, 0, 0]]
    }, 
    {
      "op": "Activation", 
      "name": "silu38_sigmoid0_fwd", 
      "attrs": {"act_type": "sigmoid"}, 
      "inputs": [[208, 0, 0]]
    }, 
    {
      "op": "elemwise_mul", 
      "name": "silu38__mul0", 
      "inputs": [[208, 0, 0], [209, 0, 0]]
    }, 
    {
      "op": "null", 
      "name": "conv83_weight", 
      "attrs": {
        "__dtype__": "0", 
        "__lr_mult__": "1.0", 
        "__shape__": "(384, 0, 1, 1)", 
        "__storage_type__": "0", 
        "__wd_mult__": "1.0"
      }, 
      "inputs": []
    }, 
    {
      "op": "null", 
      "name": "conv83_bias", 
      "attrs": {
        "__dtype__": "0", 
        "__init__": "zeros", 
        "__lr_mult__": "1.0", 
        "__shape__": "(384,)", 
        "__storage_type__": "0", 
        "__wd_mult__": "1.0"
      }, 
      "inputs": []
    }, 
    {
      "op": "Convolution", 
      "name": "conv83_fwd", 
      "attrs": {
        "dilate": "(1, 1)", 
        "kernel": "(1, 1)", 
        "layout": "NCHW", 
        "no_bias": "False", 
        "num_filter": "384", 
        "num_group": "1", 
        "pad": "(0, 0)", 
        "stride": "(1, 1)"
      }, 
      "inputs": [[210, 0, 0], [211, 0, 0], [212, 0, 0]]
    }, 
    {
      "op": "Activation", 
      "name": "silu41_sigmoid0_fwd", 
      "attrs": {"act_type": "sigmoid"}, 
      "inputs": [[213, 0, 0]]
    }, 
    {
      "op": "elemwise_mul", 
      "name": "silu41__mul0", 
      "inputs": [[213, 0, 0], [214, 0, 0]]
    }, 
    {
      "op": "null", 
      "name": "conv85_weight", 
      "attrs": {
        "__dtype__": "0", 
        "__lr_mult__": "1.0", 
        "__shape__": "(384, 0, 3, 3)", 
        "__storage_type__": "0", 
        "__wd_mult__": "1.0"
      }, 
      "inputs": []
    }, 
    {
      "op": "null", 
      "name": "conv85_bias", 
      "attrs": {
        "__dtype__": "0", 
        "__init__": "zeros", 
        "__lr_mult__": "1.0", 
        "__shape__": "(384,)", 
        "__storage_type__": "0", 
        "__wd_mult__": "1.0"
      }, 
      "inputs": []
    }, 
    {
      "op": "Convolution", 
      "name": "conv85_fwd", 
      "attrs": {
        "dilate": "(1, 1)", 
        "kernel": "(3, 3)", 
        "layout": "NCHW", 
        "no_bias": "False", 
        "num_filter": "384", 
        "num_group": "1", 
        "pad": "(1, 1)", 
        "stride": "(1, 1)"
      }, 
      "inputs": [[215, 0, 0], [216, 0, 0], [217, 0, 0]]
    }, 
    {
      "op": "Activation", 
      "name": "silu42_sigmoid0_fwd", 
      "attrs": {"act_type": "sigmoid"}, 
      "inputs": [[218, 0, 0]]
    }, 
    {
      "op": "elemwise_mul", 
      "name": "silu42__mul0", 
      "inputs": [[218, 0, 0], [219, 0, 0]]
    }, 
    {
      "op": "elemwise_add", 
      "name": "bottle12__plus0", 
      "inputs": [[210, 0, 0], [220, 0, 0]]
    }, 
    {
      "op": "null", 
      "name": "conv87_weight", 
      "attrs": {
        "__dtype__": "0", 
        "__lr_mult__": "1.0", 
        "__shape__": "(384, 0, 1, 1)", 
        "__storage_type__": "0", 
        "__wd_mult__": "1.0"
      }, 
      "inputs": []
    }, 
    {
      "op": "null", 
      "name": "conv87_bias", 
      "attrs": {
        "__dtype__": "0", 
        "__init__": "zeros", 
        "__lr_mult__": "1.0", 
        "__shape__": "(384,)", 
        "__storage_type__": "0", 
        "__wd_mult__": "1.0"
      }, 
      "inputs": []
    }, 
    {
      "op": "Convolution", 
      "name": "conv87_fwd", 
      "attrs": {
        "dilate": "(1, 1)", 
        "kernel": "(1, 1)", 
        "layout": "NCHW", 
        "no_bias": "False", 
        "num_filter": "384", 
        "num_group": "1", 
        "pad": "(0, 0)", 
        "stride": "(1, 1)"
      }, 
      "inputs": [[221, 0, 0], [222, 0, 0], [223, 0, 0]]
    }, 
    {
      "op": "Activation", 
      "name": "silu43_sigmoid0_fwd", 
      "attrs": {"act_type": "sigmoid"}, 
      "inputs": [[224, 0, 0]]
    }, 
    {
      "op": "elemwise_mul", 
      "name": "silu43__mul0", 
      "inputs": [[224, 0, 0], [225, 0, 0]]
    }, 
    {
      "op": "null", 
      "name": "conv89_weight", 
      "attrs": {
        "__dtype__": "0", 
        "__lr_mult__": "1.0", 
        "__shape__": "(384, 0, 3, 3)", 
        "__storage_type__": "0", 
        "__wd_mult__": "1.0"
      }, 
      "inputs": []
    }, 
    {
      "op": "null", 
      "name": "conv89_bias", 
      "attrs": {
        "__dtype__": "0", 
        "__init__": "zeros", 
        "__lr_mult__": "1.0", 
        "__shape__": "(384,)", 
        "__storage_type__": "0", 
        "__wd_mult__": "1.0"
      }, 
      "inputs": []
    }, 
    {
      "op": "Convolution", 
      "name": "conv89_fwd", 
      "attrs": {
        "dilate": "(1, 1)", 
        "kernel": "(3, 3)", 
        "layout": "NCHW", 
        "no_bias": "False", 
        "num_filter": "384", 
        "num_group": "1", 
        "pad": "(1, 1)", 
        "stride": "(1, 1)"
      }, 
      "inputs": [[226, 0, 0], [227, 0, 0], [228, 0, 0]]
    }, 
    {
      "op": "Activation", 
      "name": "silu44_sigmoid0_fwd", 
      "attrs": {"act_type": "sigmoid"}, 
      "inputs": [[229, 0, 0]]
    }, 
    {
      "op": "elemwise_mul", 
      "name": "silu44__mul0", 
      "inputs": [[229, 0, 0], [230, 0, 0]]
    }, 
    {
      "op": "elemwise_add", 
      "name": "bottle13__plus0", 
      "inputs": [[221, 0, 0], [231, 0, 0]]
    }, 
    {
      "op": "null", 
      "name": "conv79_weight", 
      "attrs": {
        "__dtype__": "0", 
        "__lr_mult__": "1.0", 
        "__shape__": "(384, 0, 1, 1)", 
        "__storage_type__": "0", 
        "__wd_mult__": "1.0"
      }, 
      "inputs": []
    }, 
    {
      "op": "null", 
      "name": "conv79_bias", 
      "attrs": {
        "__dtype__": "0", 
        "__init__": "zeros", 
        "__lr_mult__": "1.0", 
        "__shape__": "(384,)", 
        "__storage_type__": "0", 
        "__wd_mult__": "1.0"
      }, 
      "inputs": []
    }, 
    {
      "op": "Convolution", 
      "name": "conv79_fwd", 
      "attrs": {
        "dilate": "(1, 1)", 
        "kernel": "(1, 1)", 
        "layout": "NCHW", 
        "no_bias": "False", 
        "num_filter": "384", 
        "num_group": "1", 
        "pad": "(0, 0)", 
        "stride": "(1, 1)"
      }, 
      "inputs": [[205, 0, 0], [233, 0, 0], [234, 0, 0]]
    }, 
    {
      "op": "Activation", 
      "name": "silu39_sigmoid0_fwd", 
      "attrs": {"act_type": "sigmoid"}, 
      "inputs": [[235, 0, 0]]
    }, 
    {
      "op": "elemwise_mul", 
      "name": "silu39__mul0", 
      "inputs": [[235, 0, 0], [236, 0, 0]]
    }, 
    {
      "op": "Concat", 
      "name": "c3_rep21_concat0", 
      "attrs": {
        "dim": "1", 
        "num_args": "2"
      }, 
      "inputs": [[232, 0, 0], [237, 0, 0]]
    }, 
    {
      "op": "null", 
      "name": "conv81_weight", 
      "attrs": {
        "__dtype__": "0", 
        "__lr_mult__": "1.0", 
        "__shape__": "(768, 0, 1, 1)", 
        "__storage_type__": "0", 
        "__wd_mult__": "1.0"
      }, 
      "inputs": []
    }, 
    {
      "op": "null", 
      "name": "conv81_bias", 
      "attrs": {
        "__dtype__": "0", 
        "__init__": "zeros", 
        "__lr_mult__": "1.0", 
        "__shape__": "(768,)", 
        "__storage_type__": "0", 
        "__wd_mult__": "1.0"
      }, 
      "inputs": []
    }, 
    {
      "op": "Convolution", 
      "name": "conv81_fwd", 
      "attrs": {
        "dilate": "(1, 1)", 
        "kernel": "(1, 1)", 
        "layout": "NCHW", 
        "no_bias": "False", 
        "num_filter": "768", 
        "num_group": "1", 
        "pad": "(0, 0)", 
        "stride": "(1, 1)"
      }, 
      "inputs": [[238, 0, 0], [239, 0, 0], [240, 0, 0]]
    }, 
    {
      "op": "Activation", 
      "name": "silu40_sigmoid0_fwd", 
      "attrs": {"act_type": "sigmoid"}, 
      "inputs": [[241, 0, 0]]
    }, 
    {
      "op": "elemwise_mul", 
      "name": "silu40__mul0", 
      "inputs": [[241, 0, 0], [242, 0, 0]]
    }, 
    {
      "op": "null", 
      "name": "conv91_weight", 
      "attrs": {
        "__dtype__": "0", 
        "__lr_mult__": "1.0", 
        "__shape__": "(384, 0, 1, 1)", 
        "__storage_type__": "0", 
        "__wd_mult__": "1.0"
      }, 
      "inputs": []
    }, 
    {
      "op": "null", 
      "name": "conv91_bias", 
      "attrs": {
        "__dtype__": "0", 
        "__init__": "zeros", 
        "__lr_mult__": "1.0", 
        "__shape__": "(384,)", 
        "__storage_type__": "0", 
        "__wd_mult__": "1.0"
      }, 
      "inputs": []
    }, 
    {
      "op": "Convolution", 
      "name": "conv91_fwd", 
      "attrs": {
        "dilate": "(1, 1)", 
        "kernel": "(1, 1)", 
        "layout": "NCHW", 
        "no_bias": "False", 
        "num_filter": "384", 
        "num_group": "1", 
        "pad": "(0, 0)", 
        "stride": "(1, 1)"
      }, 
      "inputs": [[243, 0, 0], [244, 0, 0], [245, 0, 0]]
    }, 
    {
      "op": "Activation", 
      "name": "silu45_sigmoid0_fwd", 
      "attrs": {"act_type": "sigmoid"}, 
      "inputs": [[246, 0, 0]]
    }, 
    {
      "op": "elemwise_mul", 
      "name": "silu45__mul0", 
      "inputs": [[246, 0, 0], [247, 0, 0]]
    }, 
    {
      "op": "Pooling", 
      "name": "pool0_fwd", 
      "attrs": {
        "global_pool": "False", 
        "kernel": "(5, 5)", 
        "layout": "NCHW", 
        "pad": "(2, 2)", 
        "pool_type": "max", 
        "pooling_convention": "valid", 
        "stride": "(1, 1)"
      }, 
      "inputs": [[248, 0, 0]]
    }, 
    {
      "op": "Pooling", 
      "name": "pool0_fwd", 
      "attrs": {
        "global_pool": "False", 
        "kernel": "(5, 5)", 
        "layout": "NCHW", 
        "pad": "(2, 2)", 
        "pool_type": "max", 
        "pooling_convention": "valid", 
        "stride": "(1, 1)"
      }, 
      "inputs": [[249, 0, 0]]
    }, 
    {
      "op": "Pooling", 
      "name": "pool0_fwd", 
      "attrs": {
        "global_pool": "False", 
        "kernel": "(5, 5)", 
        "layout": "NCHW", 
        "pad": "(2, 2)", 
        "pool_type": "max", 
        "pooling_convention": "valid", 
        "stride": "(1, 1)"
      }, 
      "inputs": [[250, 0, 0]]
    }, 
    {
      "op": "Concat", 
      "name": "sppf0_concat0", 
      "attrs": {
        "dim": "1", 
        "num_args": "4"
      }, 
      "inputs": [[248, 0, 0], [249, 0, 0], [250, 0, 0], [251, 0, 0]]
    }, 
    {
      "op": "null", 
      "name": "conv93_weight", 
      "attrs": {
        "__dtype__": "0", 
        "__lr_mult__": "1.0", 
        "__shape__": "(768, 0, 1, 1)", 
        "__storage_type__": "0", 
        "__wd_mult__": "1.0"
      }, 
      "inputs": []
    }, 
    {
      "op": "null", 
      "name": "conv93_bias", 
      "attrs": {
        "__dtype__": "0", 
        "__init__": "zeros", 
        "__lr_mult__": "1.0", 
        "__shape__": "(768,)", 
        "__storage_type__": "0", 
        "__wd_mult__": "1.0"
      }, 
      "inputs": []
    }, 
    {
      "op": "Convolution", 
      "name": "conv93_fwd", 
      "attrs": {
        "dilate": "(1, 1)", 
        "kernel": "(1, 1)", 
        "layout": "NCHW", 
        "no_bias": "False", 
        "num_filter": "768", 
        "num_group": "1", 
        "pad": "(0, 0)", 
        "stride": "(1, 1)"
      }, 
      "inputs": [[252, 0, 0], [253, 0, 0], [254, 0, 0]]
    }, 
    {
      "op": "Activation", 
      "name": "silu46_sigmoid0_fwd", 
      "attrs": {"act_type": "sigmoid"}, 
      "inputs": [[255, 0, 0]]
    }, 
    {
      "op": "elemwise_mul", 
      "name": "silu46__mul0", 
      "inputs": [[255, 0, 0], [256, 0, 0]]
    }, 
    {
      "op": "null", 
      "name": "conv95_weight", 
      "attrs": {
        "__dtype__": "0", 
        "__lr_mult__": "1.0", 
        "__shape__": "(384, 0, 1, 1)", 
        "__storage_type__": "0", 
        "__wd_mult__": "1.0"
      }, 
      "inputs": []
    }, 
    {
      "op": "null", 
      "name": "conv95_bias", 
      "attrs": {
        "__dtype__": "0", 
        "__init__": "zeros", 
        "__lr_mult__": "1.0", 
        "__shape__": "(384,)", 
        "__storage_type__": "0", 
        "__wd_mult__": "1.0"
      }, 
      "inputs": []
    }, 
    {
      "op": "Convolution", 
      "name": "conv95_fwd", 
      "attrs": {
        "dilate": "(1, 1)", 
        "kernel": "(1, 1)", 
        "layout": "NCHW", 
        "no_bias": "False", 
        "num_filter": "384", 
        "num_group": "1", 
        "pad": "(0, 0)", 
        "stride": "(1, 1)"
      }, 
      "inputs": [[257, 0, 0], [258, 0, 0], [259, 0, 0]]
    }, 
    {
      "op": "Activation", 
      "name": "silu47_sigmoid0_fwd", 
      "attrs": {"act_type": "sigmoid"}, 
      "inputs": [[260, 0, 0]]
    }, 
    {
      "op": "elemwise_mul", 
      "name": "silu47__mul0", 
      "inputs": [[260, 0, 0], [261, 0, 0]]
    }, 
    {
      "op": "repeat", 
      "name": "resize0_repeat0", 
      "attrs": {
        "axis": "2", 
        "repeats": "2"
      }, 
      "inputs": [[262, 0, 0]]
    }, 
    {
      "op": "repeat", 
      "name": "resize0_repeat1", 
      "attrs": {
        "axis": "3", 
        "repeats": "2"
      }, 
      "inputs": [[263, 0, 0]]
    }, 
    {
      "op": "Concat", 
      "name": "cat0_concat0", 
      "attrs": {
        "dim": "1", 
        "num_args": "2"
      }, 
      "inputs": [[264, 0, 0], [200, 0, 0]]
    }, 
    {
      "op": "null", 
      "name": "conv97_weight", 
      "attrs": {
        "__dtype__": "0", 
        "__lr_mult__": "1.0", 
        "__shape__": "(192, 0, 1, 1)", 
        "__storage_type__": "0", 
        "__wd_mult__": "1.0"
      }, 
      "inputs": []
    }, 
    {
      "op": "null", 
      "name": "conv97_bias", 
      "attrs": {
        "__dtype__": "0", 
        "__init__": "zeros", 
        "__lr_mult__": "1.0", 
        "__shape__": "(192,)", 
        "__storage_type__": "0", 
        "__wd_mult__": "1.0"
      }, 
      "inputs": []
    }, 
    {
      "op": "Convolution", 
      "name": "conv97_fwd", 
      "attrs": {
        "dilate": "(1, 1)", 
        "kernel": "(1, 1)", 
        "layout": "NCHW", 
        "no_bias": "False", 
        "num_filter": "192", 
        "num_group": "1", 
        "pad": "(0, 0)", 
        "stride": "(1, 1)"
      }, 
      "inputs": [[265, 0, 0], [266, 0, 0], [267, 0, 0]]
    }, 
    {
      "op": "Activation", 
      "name": "silu48_sigmoid0_fwd", 
      "attrs": {"act_type": "sigmoid"}, 
      "inputs": [[268, 0, 0]]
    }, 
    {
      "op": "elemwise_mul", 
      "name": "silu48__mul0", 
      "inputs": [[268, 0, 0], [269, 0, 0]]
    }, 
    {
      "op": "null", 
      "name": "conv103_weight", 
      "attrs": {
        "__dtype__": "0", 
        "__lr_mult__": "1.0", 
        "__shape__": "(192, 0, 1, 1)", 
        "__storage_type__": "0", 
        "__wd_mult__": "1.0"
      }, 
      "inputs": []
    }, 
    {
      "op": "null", 
      "name": "conv103_bias", 
      "attrs": {
        "__dtype__": "0", 
        "__init__": "zeros", 
        "__lr_mult__": "1.0", 
        "__shape__": "(192,)", 
        "__storage_type__": "0", 
        "__wd_mult__": "1.0"
      }, 
      "inputs": []
    }, 
    {
      "op": "Convolution", 
      "name": "conv103_fwd", 
      "attrs": {
        "dilate": "(1, 1)", 
        "kernel": "(1, 1)", 
        "layout": "NCHW", 
        "no_bias": "False", 
        "num_filter": "192", 
        "num_group": "1", 
        "pad": "(0, 0)", 
        "stride": "(1, 1)"
      }, 
      "inputs": [[270, 0, 0], [271, 0, 0], [272, 0, 0]]
    }, 
    {
      "op": "Activation", 
      "name": "silu51_sigmoid0_fwd", 
      "attrs": {"act_type": "sigmoid"}, 
      "inputs": [[273, 0, 0]]
    }, 
    {
      "op": "elemwise_mul", 
      "name": "silu51__mul0", 
      "inputs": [[273, 0, 0], [274, 0, 0]]
    }, 
    {
      "op": "null", 
      "name": "conv105_weight", 
      "attrs": {
        "__dtype__": "0", 
        "__lr_mult__": "1.0", 
        "__shape__": "(192, 0, 3, 3)", 
        "__storage_type__": "0", 
        "__wd_mult__": "1.0"
      }, 
      "inputs": []
    }, 
    {
      "op": "null", 
      "name": "conv105_bias", 
      "attrs": {
        "__dtype__": "0", 
        "__init__": "zeros", 
        "__lr_mult__": "1.0", 
        "__shape__": "(192,)", 
        "__storage_type__": "0", 
        "__wd_mult__": "1.0"
      }, 
      "inputs": []
    }, 
    {
      "op": "Convolution", 
      "name": "conv105_fwd", 
      "attrs": {
        "dilate": "(1, 1)", 
        "kernel": "(3, 3)", 
        "layout": "NCHW", 
        "no_bias": "False", 
        "num_filter": "192", 
        "num_group": "1", 
        "pad": "(1, 1)", 
        "stride": "(1, 1)"
      }, 
      "inputs": [[275, 0, 0], [276, 0, 0], [277, 0, 0]]
    }, 
    {
      "op": "Activation", 
      "name": "silu52_sigmoid0_fwd", 
      "attrs": {"act_type": "sigmoid"}, 
      "inputs": [[278, 0, 0]]
    }, 
    {
      "op": "elemwise_mul", 
      "name": "silu52__mul0", 
      "inputs": [[278, 0, 0], [279, 0, 0]]
    }, 
    {
      "op": "null", 
      "name": "conv107_weight", 
      "attrs": {
        "__dtype__": "0", 
        "__lr_mult__": "1.0", 
        "__shape__": "(192, 0, 1, 1)", 
        "__storage_type__": "0", 
        "__wd_mult__": "1.0"
      }, 
      "inputs": []
    }, 
    {
      "op": "null", 
      "name": "conv107_bias", 
      "attrs": {
        "__dtype__": "0", 
        "__init__": "zeros", 
        "__lr_mult__": "1.0", 
        "__shape__": "(192,)", 
        "__storage_type__": "0", 
        "__wd_mult__": "1.0"
      }, 
      "inputs": []
    }, 
    {
      "op": "Convolution", 
      "name": "conv107_fwd", 
      "attrs": {
        "dilate": "(1, 1)", 
        "kernel": "(1, 1)", 
        "layout": "NCHW", 
        "no_bias": "False", 
        "num_filter": "192", 
        "num_group": "1", 
        "pad": "(0, 0)", 
        "stride": "(1, 1)"
      }, 
      "inputs": [[280, 0, 0], [281, 0, 0], [282, 0, 0]]
    }, 
    {
      "op": "Activation", 
      "name": "silu53_sigmoid0_fwd", 
      "attrs": {"act_type": "sigmoid"}, 
      "inputs": [[283, 0, 0]]
    }, 
    {
      "op": "elemwise_mul", 
      "name": "silu53__mul0", 
      "inputs": [[283, 0, 0], [284, 0, 0]]
    }, 
    {
      "op": "null", 
      "name": "conv109_weight", 
      "attrs": {
        "__dtype__": "0", 
        "__lr_mult__": "1.0", 
        "__shape__": "(192, 0, 3, 3)", 
        "__storage_type__": "0", 
        "__wd_mult__": "1.0"
      }, 
      "inputs": []
    }, 
    {
      "op": "null", 
      "name": "conv109_bias", 
      "attrs": {
        "__dtype__": "0", 
        "__init__": "zeros", 
        "__lr_mult__": "1.0", 
        "__shape__": "(192,)", 
        "__storage_type__": "0", 
        "__wd_mult__": "1.0"
      }, 
      "inputs": []
    }, 
    {
      "op": "Convolution", 
      "name": "conv109_fwd", 
      "attrs": {
        "dilate": "(1, 1)", 
        "kernel": "(3, 3)", 
        "layout": "NCHW", 
        "no_bias": "False", 
        "num_filter": "192", 
        "num_group": "1", 
        "pad": "(1, 1)", 
        "stride": "(1, 1)"
      }, 
      "inputs": [[285, 0, 0], [286, 0, 0], [287, 0, 0]]
    }, 
    {
      "op": "Activation", 
      "name": "silu54_sigmoid0_fwd", 
      "attrs": {"act_type": "sigmoid"}, 
      "inputs": [[288, 0, 0]]
    }, 
    {
      "op": "elemwise_mul", 
      "name": "silu54__mul0", 
      "inputs": [[288, 0, 0], [289, 0, 0]]
    }, 
    {
      "op": "null", 
      "name": "conv99_weight", 
      "attrs": {
        "__dtype__": "0", 
        "__lr_mult__": "1.0", 
        "__shape__": "(192, 0, 1, 1)", 
        "__storage_type__": "0", 
        "__wd_mult__": "1.0"
      }, 
      "inputs": []
    }, 
    {
      "op": "null", 
      "name": "conv99_bias", 
      "attrs": {
        "__dtype__": "0", 
        "__init__": "zeros", 
        "__lr_mult__": "1.0", 
        "__shape__": "(192,)", 
        "__storage_type__": "0", 
        "__wd_mult__": "1.0"
      }, 
      "inputs": []
    }, 
    {
      "op": "Convolution", 
      "name": "conv99_fwd", 
      "attrs": {
        "dilate": "(1, 1)", 
        "kernel": "(1, 1)", 
        "layout": "NCHW", 
        "no_bias": "False", 
        "num_filter": "192", 
        "num_group": "1", 
        "pad": "(0, 0)", 
        "stride": "(1, 1)"
      }, 
      "inputs": [[265, 0, 0], [291, 0, 0], [292, 0, 0]]
    }, 
    {
      "op": "Activation", 
      "name": "silu49_sigmoid0_fwd", 
      "attrs": {"act_type": "sigmoid"}, 
      "inputs": [[293, 0, 0]]
    }, 
    {
      "op": "elemwise_mul", 
      "name": "silu49__mul0", 
      "inputs": [[293, 0, 0], [294, 0, 0]]
    }, 
    {
      "op": "Concat", 
      "name": "c3_rep22_concat0", 
      "attrs": {
        "dim": "1", 
        "num_args": "2"
      }, 
      "inputs": [[290, 0, 0], [295, 0, 0]]
    }, 
    {
      "op": "null", 
      "name": "conv101_weight", 
      "attrs": {
        "__dtype__": "0", 
        "__lr_mult__": "1.0", 
        "__shape__": "(384, 0, 1, 1)", 
        "__storage_type__": "0", 
        "__wd_mult__": "1.0"
      }, 
      "inputs": []
    }, 
    {
      "op": "null", 
      "name": "conv101_bias", 
      "attrs": {
        "__dtype__": "0", 
        "__init__": "zeros", 
        "__lr_mult__": "1.0", 
        "__shape__": "(384,)", 
        "__storage_type__": "0", 
        "__wd_mult__": "1.0"
      }, 
      "inputs": []
    }, 
    {
      "op": "Convolution", 
      "name": "conv101_fwd", 
      "attrs": {
        "dilate": "(1, 1)", 
        "kernel": "(1, 1)", 
        "layout": "NCHW", 
        "no_bias": "False", 
        "num_filter": "384", 
        "num_group": "1", 
        "pad": "(0, 0)", 
        "stride": "(1, 1)"
      }, 
      "inputs": [[296, 0, 0], [297, 0, 0], [298, 0, 0]]
    }, 
    {
      "op": "Activation", 
      "name": "silu50_sigmoid0_fwd", 
      "attrs": {"act_type": "sigmoid"}, 
      "inputs": [[299, 0, 0]]
    }, 
    {
      "op": "elemwise_mul", 
      "name": "silu50__mul0", 
      "inputs": [[299, 0, 0], [300, 0, 0]]
    }, 
    {
      "op": "null", 
      "name": "conv111_weight", 
      "attrs": {
        "__dtype__": "0", 
        "__lr_mult__": "1.0", 
        "__shape__": "(192, 0, 1, 1)", 
        "__storage_type__": "0", 
        "__wd_mult__": "1.0"
      }, 
      "inputs": []
    }, 
    {
      "op": "null", 
      "name": "conv111_bias", 
      "attrs": {
        "__dtype__": "0", 
        "__init__": "zeros", 
        "__lr_mult__": "1.0", 
        "__shape__": "(192,)", 
        "__storage_type__": "0", 
        "__wd_mult__": "1.0"
      }, 
      "inputs": []
    }, 
    {
      "op": "Convolution", 
      "name": "conv111_fwd", 
      "attrs": {
        "dilate": "(1, 1)", 
        "kernel": "(1, 1)", 
        "layout": "NCHW", 
        "no_bias": "False", 
        "num_filter": "192", 
        "num_group": "1", 
        "pad": "(0, 0)", 
        "stride": "(1, 1)"
      }, 
      "inputs": [[301, 0, 0], [302, 0, 0], [303, 0, 0]]
    }, 
    {
      "op": "Activation", 
      "name": "silu55_sigmoid0_fwd", 
      "attrs": {"act_type": "sigmoid"}, 
      "inputs": [[304, 0, 0]]
    }, 
    {
      "op": "elemwise_mul", 
      "name": "silu55__mul0", 
      "inputs": [[304, 0, 0], [305, 0, 0]]
    }, 
    {
      "op": "repeat", 
      "name": "resize1_repeat0", 
      "attrs": {
        "axis": "2", 
        "repeats": "2"
      }, 
      "inputs": [[306, 0, 0]]
    }, 
    {
      "op": "repeat", 
      "name": "resize1_repeat1", 
      "attrs": {
        "axis": "3", 
        "repeats": "2"
      }, 
      "inputs": [[307, 0, 0]]
    }, 
    {
      "op": "Concat", 
      "name": "cat1_concat0", 
      "attrs": {
        "dim": "1", 
        "num_args": "2"
      }, 
      "inputs": [[308, 0, 0], [113, 0, 0]]
    }, 
    {
      "op": "null", 
      "name": "conv113_weight", 
      "attrs": {
        "__dtype__": "0", 
        "__lr_mult__": "1.0", 
        "__shape__": "(96, 0, 1, 1)", 
        "__storage_type__": "0", 
        "__wd_mult__": "1.0"
      }, 
      "inputs": []
    }, 
    {
      "op": "null", 
      "name": "conv113_bias", 
      "attrs": {
        "__dtype__": "0", 
        "__init__": "zeros", 
        "__lr_mult__": "1.0", 
        "__shape__": "(96,)", 
        "__storage_type__": "0", 
        "__wd_mult__": "1.0"
      }, 
      "inputs": []
    }, 
    {
      "op": "Convolution", 
      "name": "conv113_fwd", 
      "attrs": {
        "dilate": "(1, 1)", 
        "kernel": "(1, 1)", 
        "layout": "NCHW", 
        "no_bias": "False", 
        "num_filter": "96", 
        "num_group": "1", 
        "pad": "(0, 0)", 
        "stride": "(1, 1)"
      }, 
      "inputs": [[309, 0, 0], [310, 0, 0], [311, 0, 0]]
    }, 
    {
      "op": "Activation", 
      "name": "silu56_sigmoid0_fwd", 
      "attrs": {"act_type": "sigmoid"}, 
      "inputs": [[312, 0, 0]]
    }, 
    {
      "op": "elemwise_mul", 
      "name": "silu56__mul0", 
      "inputs": [[312, 0, 0], [313, 0, 0]]
    }, 
    {
      "op": "null", 
      "name": "conv119_weight", 
      "attrs": {
        "__dtype__": "0", 
        "__lr_mult__": "1.0", 
        "__shape__": "(96, 0, 1, 1)", 
        "__storage_type__": "0", 
        "__wd_mult__": "1.0"
      }, 
      "inputs": []
    }, 
    {
      "op": "null", 
      "name": "conv119_bias", 
      "attrs": {
        "__dtype__": "0", 
        "__init__": "zeros", 
        "__lr_mult__": "1.0", 
        "__shape__": "(96,)", 
        "__storage_type__": "0", 
        "__wd_mult__": "1.0"
      }, 
      "inputs": []
    }, 
    {
      "op": "Convolution", 
      "name": "conv119_fwd", 
      "attrs": {
        "dilate": "(1, 1)", 
        "kernel": "(1, 1)", 
        "layout": "NCHW", 
        "no_bias": "False", 
        "num_filter": "96", 
        "num_group": "1", 
        "pad": "(0, 0)", 
        "stride": "(1, 1)"
      }, 
      "inputs": [[314, 0, 0], [315, 0, 0], [316, 0, 0]]
    }, 
    {
      "op": "Activation", 
      "name": "silu59_sigmoid0_fwd", 
      "attrs": {"act_type": "sigmoid"}, 
      "inputs": [[317, 0, 0]]
    }, 
    {
      "op": "elemwise_mul", 
      "name": "silu59__mul0", 
      "inputs": [[317, 0, 0], [318, 0, 0]]
    }, 
    {
      "op": "null", 
      "name": "conv121_weight", 
      "attrs": {
        "__dtype__": "0", 
        "__lr_mult__": "1.0", 
        "__shape__": "(96, 0, 3, 3)", 
        "__storage_type__": "0", 
        "__wd_mult__": "1.0"
      }, 
      "inputs": []
    }, 
    {
      "op": "null", 
      "name": "conv121_bias", 
      "attrs": {
        "__dtype__": "0", 
        "__init__": "zeros", 
        "__lr_mult__": "1.0", 
        "__shape__": "(96,)", 
        "__storage_type__": "0", 
        "__wd_mult__": "1.0"
      }, 
      "inputs": []
    }, 
    {
      "op": "Convolution", 
      "name": "conv121_fwd", 
      "attrs": {
        "dilate": "(1, 1)", 
        "kernel": "(3, 3)", 
        "layout": "NCHW", 
        "no_bias": "False", 
        "num_filter": "96", 
        "num_group": "1", 
        "pad": "(1, 1)", 
        "stride": "(1, 1)"
      }, 
      "inputs": [[319, 0, 0], [320, 0, 0], [321, 0, 0]]
    }, 
    {
      "op": "Activation", 
      "name": "silu60_sigmoid0_fwd", 
      "attrs": {"act_type": "sigmoid"}, 
      "inputs": [[322, 0, 0]]
    }, 
    {
      "op": "elemwise_mul", 
      "name": "silu60__mul0", 
      "inputs": [[322, 0, 0], [323, 0, 0]]
    }, 
    {
      "op": "null", 
      "name": "conv123_weight", 
      "attrs": {
        "__dtype__": "0", 
        "__lr_mult__": "1.0", 
        "__shape__": "(96, 0, 1, 1)", 
        "__storage_type__": "0", 
        "__wd_mult__": "1.0"
      }, 
      "inputs": []
    }, 
    {
      "op": "null", 
      "name": "conv123_bias", 
      "attrs": {
        "__dtype__": "0", 
        "__init__": "zeros", 
        "__lr_mult__": "1.0", 
        "__shape__": "(96,)", 
        "__storage_type__": "0", 
        "__wd_mult__": "1.0"
      }, 
      "inputs": []
    }, 
    {
      "op": "Convolution", 
      "name": "conv123_fwd", 
      "attrs": {
        "dilate": "(1, 1)", 
        "kernel": "(1, 1)", 
        "layout": "NCHW", 
        "no_bias": "False", 
        "num_filter": "96", 
        "num_group": "1", 
        "pad": "(0, 0)", 
        "stride": "(1, 1)"
      }, 
      "inputs": [[324, 0, 0], [325, 0, 0], [326, 0, 0]]
    }, 
    {
      "op": "Activation", 
      "name": "silu61_sigmoid0_fwd", 
      "attrs": {"act_type": "sigmoid"}, 
      "inputs": [[327, 0, 0]]
    }, 
    {
      "op": "elemwise_mul", 
      "name": "silu61__mul0", 
      "inputs": [[327, 0, 0], [328, 0, 0]]
    }, 
    {
      "op": "null", 
      "name": "conv125_weight", 
      "attrs": {
        "__dtype__": "0", 
        "__lr_mult__": "1.0", 
        "__shape__": "(96, 0, 3, 3)", 
        "__storage_type__": "0", 
        "__wd_mult__": "1.0"
      }, 
      "inputs": []
    }, 
    {
      "op": "null", 
      "name": "conv125_bias", 
      "attrs": {
        "__dtype__": "0", 
        "__init__": "zeros", 
        "__lr_mult__": "1.0", 
        "__shape__": "(96,)", 
        "__storage_type__": "0", 
        "__wd_mult__": "1.0"
      }, 
      "inputs": []
    }, 
    {
      "op": "Convolution", 
      "name": "conv125_fwd", 
      "attrs": {
        "dilate": "(1, 1)", 
        "kernel": "(3, 3)", 
        "layout": "NCHW", 
        "no_bias": "False", 
        "num_filter": "96", 
        "num_group": "1", 
        "pad": "(1, 1)", 
        "stride": "(1, 1)"
      }, 
      "inputs": [[329, 0, 0], [330, 0, 0], [331, 0, 0]]
    }, 
    {
      "op": "Activation", 
      "name": "silu62_sigmoid0_fwd", 
      "attrs": {"act_type": "sigmoid"}, 
      "inputs": [[332, 0, 0]]
    }, 
    {
      "op": "elemwise_mul", 
      "name": "silu62__mul0", 
      "inputs": [[332, 0, 0], [333, 0, 0]]
    }, 
    {
      "op": "null", 
      "name": "conv115_weight", 
      "attrs": {
        "__dtype__": "0", 
        "__lr_mult__": "1.0", 
        "__shape__": "(96, 0, 1, 1)", 
        "__storage_type__": "0", 
        "__wd_mult__": "1.0"
      }, 
      "inputs": []
    }, 
    {
      "op": "null", 
      "name": "conv115_bias", 
      "attrs": {
        "__dtype__": "0", 
        "__init__": "zeros", 
        "__lr_mult__": "1.0", 
        "__shape__": "(96,)", 
        "__storage_type__": "0", 
        "__wd_mult__": "1.0"
      }, 
      "inputs": []
    }, 
    {
      "op": "Convolution", 
      "name": "conv115_fwd", 
      "attrs": {
        "dilate": "(1, 1)", 
        "kernel": "(1, 1)", 
        "layout": "NCHW", 
        "no_bias": "False", 
        "num_filter": "96", 
        "num_group": "1", 
        "pad": "(0, 0)", 
        "stride": "(1, 1)"
      }, 
      "inputs": [[309, 0, 0], [335, 0, 0], [336, 0, 0]]
    }, 
    {
      "op": "Activation", 
      "name": "silu57_sigmoid0_fwd", 
      "attrs": {"act_type": "sigmoid"}, 
      "inputs": [[337, 0, 0]]
    }, 
    {
      "op": "elemwise_mul", 
      "name": "silu57__mul0", 
      "inputs": [[337, 0, 0], [338, 0, 0]]
    }, 
    {
      "op": "Concat", 
      "name": "c3_rep23_concat0", 
      "attrs": {
        "dim": "1", 
        "num_args": "2"
      }, 
      "inputs": [[334, 0, 0], [339, 0, 0]]
    }, 
    {
      "op": "null", 
      "name": "conv117_weight", 
      "attrs": {
        "__dtype__": "0", 
        "__lr_mult__": "1.0", 
        "__shape__": "(192, 0, 1, 1)", 
        "__storage_type__": "0", 
        "__wd_mult__": "1.0"
      }, 
      "inputs": []
    }, 
    {
      "op": "null", 
      "name": "conv117_bias", 
      "attrs": {
        "__dtype__": "0", 
        "__init__": "zeros", 
        "__lr_mult__": "1.0", 
        "__shape__": "(192,)", 
        "__storage_type__": "0", 
        "__wd_mult__": "1.0"
      }, 
      "inputs": []
    }, 
    {
      "op": "Convolution", 
      "name": "conv117_fwd", 
      "attrs": {
        "dilate": "(1, 1)", 
        "kernel": "(1, 1)", 
        "layout": "NCHW", 
        "no_bias": "False", 
        "num_filter": "192", 
        "num_group": "1", 
        "pad": "(0, 0)", 
        "stride": "(1, 1)"
      }, 
      "inputs": [[340, 0, 0], [341, 0, 0], [342, 0, 0]]
    }, 
    {
      "op": "Activation", 
      "name": "silu58_sigmoid0_fwd", 
      "attrs": {"act_type": "sigmoid"}, 
      "inputs": [[343, 0, 0]]
    }, 
    {
      "op": "elemwise_mul", 
      "name": "silu58__mul0", 
      "inputs": [[343, 0, 0], [344, 0, 0]]
    }, 
    {
      "op": "null", 
      "name": "conv158_weight", 
      "attrs": {
        "__dtype__": "0", 
        "__lr_mult__": "1.0", 
        "__shape__": "(255, 0, 1, 1)", 
        "__storage_type__": "0", 
        "__wd_mult__": "1.0"
      }, 
      "inputs": []
    }, 
    {
      "op": "null", 
      "name": "conv158_bias", 
      "attrs": {
        "__dtype__": "0", 
        "__init__": "zeros", 
        "__lr_mult__": "1.0", 
        "__shape__": "(255,)", 
        "__storage_type__": "0", 
        "__wd_mult__": "1.0"
      }, 
      "inputs": []
    }, 
    {
      "op": "Convolution", 
      "name": "conv158_fwd", 
      "attrs": {
        "dilate": "(1, 1)", 
        "kernel": "(1, 1)", 
        "layout": "NCHW", 
        "no_bias": "False", 
        "num_filter": "255", 
        "num_group": "1", 
        "pad": "(0, 0)", 
        "stride": "(1, 1)"
      }, 
      "inputs": [[345, 0, 0], [346, 0, 0], [347, 0, 0]]
    }, 
    {
      "op": "Reshape", 
      "name": "detect0_reshape0", 
      "attrs": {"shape": "(1, 3, 85, 80, 80)"}, 
      "inputs": [[348, 0, 0]]
    }, 
    {
      "op": "transpose", 
      "name": "detect0_transpose0", 
      "attrs": {"axes": "(0, 1, 3, 4, 2)"}, 
      "inputs": [[349, 0, 0]]
    }, 
    {
      "op": "null", 
      "name": "conv127_weight", 
      "attrs": {
        "__dtype__": "0", 
        "__lr_mult__": "1.0", 
        "__shape__": "(192, 0, 3, 3)", 
        "__storage_type__": "0", 
        "__wd_mult__": "1.0"
      }, 
      "inputs": []
    }, 
    {
      "op": "null", 
      "name": "conv127_bias", 
      "attrs": {
        "__dtype__": "0", 
        "__init__": "zeros", 
        "__lr_mult__": "1.0", 
        "__shape__": "(192,)", 
        "__storage_type__": "0", 
        "__wd_mult__": "1.0"
      }, 
      "inputs": []
    }, 
    {
      "op": "Convolution", 
      "name": "conv127_fwd", 
      "attrs": {
        "dilate": "(1, 1)", 
        "kernel": "(3, 3)", 
        "layout": "NCHW", 
        "no_bias": "False", 
        "num_filter": "192", 
        "num_group": "1", 
        "pad": "(1, 1)", 
        "stride": "(2, 2)"
      }, 
      "inputs": [[345, 0, 0], [351, 0, 0], [352, 0, 0]]
    }, 
    {
      "op": "Activation", 
      "name": "silu63_sigmoid0_fwd", 
      "attrs": {"act_type": "sigmoid"}, 
      "inputs": [[353, 0, 0]]
    }, 
    {
      "op": "elemwise_mul", 
      "name": "silu63__mul0", 
      "inputs": [[353, 0, 0], [354, 0, 0]]
    }, 
    {
      "op": "Concat", 
      "name": "cat2_concat0", 
      "attrs": {
        "dim": "1", 
        "num_args": "2"
      }, 
      "inputs": [[355, 0, 0], [306, 0, 0]]
    }, 
    {
      "op": "null", 
      "name": "conv129_weight", 
      "attrs": {
        "__dtype__": "0", 
        "__lr_mult__": "1.0", 
        "__shape__": "(192, 0, 1, 1)", 
        "__storage_type__": "0", 
        "__wd_mult__": "1.0"
      }, 
      "inputs": []
    }, 
    {
      "op": "null", 
      "name": "conv129_bias", 
      "attrs": {
        "__dtype__": "0", 
        "__init__": "zeros", 
        "__lr_mult__": "1.0", 
        "__shape__": "(192,)", 
        "__storage_type__": "0", 
        "__wd_mult__": "1.0"
      }, 
      "inputs": []
    }, 
    {
      "op": "Convolution", 
      "name": "conv129_fwd", 
      "attrs": {
        "dilate": "(1, 1)", 
        "kernel": "(1, 1)", 
        "layout": "NCHW", 
        "no_bias": "False", 
        "num_filter": "192", 
        "num_group": "1", 
        "pad": "(0, 0)", 
        "stride": "(1, 1)"
      }, 
      "inputs": [[356, 0, 0], [357, 0, 0], [358, 0, 0]]
    }, 
    {
      "op": "Activation", 
      "name": "silu64_sigmoid0_fwd", 
      "attrs": {"act_type": "sigmoid"}, 
      "inputs": [[359, 0, 0]]
    }, 
    {
      "op": "elemwise_mul", 
      "name": "silu64__mul0", 
      "inputs": [[359, 0, 0], [360, 0, 0]]
    }, 
    {
      "op": "null", 
      "name": "conv135_weight", 
      "attrs": {
        "__dtype__": "0", 
        "__lr_mult__": "1.0", 
        "__shape__": "(192, 0, 1, 1)", 
        "__storage_type__": "0", 
        "__wd_mult__": "1.0"
      }, 
      "inputs": []
    }, 
    {
      "op": "null", 
      "name": "conv135_bias", 
      "attrs": {
        "__dtype__": "0", 
        "__init__": "zeros", 
        "__lr_mult__": "1.0", 
        "__shape__": "(192,)", 
        "__storage_type__": "0", 
        "__wd_mult__": "1.0"
      }, 
      "inputs": []
    }, 
    {
      "op": "Convolution", 
      "name": "conv135_fwd", 
      "attrs": {
        "dilate": "(1, 1)", 
        "kernel": "(1, 1)", 
        "layout": "NCHW", 
        "no_bias": "False", 
        "num_filter": "192", 
        "num_group": "1", 
        "pad": "(0, 0)", 
        "stride": "(1, 1)"
      }, 
      "inputs": [[361, 0, 0], [362, 0, 0], [363, 0, 0]]
    }, 
    {
      "op": "Activation", 
      "name": "silu67_sigmoid0_fwd", 
      "attrs": {"act_type": "sigmoid"}, 
      "inputs": [[364, 0, 0]]
    }, 
    {
      "op": "elemwise_mul", 
      "name": "silu67__mul0", 
      "inputs": [[364, 0, 0], [365, 0, 0]]
    }, 
    {
      "op": "null", 
      "name": "conv137_weight", 
      "attrs": {
        "__dtype__": "0", 
        "__lr_mult__": "1.0", 
        "__shape__": "(192, 0, 3, 3)", 
        "__storage_type__": "0", 
        "__wd_mult__": "1.0"
      }, 
      "inputs": []
    }, 
    {
      "op": "null", 
      "name": "conv137_bias", 
      "attrs": {
        "__dtype__": "0", 
        "__init__": "zeros", 
        "__lr_mult__": "1.0", 
        "__shape__": "(192,)", 
        "__storage_type__": "0", 
        "__wd_mult__": "1.0"
      }, 
      "inputs": []
    }, 
    {
      "op": "Convolution", 
      "name": "conv137_fwd", 
      "attrs": {
        "dilate": "(1, 1)", 
        "kernel": "(3, 3)", 
        "layout": "NCHW", 
        "no_bias": "False", 
        "num_filter": "192", 
        "num_group": "1", 
        "pad": "(1, 1)", 
        "stride": "(1, 1)"
      }, 
      "inputs": [[366, 0, 0], [367, 0, 0], [368, 0, 0]]
    }, 
    {
      "op": "Activation", 
      "name": "silu68_sigmoid0_fwd", 
      "attrs": {"act_type": "sigmoid"}, 
      "inputs": [[369, 0, 0]]
    }, 
    {
      "op": "elemwise_mul", 
      "name": "silu68__mul0", 
      "inputs": [[369, 0, 0], [370, 0, 0]]
    }, 
    {
      "op": "null", 
      "name": "conv139_weight", 
      "attrs": {
        "__dtype__": "0", 
        "__lr_mult__": "1.0", 
        "__shape__": "(192, 0, 1, 1)", 
        "__storage_type__": "0", 
        "__wd_mult__": "1.0"
      }, 
      "inputs": []
    }, 
    {
      "op": "null", 
      "name": "conv139_bias", 
      "attrs": {
        "__dtype__": "0", 
        "__init__": "zeros", 
        "__lr_mult__": "1.0", 
        "__shape__": "(192,)", 
        "__storage_type__": "0", 
        "__wd_mult__": "1.0"
      }, 
      "inputs": []
    }, 
    {
      "op": "Convolution", 
      "name": "conv139_fwd", 
      "attrs": {
        "dilate": "(1, 1)", 
        "kernel": "(1, 1)", 
        "layout": "NCHW", 
        "no_bias": "False", 
        "num_filter": "192", 
        "num_group": "1", 
        "pad": "(0, 0)", 
        "stride": "(1, 1)"
      }, 
      "inputs": [[371, 0, 0], [372, 0, 0], [373, 0, 0]]
    }, 
    {
      "op": "Activation", 
      "name": "silu69_sigmoid0_fwd", 
      "attrs": {"act_type": "sigmoid"}, 
      "inputs": [[374, 0, 0]]
    }, 
    {
      "op": "elemwise_mul", 
      "name": "silu69__mul0", 
      "inputs": [[374, 0, 0], [375, 0, 0]]
    }, 
    {
      "op": "null", 
      "name": "conv141_weight", 
      "attrs": {
        "__dtype__": "0", 
        "__lr_mult__": "1.0", 
        "__shape__": "(192, 0, 3, 3)", 
        "__storage_type__": "0", 
        "__wd_mult__": "1.0"
      }, 
      "inputs": []
    }, 
    {
      "op": "null", 
      "name": "conv141_bias", 
      "attrs": {
        "__dtype__": "0", 
        "__init__": "zeros", 
        "__lr_mult__": "1.0", 
        "__shape__": "(192,)", 
        "__storage_type__": "0", 
        "__wd_mult__": "1.0"
      }, 
      "inputs": []
    }, 
    {
      "op": "Convolution", 
      "name": "conv141_fwd", 
      "attrs": {
        "dilate": "(1, 1)", 
        "kernel": "(3, 3)", 
        "layout": "NCHW", 
        "no_bias": "False", 
        "num_filter": "192", 
        "num_group": "1", 
        "pad": "(1, 1)", 
        "stride": "(1, 1)"
      }, 
      "inputs": [[376, 0, 0], [377, 0, 0], [378, 0, 0]]
    }, 
    {
      "op": "Activation", 
      "name": "silu70_sigmoid0_fwd", 
      "attrs": {"act_type": "sigmoid"}, 
      "inputs": [[379, 0, 0]]
    }, 
    {
      "op": "elemwise_mul", 
      "name": "silu70__mul0", 
      "inputs": [[379, 0, 0], [380, 0, 0]]
    }, 
    {
      "op": "null", 
      "name": "conv131_weight", 
      "attrs": {
        "__dtype__": "0", 
        "__lr_mult__": "1.0", 
        "__shape__": "(192, 0, 1, 1)", 
        "__storage_type__": "0", 
        "__wd_mult__": "1.0"
      }, 
      "inputs": []
    }, 
    {
      "op": "null", 
      "name": "conv131_bias", 
      "attrs": {
        "__dtype__": "0", 
        "__init__": "zeros", 
        "__lr_mult__": "1.0", 
        "__shape__": "(192,)", 
        "__storage_type__": "0", 
        "__wd_mult__": "1.0"
      }, 
      "inputs": []
    }, 
    {
      "op": "Convolution", 
      "name": "conv131_fwd", 
      "attrs": {
        "dilate": "(1, 1)", 
        "kernel": "(1, 1)", 
        "layout": "NCHW", 
        "no_bias": "False", 
        "num_filter": "192", 
        "num_group": "1", 
        "pad": "(0, 0)", 
        "stride": "(1, 1)"
      }, 
      "inputs": [[356, 0, 0], [382, 0, 0], [383, 0, 0]]
    }, 
    {
      "op": "Activation", 
      "name": "silu65_sigmoid0_fwd", 
      "attrs": {"act_type": "sigmoid"}, 
      "inputs": [[384, 0, 0]]
    }, 
    {
      "op": "elemwise_mul", 
      "name": "silu65__mul0", 
      "inputs": [[384, 0, 0], [385, 0, 0]]
    }, 
    {
      "op": "Concat", 
      "name": "c3_rep24_concat0", 
      "attrs": {
        "dim": "1", 
        "num_args": "2"
      }, 
      "inputs": [[381, 0, 0], [386, 0, 0]]
    }, 
    {
      "op": "null", 
      "name": "conv133_weight", 
      "attrs": {
        "__dtype__": "0", 
        "__lr_mult__": "1.0", 
        "__shape__": "(384, 0, 1, 1)", 
        "__storage_type__": "0", 
        "__wd_mult__": "1.0"
      }, 
      "inputs": []
    }, 
    {
      "op": "null", 
      "name": "conv133_bias", 
      "attrs": {
        "__dtype__": "0", 
        "__init__": "zeros", 
        "__lr_mult__": "1.0", 
        "__shape__": "(384,)", 
        "__storage_type__": "0", 
        "__wd_mult__": "1.0"
      }, 
      "inputs": []
    }, 
    {
      "op": "Convolution", 
      "name": "conv133_fwd", 
      "attrs": {
        "dilate": "(1, 1)", 
        "kernel": "(1, 1)", 
        "layout": "NCHW", 
        "no_bias": "False", 
        "num_filter": "384", 
        "num_group": "1", 
        "pad": "(0, 0)", 
        "stride": "(1, 1)"
      }, 
      "inputs": [[387, 0, 0], [388, 0, 0], [389, 0, 0]]
    }, 
    {
      "op": "Activation", 
      "name": "silu66_sigmoid0_fwd", 
      "attrs": {"act_type": "sigmoid"}, 
      "inputs": [[390, 0, 0]]
    }, 
    {
      "op": "elemwise_mul", 
      "name": "silu66__mul0", 
      "inputs": [[390, 0, 0], [391, 0, 0]]
    }, 
    {
      "op": "null", 
      "name": "conv159_weight", 
      "attrs": {
        "__dtype__": "0", 
        "__lr_mult__": "1.0", 
        "__shape__": "(255, 0, 1, 1)", 
        "__storage_type__": "0", 
        "__wd_mult__": "1.0"
      }, 
      "inputs": []
    }, 
    {
      "op": "null", 
      "name": "conv159_bias", 
      "attrs": {
        "__dtype__": "0", 
        "__init__": "zeros", 
        "__lr_mult__": "1.0", 
        "__shape__": "(255,)", 
        "__storage_type__": "0", 
        "__wd_mult__": "1.0"
      }, 
      "inputs": []
    }, 
    {
      "op": "Convolution", 
      "name": "conv159_fwd", 
      "attrs": {
        "dilate": "(1, 1)", 
        "kernel": "(1, 1)", 
        "layout": "NCHW", 
        "no_bias": "False", 
        "num_filter": "255", 
        "num_group": "1", 
        "pad": "(0, 0)", 
        "stride": "(1, 1)"
      }, 
      "inputs": [[392, 0, 0], [393, 0, 0], [394, 0, 0]]
    }, 
    {
      "op": "Reshape", 
      "name": "detect0_reshape1", 
      "attrs": {"shape": "(1, 3, 85, 40, 40)"}, 
      "inputs": [[395, 0, 0]]
    }, 
    {
      "op": "transpose", 
      "name": "detect0_transpose1", 
      "attrs": {"axes": "(0, 1, 3, 4, 2)"}, 
      "inputs": [[396, 0, 0]]
    }, 
    {
      "op": "null", 
      "name": "conv143_weight", 
      "attrs": {
        "__dtype__": "0", 
        "__lr_mult__": "1.0", 
        "__shape__": "(384, 0, 3, 3)", 
        "__storage_type__": "0", 
        "__wd_mult__": "1.0"
      }, 
      "inputs": []
    }, 
    {
      "op": "null", 
      "name": "conv143_bias", 
      "attrs": {
        "__dtype__": "0", 
        "__init__": "zeros", 
        "__lr_mult__": "1.0", 
        "__shape__": "(384,)", 
        "__storage_type__": "0", 
        "__wd_mult__": "1.0"
      }, 
      "inputs": []
    }, 
    {
      "op": "Convolution", 
      "name": "conv143_fwd", 
      "attrs": {
        "dilate": "(1, 1)", 
        "kernel": "(3, 3)", 
        "layout": "NCHW", 
        "no_bias": "False", 
        "num_filter": "384", 
        "num_group": "1", 
        "pad": "(1, 1)", 
        "stride": "(2, 2)"
      }, 
      "inputs": [[392, 0, 0], [398, 0, 0], [399, 0, 0]]
    }, 
    {
      "op": "Activation", 
      "name": "silu71_sigmoid0_fwd", 
      "attrs": {"act_type": "sigmoid"}, 
      "inputs": [[400, 0, 0]]
    }, 
    {
      "op": "elemwise_mul", 
      "name": "silu71__mul0", 
      "inputs": [[400, 0, 0], [401, 0, 0]]
    }, 
    {
      "op": "Concat", 
      "name": "cat3_concat0", 
      "attrs": {
        "dim": "1", 
        "num_args": "2"
      }, 
      "inputs": [[402, 0, 0], [262, 0, 0]]
    }, 
    {
      "op": "null", 
      "name": "conv145_weight", 
      "attrs": {
        "__dtype__": "0", 
        "__lr_mult__": "1.0", 
        "__shape__": "(384, 0, 1, 1)", 
        "__storage_type__": "0", 
        "__wd_mult__": "1.0"
      }, 
      "inputs": []
    }, 
    {
      "op": "null", 
      "name": "conv145_bias", 
      "attrs": {
        "__dtype__": "0", 
        "__init__": "zeros", 
        "__lr_mult__": "1.0", 
        "__shape__": "(384,)", 
        "__storage_type__": "0", 
        "__wd_mult__": "1.0"
      }, 
      "inputs": []
    }, 
    {
      "op": "Convolution", 
      "name": "conv145_fwd", 
      "attrs": {
        "dilate": "(1, 1)", 
        "kernel": "(1, 1)", 
        "layout": "NCHW", 
        "no_bias": "False", 
        "num_filter": "384", 
        "num_group": "1", 
        "pad": "(0, 0)", 
        "stride": "(1, 1)"
      }, 
      "inputs": [[403, 0, 0], [404, 0, 0], [405, 0, 0]]
    }, 
    {
      "op": "Activation", 
      "name": "silu72_sigmoid0_fwd", 
      "attrs": {"act_type": "sigmoid"}, 
      "inputs": [[406, 0, 0]]
    }, 
    {
      "op": "elemwise_mul", 
      "name": "silu72__mul0", 
      "inputs": [[406, 0, 0], [407, 0, 0]]
    }, 
    {
      "op": "null", 
      "name": "conv151_weight", 
      "attrs": {
        "__dtype__": "0", 
        "__lr_mult__": "1.0", 
        "__shape__": "(384, 0, 1, 1)", 
        "__storage_type__": "0", 
        "__wd_mult__": "1.0"
      }, 
      "inputs": []
    }, 
    {
      "op": "null", 
      "name": "conv151_bias", 
      "attrs": {
        "__dtype__": "0", 
        "__init__": "zeros", 
        "__lr_mult__": "1.0", 
        "__shape__": "(384,)", 
        "__storage_type__": "0", 
        "__wd_mult__": "1.0"
      }, 
      "inputs": []
    }, 
    {
      "op": "Convolution", 
      "name": "conv151_fwd", 
      "attrs": {
        "dilate": "(1, 1)", 
        "kernel": "(1, 1)", 
        "layout": "NCHW", 
        "no_bias": "False", 
        "num_filter": "384", 
        "num_group": "1", 
        "pad": "(0, 0)", 
        "stride": "(1, 1)"
      }, 
      "inputs": [[408, 0, 0], [409, 0, 0], [410, 0, 0]]
    }, 
    {
      "op": "Activation", 
      "name": "silu75_sigmoid0_fwd", 
      "attrs": {"act_type": "sigmoid"}, 
      "inputs": [[411, 0, 0]]
    }, 
    {
      "op": "elemwise_mul", 
      "name": "silu75__mul0", 
      "inputs": [[411, 0, 0], [412, 0, 0]]
    }, 
    {
      "op": "null", 
      "name": "conv153_weight", 
      "attrs": {
        "__dtype__": "0", 
        "__lr_mult__": "1.0", 
        "__shape__": "(384, 0, 3, 3)", 
        "__storage_type__": "0", 
        "__wd_mult__": "1.0"
      }, 
      "inputs": []
    }, 
    {
      "op": "null", 
      "name": "conv153_bias", 
      "attrs": {
        "__dtype__": "0", 
        "__init__": "zeros", 
        "__lr_mult__": "1.0", 
        "__shape__": "(384,)", 
        "__storage_type__": "0", 
        "__wd_mult__": "1.0"
      }, 
      "inputs": []
    }, 
    {
      "op": "Convolution", 
      "name": "conv153_fwd", 
      "attrs": {
        "dilate": "(1, 1)", 
        "kernel": "(3, 3)", 
        "layout": "NCHW", 
        "no_bias": "False", 
        "num_filter": "384", 
        "num_group": "1", 
        "pad": "(1, 1)", 
        "stride": "(1, 1)"
      }, 
      "inputs": [[413, 0, 0], [414, 0, 0], [415, 0, 0]]
    }, 
    {
      "op": "Activation", 
      "name": "silu76_sigmoid0_fwd", 
      "attrs": {"act_type": "sigmoid"}, 
      "inputs": [[416, 0, 0]]
    }, 
    {
      "op": "elemwise_mul", 
      "name": "silu76__mul0", 
      "inputs": [[416, 0, 0], [417, 0, 0]]
    }, 
    {
      "op": "null", 
      "name": "conv155_weight", 
      "attrs": {
        "__dtype__": "0", 
        "__lr_mult__": "1.0", 
        "__shape__": "(384, 0, 1, 1)", 
        "__storage_type__": "0", 
        "__wd_mult__": "1.0"
      }, 
      "inputs": []
    }, 
    {
      "op": "null", 
      "name": "conv155_bias", 
      "attrs": {
        "__dtype__": "0", 
        "__init__": "zeros", 
        "__lr_mult__": "1.0", 
        "__shape__": "(384,)", 
        "__storage_type__": "0", 
        "__wd_mult__": "1.0"
      }, 
      "inputs": []
    }, 
    {
      "op": "Convolution", 
      "name": "conv155_fwd", 
      "attrs": {
        "dilate": "(1, 1)", 
        "kernel": "(1, 1)", 
        "layout": "NCHW", 
        "no_bias": "False", 
        "num_filter": "384", 
        "num_group": "1", 
        "pad": "(0, 0)", 
        "stride": "(1, 1)"
      }, 
      "inputs": [[418, 0, 0], [419, 0, 0], [420, 0, 0]]
    }, 
    {
      "op": "Activation", 
      "name": "silu77_sigmoid0_fwd", 
      "attrs": {"act_type": "sigmoid"}, 
      "inputs": [[421, 0, 0]]
    }, 
    {
      "op": "elemwise_mul", 
      "name": "silu77__mul0", 
      "inputs": [[421, 0, 0], [422, 0, 0]]
    }, 
    {
      "op": "null", 
      "name": "conv157_weight", 
      "attrs": {
        "__dtype__": "0", 
        "__lr_mult__": "1.0", 
        "__shape__": "(384, 0, 3, 3)", 
        "__storage_type__": "0", 
        "__wd_mult__": "1.0"
      }, 
      "inputs": []
    }, 
    {
      "op": "null", 
      "name": "conv157_bias", 
      "attrs": {
        "__dtype__": "0", 
        "__init__": "zeros", 
        "__lr_mult__": "1.0", 
        "__shape__": "(384,)", 
        "__storage_type__": "0", 
        "__wd_mult__": "1.0"
      }, 
      "inputs": []
    }, 
    {
      "op": "Convolution", 
      "name": "conv157_fwd", 
      "attrs": {
        "dilate": "(1, 1)", 
        "kernel": "(3, 3)", 
        "layout": "NCHW", 
        "no_bias": "False", 
        "num_filter": "384", 
        "num_group": "1", 
        "pad": "(1, 1)", 
        "stride": "(1, 1)"
      }, 
      "inputs": [[423, 0, 0], [424, 0, 0], [425, 0, 0]]
    }, 
    {
      "op": "Activation", 
      "name": "silu78_sigmoid0_fwd", 
      "attrs": {"act_type": "sigmoid"}, 
      "inputs": [[426, 0, 0]]
    }, 
    {
      "op": "elemwise_mul", 
      "name": "silu78__mul0", 
      "inputs": [[426, 0, 0], [427, 0, 0]]
    }, 
    {
      "op": "null", 
      "name": "conv147_weight", 
      "attrs": {
        "__dtype__": "0", 
        "__lr_mult__": "1.0", 
        "__shape__": "(384, 0, 1, 1)", 
        "__storage_type__": "0", 
        "__wd_mult__": "1.0"
      }, 
      "inputs": []
    }, 
    {
      "op": "null", 
      "name": "conv147_bias", 
      "attrs": {
        "__dtype__": "0", 
        "__init__": "zeros", 
        "__lr_mult__": "1.0", 
        "__shape__": "(384,)", 
        "__storage_type__": "0", 
        "__wd_mult__": "1.0"
      }, 
      "inputs": []
    }, 
    {
      "op": "Convolution", 
      "name": "conv147_fwd", 
      "attrs": {
        "dilate": "(1, 1)", 
        "kernel": "(1, 1)", 
        "layout": "NCHW", 
        "no_bias": "False", 
        "num_filter": "384", 
        "num_group": "1", 
        "pad": "(0, 0)", 
        "stride": "(1, 1)"
      }, 
      "inputs": [[403, 0, 0], [429, 0, 0], [430, 0, 0]]
    }, 
    {
      "op": "Activation", 
      "name": "silu73_sigmoid0_fwd", 
      "attrs": {"act_type": "sigmoid"}, 
      "inputs": [[431, 0, 0]]
    }, 
    {
      "op": "elemwise_mul", 
      "name": "silu73__mul0", 
      "inputs": [[431, 0, 0], [432, 0, 0]]
    }, 
    {
      "op": "Concat", 
      "name": "c3_rep25_concat0", 
      "attrs": {
        "dim": "1", 
        "num_args": "2"
      }, 
      "inputs": [[428, 0, 0], [433, 0, 0]]
    }, 
    {
      "op": "null", 
      "name": "conv149_weight", 
      "attrs": {
        "__dtype__": "0", 
        "__lr_mult__": "1.0", 
        "__shape__": "(768, 0, 1, 1)", 
        "__storage_type__": "0", 
        "__wd_mult__": "1.0"
      }, 
      "inputs": []
    }, 
    {
      "op": "null", 
      "name": "conv149_bias", 
      "attrs": {
        "__dtype__": "0", 
        "__init__": "zeros", 
        "__lr_mult__": "1.0", 
        "__shape__": "(768,)", 
        "__storage_type__": "0", 
        "__wd_mult__": "1.0"
      }, 
      "inputs": []
    }, 
    {
      "op": "Convolution", 
      "name": "conv149_fwd", 
      "attrs": {
        "dilate": "(1, 1)", 
        "kernel": "(1, 1)", 
        "layout": "NCHW", 
        "no_bias": "False", 
        "num_filter": "768", 
        "num_group": "1", 
        "pad": "(0, 0)", 
        "stride": "(1, 1)"
      }, 
      "inputs": [[434, 0, 0], [435, 0, 0], [436, 0, 0]]
    }, 
    {
      "op": "Activation", 
      "name": "silu74_sigmoid0_fwd", 
      "attrs": {"act_type": "sigmoid"}, 
      "inputs": [[437, 0, 0]]
    }, 
    {
      "op": "elemwise_mul", 
      "name": "silu74__mul0", 
      "inputs": [[437, 0, 0], [438, 0, 0]]
    }, 
    {
      "op": "null", 
      "name": "conv160_weight", 
      "attrs": {
        "__dtype__": "0", 
        "__lr_mult__": "1.0", 
        "__shape__": "(255, 0, 1, 1)", 
        "__storage_type__": "0", 
        "__wd_mult__": "1.0"
      }, 
      "inputs": []
    }, 
    {
      "op": "null", 
      "name": "conv160_bias", 
      "attrs": {
        "__dtype__": "0", 
        "__init__": "zeros", 
        "__lr_mult__": "1.0", 
        "__shape__": "(255,)", 
        "__storage_type__": "0", 
        "__wd_mult__": "1.0"
      }, 
      "inputs": []
    }, 
    {
      "op": "Convolution", 
      "name": "conv160_fwd", 
      "attrs": {
        "dilate": "(1, 1)", 
        "kernel": "(1, 1)", 
        "layout": "NCHW", 
        "no_bias": "False", 
        "num_filter": "255", 
        "num_group": "1", 
        "pad": "(0, 0)", 
        "stride": "(1, 1)"
      }, 
      "inputs": [[439, 0, 0], [440, 0, 0], [441, 0, 0]]
    }, 
    {
      "op": "Reshape", 
      "name": "detect0_reshape2", 
      "attrs": {"shape": "(1, 3, 85, 20, 20)"}, 
      "inputs": [[442, 0, 0]]
    }, 
    {
      "op": "transpose", 
      "name": "detect0_transpose2", 
      "attrs": {"axes": "(0, 1, 3, 4, 2)"}, 
      "inputs": [[443, 0, 0]]
    }
  ], 
  "arg_nodes": [
    0, 
    1, 
    2, 
    6, 
    7, 
    11, 
    12, 
    16, 
    17, 
    21, 
    22, 
    27, 
    28, 
    32, 
    33, 
    38, 
    39, 
    44, 
    45, 
    49, 
    50, 
    54, 
    55, 
    59, 
    60, 
    64, 
    65, 
    70, 
    71, 
    75, 
    76, 
    81, 
    82, 
    86, 
    87, 
    92, 
    93, 
    97, 
    98, 
    103, 
    104, 
    109, 
    110, 
    114, 
    115, 
    119, 
    120, 
    124, 
    125, 
    129, 
    130, 
    135, 
    136, 
    140, 
    141, 
    146, 
    147, 
    151, 
    152, 
    157, 
    158, 
    162, 
    163, 
    168, 
    169, 
    173, 
    174, 
    179, 
    180, 
    184, 
    185, 
    190, 
    191, 
    196, 
    197, 
    201, 
    202, 
    206, 
    207, 
    211, 
    212, 
    216, 
    217, 
    222, 
    223, 
    227, 
    228, 
    233, 
    234, 
    239, 
    240, 
    244, 
    245, 
    253, 
    254, 
    258, 
    259, 
    266, 
    267, 
    271, 
    272, 
    276, 
    277, 
    281, 
    282, 
    286, 
    287, 
    291, 
    292, 
    297, 
    298, 
    302, 
    303, 
    310, 
    311, 
    315, 
    316, 
    320, 
    321, 
    325, 
    326, 
    330, 
    331, 
    335, 
    336, 
    341, 
    342, 
    346, 
    347, 
    351, 
    352, 
    357, 
    358, 
    362, 
    363, 
    367, 
    368, 
    372, 
    373, 
    377, 
    378, 
    382, 
    383, 
    388, 
    389, 
    393, 
    394, 
    398, 
    399, 
    404, 
    405, 
    409, 
    410, 
    414, 
    415, 
    419, 
    420, 
    424, 
    425, 
    429, 
    430, 
    435, 
    436, 
    440, 
    441
  ], 
  "node_row_ptr": [
    0, 
    1, 
    2, 
    3, 
    4, 
    5, 
    6, 
    7, 
    8, 
    9, 
    10, 
    11, 
    12, 
    13, 
    14, 
    15, 
    16, 
    17, 
    18, 
    19, 
    20, 
    21, 
    22, 
    23, 
    24, 
    25, 
    26, 
    27, 
    28, 
    29, 
    30, 
    31, 
    32, 
    33, 
    34, 
    35, 
    36, 
    37, 
    38, 
    39, 
    40, 
    41, 
    42, 
    43, 
    44, 
    45, 
    46, 
    47, 
    48, 
    49, 
    50, 
    51, 
    52, 
    53, 
    54, 
    55, 
    56, 
    57, 
    58, 
    59, 
    60, 
    61, 
    62, 
    63, 
    64, 
    65, 
    66, 
    67, 
    68, 
    69, 
    70, 
    71, 
    72, 
    73, 
    74, 
    75, 
    76, 
    77, 
    78, 
    79, 
    80, 
    81, 
    82, 
    83, 
    84, 
    85, 
    86, 
    87, 
    88, 
    89, 
    90, 
    91, 
    92, 
    93, 
    94, 
    95, 
    96, 
    97, 
    98, 
    99, 
    100, 
    101, 
    102, 
    103, 
    104, 
    105, 
    106, 
    107, 
    108, 
    109, 
    110, 
    111, 
    112, 
    113, 
    114, 
    115, 
    116, 
    117, 
    118, 
    119, 
    120, 
    121, 
    122, 
    123, 
    124, 
    125, 
    126, 
    127, 
    128, 
    129, 
    130, 
    131, 
    132, 
    133, 
    134, 
    135, 
    136, 
    137, 
    138, 
    139, 
    140, 
    141, 
    142, 
    143, 
    144, 
    145, 
    146, 
    147, 
    148, 
    149, 
    150, 
    151, 
    152, 
    153, 
    154, 
    155, 
    156, 
    157, 
    158, 
    159, 
    160, 
    161, 
    162, 
    163, 
    164, 
    165, 
    166, 
    167, 
    168, 
    169, 
    170, 
    171, 
    172, 
    173, 
    174, 
    175, 
    176, 
    177, 
    178, 
    179, 
    180, 
    181, 
    182, 
    183, 
    184, 
    185, 
    186, 
    187, 
    188, 
    189, 
    190, 
    191, 
    192, 
    193, 
    194, 
    195, 
    196, 
    197, 
    198, 
    199, 
    200, 
    201, 
    202, 
    203, 
    204, 
    205, 
    206, 
    207, 
    208, 
    209, 
    210, 
    211, 
    212, 
    213, 
    214, 
    215, 
    216, 
    217, 
    218, 
    219, 
    220, 
    221, 
    222, 
    223, 
    224, 
    225, 
    226, 
    227, 
    228, 
    229, 
    230, 
    231, 
    232, 
    233, 
    234, 
    235, 
    236, 
    237, 
    238, 
    239, 
    240, 
    241, 
    242, 
    243, 
    244, 
    245, 
    246, 
    247, 
    248, 
    249, 
    251, 
    253, 
    255, 
    256, 
    257, 
    258, 
    259, 
    260, 
    261, 
    262, 
    263, 
    264, 
    265, 
    266, 
    267, 
    268, 
    269, 
    270, 
    271, 
    272, 
    273, 
    274, 
    275, 
    276, 
    277, 
    278, 
    279, 
    280, 
    281, 
    282, 
    283, 
    284, 
    285, 
    286, 
    287, 
    288, 
    289, 
    290, 
    291, 
    292, 
    293, 
    294, 
    295, 
    296, 
    297, 
    298, 
    299, 
    300, 
    301, 
    302, 
    303, 
    304, 
    305, 
    306, 
    307, 
    308, 
    309, 
    310, 
    311, 
    312, 
    313, 
    314, 
    315, 
    316, 
    317, 
    318, 
    319, 
    320, 
    321, 
    322, 
    323, 
    324, 
    325, 
    326, 
    327, 
    328, 
    329, 
    330, 
    331, 
    332, 
    333, 
    334, 
    335, 
    336, 
    337, 
    338, 
    339, 
    340, 
    341, 
    342, 
    343, 
    344, 
    345, 
    346, 
    347, 
    348, 
    349, 
    350, 
    351, 
    352, 
    353, 
    354, 
    355, 
    356, 
    357, 
    358, 
    359, 
    360, 
    361, 
    362, 
    363, 
    364, 
    365, 
    366, 
    367, 
    368, 
    369, 
    370, 
    371, 
    372, 
    373, 
    374, 
    375, 
    376, 
    377, 
    378, 
    379, 
    380, 
    381, 
    382, 
    383, 
    384, 
    385, 
    386, 
    387, 
    388, 
    389, 
    390, 
    391, 
    392, 
    393, 
    394, 
    395, 
    396, 
    397, 
    398, 
    399, 
    400, 
    401, 
    402, 
    403, 
    404, 
    405, 
    406, 
    407, 
    408, 
    409, 
    410, 
    411, 
    412, 
    413, 
    414, 
    415, 
    416, 
    417, 
    418, 
    419, 
    420, 
    421, 
    422, 
    423, 
    424, 
    425, 
    426, 
    427, 
    428, 
    429, 
    430, 
    431, 
    432, 
    433, 
    434, 
    435, 
    436, 
    437, 
    438, 
    439, 
    440, 
    441, 
    442, 
    443, 
    444, 
    445, 
    446, 
    447, 
    448
  ], 
  "heads": [[350, 0, 0], [397, 0, 0], [444, 0, 0]], 
  "attrs": {"mxnet_version": ["int", 10800]}
}